ffnn_model.pth (torch, 121175 bytes, 6 tensors)

fc1.weight f4 [64, 396]
0	0x3cd4b500	0.025965214
1	0xbd2593f8	-0.040424317
2	0x3d24a12f	0.04019278
3	0x3c7fe15f	0.0156176975
4	0x3bb70ae9	0.0055860174
5	0xbd65bc0f	-0.05608755
6	0xbcbabef5	-0.022796134
7	0xbc4632c4	-0.012097064
8	0xbd726f81	-0.05918837
9	0x3cd74940	0.026280046
10	0x3c67cf78	0.0141485855
11	0x3c86352c	0.016382776
12	0xbc63366c	-0.013867956
13	0x3c1d2462	0.009591194
14	0x3c7f0777	0.015565745
15	0xbc497144	-0.012295071
16	0xbc8fbe8c	-0.017546915
17	0xbd3c3172	-0.045945592
18	0xbcb4b1f7	-0.022057517
19	0x3d1991c0	0.037492514
20	0xbaaa11ef	-0.0012975315
21	0xbcabcfa3	-0.020973032
22	0x3cd675ce	0.02617922
23	0xbc82a590	-0.015948087
24	0xbd609e6a	-0.054838575
25	0xbc22e1a3	-0.009941491
26	0xbcf0136b	-0.029306134
27	0xbbfecd0c	-0.0077759083
28	0xbd1a2939	-0.03763697
29	0x3d285db1	0.041104976
30	0x3d2934ea	0.04131023
31	0xbb99eef2	-0.004697674
32	0xbc74231c	-0.014900949
33	0xbcfe568c	-0.031047128
34	0xbc622f2c	-0.013805192
35	0x3c985a88	0.018597856
36	0x3c9cffff	0.019165037
37	0xbcbb6788	-0.022876516
38	0xbd42952d	-0.047505546
39	0x3beae875	0.0071688243
40	0x3c136071	0.008995161
41	0x3ad66b7f	0.0016358941
42	0xbd12165e	-0.035665862
43	0x3cf58e71	0.029975148
44	0xbcba228c	-0.022721551
45	0x3c6d3f47	0.0144804185
46	0x3cd69ed0	0.026198775
47	0xbcb0e914	-0.021595515
48	0x3cbd54a1	0.023111643
49	0x3cacbeab	0.021087011
50	0xbcc43cea	-0.023954827
51	0x3d4f614a	0.05062989
52	0x3d0b3048	0.03398159
53	0xbc6726eb	-0.0141084
54	0xbcc393de	-0.02387422
55	0xba0af554	-0.0005300839
56	0xbd5f9cc7	-0.054592874
57	0x3cd8bb7f	0.026456593
58	0x3cc52aa0	0.024068177
59	0x3c0576e1	0.008146019
60	0xbc3e970e	-0.011632694
61	0xbc98928c	-0.018624566
62	0x3ca04b4f	0.01956716
63	0x3c748007	0.014923102
64	0xbd12e2e2	-0.035860904
65	0x3b80d94b	0.0039321533
66	0xbd079afe	-0.033106796
67	0xbc371039	-0.011173301
68	0xbd1a17f7	-0.03762051
69	0x3b0b5ba6	0.0021264344
70	0xbd43a4de	-0.04776465
71	0xbd6b2ad9	-0.05741391
72	0x3c19f311	0.00939633
73	0xbd034a3f	-0.03205323
74	0x3ae1138d	0.0017171964
75	0xbbe32018	-0.006931316
76	0xbc2bad44	-0.010478321
77	0x3cd10e6c	0.025519572
78	0x3ce42815	0.027851144
79	0xbb8668ce	-0.004101849
80	0x3d05c1b7	0.032655444
81	0xbc91894b	-0.017765662
82	0xbd622a8a	-0.05521635
83	0x3bdedfd0	0.006801583
84	0xbc8e63ef	-0.017381636
85	0xbcf473f7	-0.029840453
86	0x3cbdbfd2	0.023162756
87	0xbccd414f	-0.025055556
88	0x3c8b73eb	0.017023047
89	0x3c8c0df4	0.017096497
90	0xbd4174e6	-0.047230624
91	0x3d44f507	0.04808524
92	0xbccae1b2	-0.024765823
93	0x3bfb6e5b	0.0076730675
94	0xbd2b9e12	-0.041898794
95	0xbd131a5f	-0.03591382
96	0x3a2944f0	0.0006457111
97	0xbcd7de18	-0.02635102
98	0xbc0dc7ac	-0.0086535625
99	0xbbecaf21	-0.0072230254
100	0xbcfd98b2	-0.0309566
101	0xbd5fb059	-0.054611538
102	0xbd4252ad	-0.047442127
103	0xbd497d65	-0.04919185
104	0xbb90d582	-0.0044199834
105	0xbd0d94ec	-0.03456585
106	0xbc2ecc4b	-0.010668824
107	0x3ba5c925	0.0050593787
108	0xba9c9665	-0.0011946677
109	0xbd78a6b2	-0.060705848
110	0xbc8e5efa	-0.017379273
111	0xbd1bf8ce	-0.038079076
112	0xbd4b7955	-0.049676258
113	0x3c03a19a	0.008034134
114	0xbd447334	-0.04796143
115	0x3d1f6ee2	0.038924105
116	0xbc4ba079	-0.012428396
117	0x3d1333c4	0.03593804
118	0xbd116b75	-0.03550287
119	0xbb219f00	-0.0024661422
120	0xbcec7c72	-0.028867934
121	0x3d0f169d	0.034933675
122	0xbd6e0d76	-0.058118306
123	0x3c81866d	0.01581117
124	0x3c9fb5ab	0.019495806
125	0xbcff7562	-0.031183902
126	0xbb75b701	-0.0037493112
127	0x3cb3654e	0.021898892
128	0xbce68921	-0.02814156
129	0x3ca23825	0.019802162
130	0xbcc30f23	-0.023810929
131	0xbd1a76b2	-0.037710853
132	0xbb3b440c	-0.0028574495
133	0x3cedfaa7	0.029050184
134	0xbcefef8c	-0.02928903
135	0x3d11016a	0.03540174
136	0x3ce69d2d	0.02815112
137	0x3cae4038	0.021270856
138	0xbd485792	-0.04891164
139	0xbd3abf44	-0.04559256
140	0x3bfebf1e	0.007774248
141	0xbc91596a	-0.017742831
142	0x3d59f95e	0.05321633
143	0x3cfee1b8	0.03111349
144	0x3cfba086	0.030716192
145	0x3ca1d148	0.019753113
146	0x3cbe3982	0.023220781
147	0x3b2543d8	0.002521744
148	0xbd2f5adc	-0.04281126
149	0x3c438fd8	0.0119361505
150	0xbc914cf8	-0.017736897
151	0x3d44607b	0.047943573
152	0xbcde983e	-0.027172204
153	0xbd3b67b3	-0.045753192
154	0x3c0945f0	0.008378491
155	0xbd3f0bac	-0.04664199
156	0x3c690730	0.014222905
157	0xbd48159f	-0.048848744
158	0xbc63a2b4	-0.013893772
159	0x3c34afa3	0.011028203
160	0xbcb48ebb	-0.022040715
161	0xbc8c8937	-0.017155273
162	0xbb9b8fbd	-0.0047473595
163	0xbcaed8aa	-0.021343548
164	0xbd64e26f	-0.055880006
165	0xbc76471a	-0.0150316
166	0x3cc7cbce	0.024389174
167	0x3b9fe52f	0.0048796157
168	0x3c4386e3	0.011934015
169	0xbd31db23	-0.043421876
170	0x3c85dd9c	0.016341023
171	0xbcf58235	-0.029969314
172	0xbce35d71	-0.027754517
173	0xbd201c59	-0.039089534
174	0x3d31bc4f	0.043392476
175	0xbd39c5b7	-0.04535457
176	0x3d1bc291	0.03802735
177	0x3cfeeab6	0.031117778
178	0x3c17e9dc	0.009272065
179	0xbc7b3033	-0.015331316
180	0x3d044a15	0.032297213
181	0xbd2cf082	-0.042221554
182	0xbcd261ac	-0.02568134
183	0x3beeea47	0.0072911116
184	0xbd220365	-0.03955402
185	0xbd3dc5a5	-0.046331067
186	0x3cda264b	0.026629588
187	0xbc3a720b	-0.011379729
188	0x3bf2df77	0.007411893
189	0xbcc83ce0	-0.02444309
190	0x3cae2010	0.021255523
191	0x3ceb1561	0.028696718
192	0xbd510967	-0.051034357
193	0xbd483455	-0.048878033
194	0x3c33a3a4	0.010964308
195	0xbcb70044	-0.022338994
196	0xbd346813	-0.044044565
197	0xbcd2de39	-0.02574073
198	0x3c3cffb9	0.011535578
199	0xbc91bad8	-0.01778929
200	0xbc69bc5b	-0.014266099
201	0xbd3c03d1	-0.045902077
202	0xbd66ad38	-0.056317538
203	0xbc3ed503	-0.011647466
204	0xbcb1df11	-0.021712812
205	0xbd0e931e	-0.03480827
206	0x3cbffff3	0.023437476
207	0x3c33dbee	0.010977728
208	0x3c036063	0.008018586
209	0xbd26770e	-0.040640883
210	0xbd34b146	-0.044114374
211	0xbbf1bd7a	-0.0073773237
212	0xbc733319	-0.014843726
213	0x3cb1fdb6	0.021727424
214	0xbd1fba42	-0.03899599
215	0x3baf96d1	0.005358555
216	0xbce262e1	-0.02763504
217	0x3b78970d	0.003793183
218	0xbd3ac6d8	-0.04559979
219	0x3c12a908	0.008951433
220	0x3caadeb4	0.020858146
221	0xbc8e431c	-0.017365985
222	0xbbbdae67	-0.0057886126
223	0xbaa5e812	-0.0012657663
224	0xbd19ad4c	-0.037518784
225	0x3d0e24d9	0.03470311
226	0xbce16cf8	-0.02751778
227	0xbc700732	-0.014650153
228	0x3ab799e9	0.0014007661
229	0x3d178890	0.03699547
230	0xbd679e93	-0.056547713
231	0xbcee62d1	-0.029099854
232	0xbcd1cf32	-0.025611494
233	0x3bc251cf	0.0059301625
234	0x3afc1513	0.0019232355
235	0xbd5c08e7	-0.053719427
236	0x3d1f9ca4	0.038967744
237	0xbd275f46	-0.040862344
238	0xbc052e4d	-0.008128715
239	0x3d2489c8	0.04017046
240	0xbcba8c92	-0.022772107
241	0x3d073157	0.03300604
242	0xbc3fc11f	-0.0117037585
243	0x3c67aedb	0.01414081
244	0xbca0c52c	-0.019625269
245	0xbd21d3e1	-0.039508704
246	0x3cbb9e61	0.02290267
247	0x3c7c9171	0.015415535
248	0xbd58a79d	-0.052894223
249	0xbcc846f2	-0.024447892
250	0xbd0d1d32	-0.03445167
251	0xbd4ca335	-0.049960334
252	0xbd5eec5a	-0.05442462
253	0x3c0913c4	0.008366529
254	0x3cd489d7	0.025944633
255	0x3c8acb85	0.016942749

fc1.bias f4 [64]
0	0xbd989510	-0.074503064
1	0xbe09510d	-0.13409825
2	0x3c08413e	0.008316336
3	0xbc25d823	-0.010122332
4	0x3e817059	0.25281027
5	0xbd768335	-0.060183723
6	0xbe1e4fb3	-0.1546009
7	0x3e512afb	0.20426552
8	0xbe22c623	-0.15895896
9	0x3c547400	0.01296711
10	0xbdde521e	-0.10855506
11	0x3c3459e0	0.011007756
12	0x3a42cbcc	0.0007430881
13	0xbdb8268b	-0.089917265
14	0xbe089b33	-0.13340454
15	0xbd30fd1d	-0.043210138
16	0xbe64a97d	-0.2233028
17	0x3c961c2e	0.018323984
18	0xbe2bc5c7	-0.16774665
19	0xbcfeb729	-0.031093197
20	0xbe056f8f	-0.13030837
21	0x3eab578f	0.3346524
22	0x3e747544	0.23872858
23	0xbe31b239	-0.17353143
24	0x3dfeb9a4	0.12437752
25	0xbe61e2a6	-0.22059116
26	0x3e16c056	0.14721808
27	0xbe8074b8	-0.2508905
28	0x3e0ce58f	0.13759445
29	0xbe002388	-0.12513554
30	0xbea3a04d	-0.31958237
31	0xbd60bd0e	-0.054867797
32	0xbe619979	-0.22031201
33	0xbe354830	-0.17703319
34	0xbc9d089b	-0.019169142
35	0xbd2fbd4f	-0.042905148
36	0xbd4c1128	-0.04982105
37	0xbe431534	-0.19051057
38	0xbcfe75e9	-0.031062083
39	0xbb82a3ee	-0.003986827
40	0xbe115534	-0.14192659
41	0xbe0a0bd8	-0.1348108
42	0x3dbae509	0.09125716
43	0x3b70e75c	0.0036758995
44	0xbe953a76	-0.29146165
45	0x3c86fee6	0.016478967
46	0xbd2443b6	-0.040103637
47	0x3d4a4552	0.049382515
48	0xbd6233ef	-0.05522531
49	0xbdc0affe	-0.09408568
50	0x3e13e32e	0.14442131
51	0xbe990836	-0.29889077
52	0xbc9a3b7c	-0.018827192
53	0xbe05ae64	-0.13054806
54	0xbe3dbcfc	-0.18529123
55	0x3c40f948	0.011778183
56	0xbde10845	-0.109879054
57	0xbe42007f	-0.18945502
58	0xbe217870	-0.157686
59	0xbdbf6995	-0.0934631
60	0xbdfd5d95	-0.12371365
61	0xbe98cb66	-0.2984268
62	0xbe6e73f4	-0.2328642
63	0x3e26f228	0.16303313

fc2.weight f4 [64, 64]
0	0xbcbbb3b0	-0.02291283
1	0x3e14994c	0.14511603
2	0xbc5e0d4a	-0.013552973
3	0x3e2eabb7	0.17057692
4	0xbd2670b7	-0.040634837
5	0xbe1e24a2	-0.15443662
6	0x3e3101ed	0.17285891
7	0xbe9509c4	-0.29109013
8	0xbf006e43	-0.50168246
9	0x3e0cbe10	0.13744378
10	0x3d189ccf	0.03725892
11	0x3e13e357	0.14442192
12	0xbd2909f4	-0.041269258
13	0x3ecff538	0.40616775
14	0xbdeb06fd	-0.11475942
15	0x3eaeb6e9	0.34123924
16	0xbd75cf1e	-0.060011975
17	0x3e8c1d39	0.27366045
18	0xbe8cc39d	-0.2749299
19	0xbd0a706e	-0.033798628
20	0x3d1283d2	0.035770245
21	0xbe328c87	-0.1743642
22	0x3c8f2bf2	0.01747701
23	0xbdedbfdc	-0.1160886
24	0xbe1d90d4	-0.15387279
25	0xbe372bbc	-0.17887777
26	0xbeaba926	-0.33527488
27	0x3e9358cd	0.28778687
28	0xbdb1761a	-0.08665104
29	0x3d141de0	0.036161304
30	0xbeb3b163	-0.35096273
31	0xbe8f3454	-0.2796961
32	0xbee5c275	-0.4487492
33	0xba47eb95	-0.0007626352
34	0x3de7d479	0.11319823
35	0xbe5c7772	-0.2152994
36	0xbe8ff470	-0.2811618
37	0xbe287854	-0.16452152
38	0xbea74d78	-0.3267629
39	0x3e77ccc0	0.241992
40	0xbe6bc9ec	-0.23026246
41	0x3db31e47	0.08746009
42	0xbe104355	-0.14088185
43	0xbe1e6b3c	-0.15470594
44	0x3d528343	0.051394712
45	0xbdd8f7ac	-0.10594115
46	0xbe859325	-0.26088825
47	0x3ce59c63	0.028028673
48	0xbd1f5722	-0.038901456
49	0x3cf9b446	0.030481469
50	0x3e89893b	0.2686251
51	0x3d44ceff	0.04804897
52	0xbddfd7d8	-0.10929841
53	0xbdcd9ed4	-0.1004006
54	0x3e54b2ad	0.20771284
55	0x3d87be3d	0.06628082
56	0xbe8f3b8e	-0.27975124
57	0xbe39310b	-0.18085115
58	0x3e9fdfaa	0.3122533
59	0x3dc229e6	0.09480648
60	0xbe5f78f9	-0.21823491
61	0x3d28a744	0.041175142
62	0xbe76ed4c	-0.24113959
63	0xbe1e1a1d	-0.15439649
64	0x3d17d8ea	0.0370721
65	0xbd5fd932	-0.054650493
66	0x3d9bf8d3	0.07615819
67	0xbee37e49	-0.44432285
68	0xbe121545	-0.14265926
69	0xbd57ff6c	-0.052733824
70	0xbeb70aae	-0.35750335
71	0x3deb5786	0.11491303
72	0x3d63b735	0.05559464
73	0xbdf12639	-0.117748685
74	0xbe9ea52a	-0.30985385
75	0x3c7a6583	0.015282991
76	0x3d655310	0.055987418
77	0xbe6b5958	-0.229833
78	0xbd41edeb	-0.047346037
79	0xbe76fc11	-0.24119593
80	0xbdbf7c2f	-0.09349858
81	0xbd8260c2	-0.06366111
82	0xbebe9bdb	-0.37228283
83	0xbe80e5f5	-0.25175443
84	0xbdc09352	-0.09403099
85	0xbddadb4b	-0.10686358
86	0xbecf5a7a	-0.40498716
87	0x3d4bf672	0.049795575
88	0xbd8e96e1	-0.069623716
89	0x3daebada	0.08531733
90	0xbed754a6	-0.4205677
91	0xbe3c705f	-0.18402241
92	0xbe8ea380	-0.27859116
93	0x3e212e47	0.1574031
94	0x3e8cff6f	0.2753863
95	0x3e42082c	0.1894843
96	0xbeb39825	-0.35077015
97	0xbcacc759	-0.02109115
98	0x3cd12539	0.025530444
99	0xbe203b6a	-0.15647665
100	0x3d229d75	0.039700944
101	0xbbcb7574	-0.00620907
102	0x3e3342fc	0.17506021
103	0xbf14d23b	-0.58133286
104	0x3e4c64d2	0.19960335
105	0xbcba7a35	-0.022763351
106	0x3edd6040	0.43237495
107	0xbe41a0e4	-0.18909031
108	0x3dd50be4	0.104026586
109	0xbdc7e9cf	-0.09761392
110	0xbe581768	-0.21102679
111	0x3d526c78	0.051372975
112	0x3e5b2df3	0.21404247
113	0xbdb7caa0	-0.089741945
114	0xbf14e43e	-0.5816077
115	0xbd841a98	-0.06450385
116	0x3e2f5538	0.17122352
117	0xbdba7b28	-0.091055214
118	0xbe84dc47	-0.25949308
119	0xbe01786e	-0.12643597
120	0xbe8b3354	-0.27187598
121	0x3e2c7c8c	0.16844386
122	0xbec1bd85	-0.37839904
123	0xbe649eab	-0.22326152
124	0x3e9e7929	0.30951813
125	0x3db9605e	0.09051584
126	0x3c89da3b	0.016827693
127	0xbe6d4b1a	-0.2317318
128	0xbd9fb781	-0.077986725
129	0xbd9c59ac	-0.07634291
130	0xbde49b90	-0.11162484
131	0xbef48743	-0.47759447
132	0xbec39f7f	-0.38207623
133	0x3d743c48	0.0596278
134	0xbd8bf94f	-0.06834661
135	0xbed4f104	-0.4159013
136	0x3ead6099	0.3386276
137	0xbd269b3d	-0.04067539
138	0x3db276d1	0.08714069
139	0xbd89b768	-0.06724435
140	0xbe91404c	-0.28369367
141	0xbe04cee6	-0.1296955
142	0xbde050ad	-0.10952888
143	0xbd8db56e	-0.069193706
144	0x3dd5c0f3	0.10437193
145	0x3e166e06	0.14690408
146	0x3ef5f41e	0.4803781
147	0x3c248277	0.010040871
148	0x3edcec02	0.4314881
149	0xbee5ad76	-0.44858903
150	0xbf040993	-0.5157711
151	0xbe675bad	-0.22593565
152	0xbe0dfe91	-0.1386664
153	0x3d121e4f	0.035673436
154	0xbeba567f	-0.36394116
155	0x3e83a41d	0.25711146
156	0xbceacf93	-0.028663432
157	0x3bb7b916	0.0056067808
158	0xbe3b76ef	-0.18307088
159	0x3ea4bd7c	0.32175815
160	0x3d6d1637	0.057882514
161	0xbe6a30de	-0.22870204
162	0x3e991e38	0.29905868
163	0x3e83093f	0.25592992
164	0xbef18923	-0.4717494
165	0x3e7830d0	0.2423737
166	0xbe0ce2fd	-0.13758464
167	0xbe076ca2	-0.13225034
168	0x3e25e5f4	0.16201001
169	0x3dc1e8fb	0.094682656
170	0x3c741f43	0.0149000315
171	0xbc35b151	-0.011089639
172	0x3e091206	0.13385782
173	0xbddb9492	-0.10721697
174	0xbe28d93c	-0.16489118
175	0x3eb431bd	0.35194197
176	0xbde6b09f	-0.112641566
177	0xbcb6473d	-0.022250766
178	0x3d8eef1d	0.06979201
179	0xbd9efd36	-0.0776314
180	0xbf05f371	-0.5232459
181	0x3d772ed2	0.060347386
182	0xbe37d726	-0.17953166
183	0xbda1e8d7	-0.07905739
184	0x3e86ae78	0.26304984
185	0xbe7d7509	-0.24751677
186	0xbd5ff3ac	-0.054675743
187	0xbe6b8c64	-0.23002774
188	0xbed8bae2	-0.4233008
189	0xbdb70c32	-0.08937873
190	0xbf0ca954	-0.54945874
191	0xbf0930c5	-0.5359004
192	0xbde67d06	-0.11254315
193	0xbdb3c19c	-0.087771624
194	0x3d600d91	0.054700438
195	0xbe043bbe	-0.12913415
196	0xbe018ce7	-0.12651406
197	0x3db3d4eb	0.08780845
198	0xbc54a1b1	-0.012978003
199	0xbdca8a50	-0.09889662
200	0x3c8c957d	0.017161125
201	0x3c5af7a6	0.013364708
202	0xbd89b663	-0.06724241
203	0x3d709680	0.058737278
204	0xbdd24b8e	-0.10268317
205	0x3dc975ce	0.098369226
206	0x3bb5ed4c	0.0055519696
207	0xbda19e18	-0.07891482
208	0xbd94dfa4	-0.072692186
209	0x3d459fd4	0.048248127
210	0xbb6ebe40	-0.0036429316
211	0xbe1a324f	-0.15058254
212	0x3d63bb0a	0.055598296
213	0xbc7711cd	-0.015079928
214	0xbd9464ae	-0.072457656
215	0xbda57a42	-0.080799595
216	0xbd2f5a2e	-0.04281061
217	0xbdfed69e	-0.12443279
218	0xbc316581	-0.010827423
219	0xbdf250e8	-0.11831838
220	0x3d3c95b8	0.04604122
221	0xbd4e3cc3	-0.050350916
222	0xbd8f60fa	-0.07000919
223	0xbdf7ab6c	-0.12093243
224	0xbd73b5a0	-0.059499383
225	0xbb0647a6	-0.0020489483
226	0x3dc58668	0.096447766
227	0xbd7d8514	-0.06189449
228	0xbdbcf598	-0.09226531
229	0x3d177592	0.03697736
230	0xbcd3df50	-0.02586332
231	0x3d651ae4	0.055933848
232	0x3d01e159	0.03170905
233	0xbc5b7e89	-0.013396868
234	0x3cea89f4	0.028630234
235	0xbcc71038	-0.024299726
236	0xbe19e4b0	-0.15028644
237	0x3c979098	0.018501565
238	0x3cce0be9	0.025152164
239	0xbcd3e031	-0.025863739
240	0xbde778f8	-0.1130237
241	0xbdc5a9bc	-0.09651515
242	0x3d709899	0.05873928
243	0xbdabb6b0	-0.08384454
244	0xbe0a585a	-0.13510266
245	0x3dd382e0	0.10327697
246	0xbca48c50	-0.020086437
247	0x3d1ec128	0.038758427
248	0xbdd4be6f	-0.10387885
249	0xbd6147f2	-0.055000253
250	0x3c77870f	0.015107884
251	0xbdebbe7a	-0.1151094
252	0xbd2a23e4	-0.041538134
253	0xbd06ee74	-0.03294225
254	0xbc9e7f98	-0.01934795
255	0xbd287f5f	-0.041137096

fc2.bias f4 [64]
0	0xbe4e570b	-0.20150392
1	0xbc7978b3	-0.015226531
2	0x3d57d253	0.052690815
3	0xbe716543	-0.23573785
4	0x3da5b7b0	0.08091676
5	0xbe384ad5	-0.17997296
6	0xbb06458e	-0.0020488235
7	0x3df1beb9	0.118039556
8	0x3e1c2825	0.15249689
9	0x3cf64168	0.030060485
10	0xbd32bb46	-0.04363563
11	0xbc1b4e9b	-0.00947919
12	0xbe298f69	-0.16558613
13	0xbe842bc4	-0.2581464
14	0xbe356286	-0.17713365
15	0xbddfc89f	-0.10926937
16	0xbdb20aea	-0.08693488
17	0xbd96a4b1	-0.07355631
18	0xbe2dc944	-0.16971308
19	0xbd653b34	-0.055964664
20	0xbc81ed3a	-0.015860189
21	0x3d7bbc6d	0.061458994
22	0x3dc9582c	0.098312706
23	0xbdc34aa8	-0.09535724
24	0x3e377757	0.17916618
25	0x3e5e7a00	0.21726227
26	0xbe7e18ff	-0.24814223
27	0xbe2383e2	-0.15968278
28	0xbe249977	-0.16074167
29	0xbdb8d921	-0.09025789
30	0x3e3ed68f	0.18636535
31	0x3e3b2dac	0.18279141
32	0xbcd93207	-0.026513113
33	0xbe4e9502	-0.2017403
34	0x3d10e6c3	0.03537632
35	0xbe1c5c84	-0.15269667
36	0xbe173792	-0.14767292
37	0x3e5b39ab	0.21408717
38	0xbe479402	-0.19490054
39	0xbde94332	-0.113897696
40	0xbd82dd94	-0.06389919
41	0xbd52a6d7	-0.051428642
42	0xbc35cb58	-0.011095844
43	0xbd2c778c	-0.042106196
44	0x3c38c12e	0.011276526
45	0x3d08288c	0.033241794
46	0xbe2c387c	-0.16818422
47	0xbe33f7da	-0.17575017
48	0xbb932524	-0.0044905115
49	0xbd674c96	-0.056469522
50	0xbe4ecf3c	-0.20196241
51	0xbe7fb5c5	-0.24971683
52	0xba925390	-0.001116382
53	0xbd01812c	-0.03161733
54	0xbe7b1f30	-0.24523616
55	0xbe1d3677	-0.15352808
56	0x3dd49351	0.10379661
57	0xbd6ce805	-0.05783846
58	0xbd9fcb99	-0.07802505
59	0x3dbc8d4c	0.09206638
60	0x3d9b63c3	0.075873874
61	0xbea61166	-0.3243515
62	0x3cd088fd	0.025455946
63	0xbe092301	-0.13392259

fc3.weight f4 [4, 64]
0	0x3ede97f8	0.43475318
1	0x3dde8bc6	0.108665034
2	0x3e67d745	0.22640713
3	0xbd258e2c	-0.04041879
4	0x3e299a25	0.16562708
5	0xbeafc8ca	-0.34332877
6	0x3dc8d834	0.098068625
7	0x3d2b94c2	0.041889913
8	0xbe582873	-0.2110918
9	0x3e225f1d	0.15856595
10	0xbdd04f8a	-0.10171421
11	0x3eab7124	0.33484757
12	0x3e825da4	0.25462067
13	0xbe61f6d0	-0.22066808
14	0xbda733f6	-0.08164208
15	0xbe37f121	-0.17963077
16	0xbd5e3797	-0.054252233
17	0xbd933fe0	-0.071899176
18	0x3dbce23e	0.0922284
19	0xbcfdf0a5	-0.030998537
20	0xbc4bae60	-0.012431711
21	0x3deb757c	0.11497018
22	0xbdb67819	-0.089096256
23	0xbcd203cc	-0.025636576
24	0xbd5c3124	-0.0537578
25	0xbe73b63a	-0.23799983
26	0xbe715c02	-0.23570254
27	0xbe7b7815	-0.24557526
28	0x3e22672a	0.15859666
29	0x3e1b7563	0.15181498
30	0x3e63715a	0.22211209
31	0xbda1737f	-0.07883357
32	0x3d1f5e96	0.038908564
33	0xbd0b36b3	-0.033987712
34	0x3e4784fb	0.19484322
35	0xbe1586cc	-0.14602202
36	0x3d51ba93	0.05120332
37	0xbe1e57ad	-0.15463133
38	0x3de36ac9	0.11104352
39	0x3e270685	0.16311081
40	0xbe000229	-0.12500824
41	0x3d944894	0.07240406
42	0x3e21155f	0.15730809
43	0xbe9950d0	-0.29944468
44	0x3e9d1b6e	0.3068499
45	0x3e0d3077	0.13788019
46	0xbea5686f	-0.3230624
47	0xbcb2a934	-0.021809198
48	0x3e6b760e	0.22994253
49	0x3e9c03a6	0.30471534
50	0xbd93d408	-0.07218176
51	0xbf2b5193	-0.6692135
52	0x3e6483ea	0.22315946
53	0x3e078e6f	0.13237928
54	0x3e743c18	0.23851049
55	0xbc1abb44	-0.009444062
56	0xbd8c32ec	-0.0684565
57	0x3e2e0cb1	0.16997029
58	0xbdaab8fb	-0.083360635
59	0x3e15c0bf	0.14624308
60	0xbe07dea0	-0.13268518
61	0xbe768c69	-0.24077
62	0x3f1c1dc6	0.6098293
63	0x3e7165cb	0.23573987
64	0x3d015118	0.031571478
65	0x3ce50d83	0.027960544
66	0x3db49683	0.0881777
67	0x3d1e6f32	0.038680263
68	0xbd9a4935	-0.075334944
69	0xbd1b35e7	-0.037893202
70	0x3cc5991c	0.02412086
71	0xbdf35128	-0.11880714
72	0x3cd55231	0.026040168
73	0x3bb97945	0.0056602084
74	0xbce7e163	-0.028305715
75	0x3d81344d	0.06308804
76	0x3d7091a3	0.05873264
77	0xbdb584eb	-0.08863243
78	0xbd8b73f8	-0.06809229
79	0xbc59d8f5	-0.0132963555
80	0x3d7662f4	0.060152963
81	0xbb0399e2	-0.0020080735
82	0x3a198385	0.0005856085
83	0x3ea7dd92	0.32786232
84	0x3e33092b	0.17483966
85	0x3deacf12	0.11465277
86	0x3ddec713	0.10877814
87	0x3dec18d3	0.11528172
88	0xbc53c982	-0.012926461
89	0xbd567853	-0.052360844
90	0x3c30cd7e	0.010791181
91	0xbd836354	-0.0641543
92	0xbd7d7bce	-0.061885647
93	0x3d313e6a	0.043272413
94	0xbce87a31	-0.028378578
95	0xbc9eb0d3	-0.019371426
96	0x3b93f435	0.0045151957
97	0xbcf5296f	-0.029926984
98	0x3d37baa4	0.04485573
99	0xbdbf04a2	-0.093270555
100	0xbdcab07a	-0.098969415
101	0xbd2fb807	-0.04290011
102	0x3bddb5f9	0.0067660776
103	0xbd781a6a	-0.060572065
104	0xbc5cd468	-0.013478376
105	0x3eb3fba1	0.35152915
106	0x3dc2176b	0.09477123
107	0xbd2bd77f	-0.04195356
108	0x3c94a9ad	0.018147314
109	0xbb91f05b	-0.0044537014
110	0xbdb08e03	-0.086208366
111	0x3e6fc278	0.23414028
112	0x3dfb893d	0.122820355
113	0x3acde2d7	0.0015707862
114	0xbb8cc16d	-0.004295519
115	0xbdd8734c	-0.10568866
116	0x3dc47e31	0.095943816
117	0x3d87dd30	0.06633985
118	0x3d517c79	0.051144097
119	0x3e9b82bc	0.3037318
120	0xbcd28f49	-0.02570309
121	0x3d9fc42f	0.07801091
122	0x3ad84b23	0.0016501885
123	0xbc040901	-0.008058787
124	0x3db24c73	0.08705988
125	0x3c334723	0.010942253
126	0x3df77b76	0.12084095
127	0xbd863ed2	-0.06554951
128	0x3c83a431	0.016069504
129	0x3b278111	0.0025559107
130	0x39bf2812	0.00036460214
131	0x3dbda781	0.092604645
132	0x3ce29f34	0.027663805
133	0x3bbd9518	0.0057855956
134	0x3c86572c	0.016398989
135	0xbca605c8	-0.020266429
136	0x3b804234	0.003914142
137	0x3df16383	0.117865585
138	0x3ba0d20c	0.004907852
139	0xbc12f182	-0.008968713
140	0x3a71c6d6	0.0009223049
141	0x3c63bafd	0.013899562
142	0xbc46661e	-0.012109308
143	0xbc67958c	-0.014134776
144	0xbda0607c	-0.07830903
145	0xbb921c16	-0.0044589145
146	0xbc8fb7e1	-0.017543735
147	0xbbc10518	-0.0058905
148	0x3c54b81d	0.012983349
149	0x3ccff48c	0.025385164
150	0x3b03109d	0.0019998916
151	0xbbbe490a	-0.005807047
152	0x3bbb83d2	0.0057225013
153	0xba96f84b	-0.0011518089
154	0x3b0c3798	0.002139544
155	0xbc24b1fd	-0.010052201
156	0xbc6c6318	-0.014427923
157	0x3b2e7990	0.002662275
158	0xbc1f473d	-0.009721574
159	0xbb5d9796	-0.0033812276
160	0x3b454b06	0.0030104532
161	0x3d820614	0.063488156
162	0xbd137efb	-0.03600977
163	0xbd3f6789	-0.0467296
164	0xbd6480d3	-0.05578692
165	0xbbabf1f6	-0.00524735
166	0xbb8d475e	-0.004311486
167	0x3ca4edce	0.020132925
168	0x397056b8	0.00022920489
169	0xbc3a1a30	-0.011358783
170	0x3c18232a	0.0092857275
171	0x3adf1a92	0.0017021468
172	0x3b8ccc95	0.004296849
173	0x3d72942e	0.059223346
174	0x3b84e108	0.004055146
175	0x3d443073	0.047897767
176	0xbb03715c	-0.002005658
177	0xbba87144	-0.0051404554
178	0x3ca97a6b	0.020688256
179	0x3bb4fb1e	0.0055230996
180	0x3a27d7d1	0.00064027036
181	0x3c2a75f0	0.010404095
182	0x3b81fcd1	0.0039669056
183	0x3bd99bed	0.0066409023
184	0x395d5674	0.00021108409
185	0x3ac08736	0.0014688733
186	0xbbab2302	-0.005222679
187	0xbd5f11aa	-0.054460205
188	0x3c920e23	0.017829007
189	0x3c842b5c	0.016133957
190	0x3c6179fd	0.013761994
191	0xbc652f9d	-0.013988403
192	0x3ba6385c	0.0050726365
193	0x3b2e6540	0.0026610643
194	0x3bf1d086	0.0073795943
195	0x3cd1486c	0.025547229
196	0x3bc1b179	0.005911049
197	0xbb72fca7	-0.0037076862
198	0xbb945800	-0.004527092
199	0xbc02efc4	-0.007991735
200	0xbaeef448	-0.001823076
201	0x3cb9eea8	0.022696808
202	0xbbc2ed82	-0.0059487233
203	0x3ae7018a	0.001762436
204	0xbb161c56	-0.0022905073
205	0xbb5f2a09	-0.0034052155
206	0xba268015	-0.0006351483
207	0x38a5bd54	7.903078e-05
208	0xbaa14a19	-0.0012305408
209	0x3b3e975b	0.0029081914
210	0x3a8df3cf	0.0010830107
211	0x3ca6f13d	0.020378703
212	0xbb9c218f	-0.0047647427
213	0xbbccef87	-0.00625414
214	0xbb56b3d8	-0.0032761004
215	0x3b494a70	0.0030714534
216	0x3b9e7aed	0.0048364312
217	0xbaa73dd0	-0.001275951
218	0x3c1b94d4	0.009495933
219	0x3b915a32	0.004435801
220	0xbc419476	-0.011815181
221	0x3b9b078b	0.004731124
222	0xbc08a514	-0.008340139
223	0x3b337aa4	0.0027386332
224	0xbad4f166	-0.0016246259
225	0xbd0fcde3	-0.03510846
226	0x3be9004a	0.00711063
227	0x3caf5776	0.02140401
228	0xbcdcbde3	-0.026946014
229	0x3a6c0021	0.0009002705
230	0x3c16df95	0.00920858
231	0x3c4d24a6	0.012520945
232	0xbb5599a3	-0.0032592795
233	0x3c003213	0.007824439
234	0xb95fdb88	-0.00021348719
235	0x3a801ddf	0.0009774527
236	0x3b0f037e	0.002182215
237	0x3b973711	0.0046147187
238	0xbb07f92f	-0.002074789
239	0x3d5db44f	0.054127034
240	0xbbabaa37	-0.005238797
241	0xbc276e4f	-0.010219171
242	0x3b66d754	0.003522356
243	0x3b3678d1	0.0027843008
244	0x3b4840b3	0.0030556142
245	0xbb0ee0a2	-0.0021801372
246	0xbb656c26	-0.0035007088
247	0x3c59511f	0.01326397
248	0xbbf4db63	-0.007472442
249	0x39a70a31	0.00031860315
250	0x3b051336	0.002030564
251	0xbbe54a46	-0.0069973795
252	0x3b9026ba	0.004399148
253	0xbb785c21	-0.003789671
254	0x3ae09b06	0.0017136044
255	0xbc0990b8	-0.00839632

fc3.bias f4 [4]
0	0x3e4d0ee9	0.20025219
1	0x3d4e020c	0.05029492
2	0x3bd7c5c8	0.0065848567
3	0x3bbfe72e	0.005856416
