ffnn_model.pth (torch, 104095 bytes, 4 tensors)

fc1.weight f4 [64, 396]
0	0x3dc68a1c	0.09694311
1	0xbd838dd6	-0.064235374
2	0x3e801365	0.25014797
3	0xbca6ae60	-0.02034682
4	0xbd334262	-0.04376448
5	0xbe224274	-0.15845662
6	0x3e637a2f	0.22214578
7	0x3e715431	0.23567273
8	0x3e93b9f2	0.28852803
9	0x3e455ccb	0.19273679
10	0x3e443d27	0.19163953
11	0x3f08ae4a	0.53390944
12	0xbd8b4c65	-0.068016805
13	0x3df090a5	0.11746339
14	0x3e236a5c	0.15958542
15	0x3e4544fa	0.19264594
16	0xbd90183b	-0.070358716
17	0x3e5df65b	0.21676008
18	0x3cbfc9cd	0.023411656
19	0x3ea139af	0.31489322
20	0xbd46be3c	-0.048521265
21	0x3ee29ac8	0.44258714
22	0xbc07fecf	-0.008300497
23	0x3df57c7e	0.119866356
24	0xbb40e03b	-0.0029430527
25	0xbe25dfad	-0.16198607
26	0x3dbde3f4	0.09271994
27	0x3c9a9c6c	0.018873416
28	0x3dc83b9c	0.097769946
29	0x3e3e2858	0.18570077
30	0x3ed89c60	0.42306805
31	0x3dba117a	0.09085365
32	0xbe5656c7	-0.2093154
33	0xbe054d31	-0.13017727
34	0xbdc3a98d	-0.095538236
35	0x3ea31154	0.31849158
36	0xbe7cfa6c	-0.24704903
37	0x3cfc017d	0.030762428
38	0xbd8e1d1b	-0.06939145
39	0xbe7eaa96	-0.24869761
40	0xbe0a06ef	-0.13479207
41	0xbe1433eb	-0.1447293
42	0x3d8054ff	0.06266212
43	0x3ee8c24c	0.45460737
44	0x3d3cfdc6	0.046140455
45	0xbdf9807d	-0.1218271
46	0x3dc477d9	0.095931716
47	0xbe1c3d15	-0.15257676
48	0x3da6c555	0.08143107
49	0x3e00b41f	0.1256871
50	0xbd1906bc	-0.037359938
51	0x3ef91ee2	0.48656374
52	0xbc58104e	-0.013187481
53	0xbd27d379	-0.04097316
54	0xbce66555	-0.02812449
55	0x3e7a52b0	0.24445605
56	0xbd7a891a	-0.061165906
57	0x3d1b0174	0.037843183
58	0x3e28a41b	0.16468851
59	0x3d85a1d0	0.06525004
60	0xbd3abe1d	-0.045591462
61	0xbd73266c	-0.059362814
62	0xbdfe56e8	-0.1241892
63	0x3e09af46	0.13445768
64	0xbe850b58	-0.25985217
65	0xbebdd6a5	-0.37077823
66	0xbd327c96	-0.043575846
67	0x3ec5d2de	0.3863744
68	0xbda7d8fe	-0.08195685
69	0x3e27cc4f	0.16386531
70	0xbd953338	-0.0728516
71	0x3e75926d	0.23981638
72	0x3ce902b4	0.028443672
73	0x3e841a68	0.25801396
74	0x3cc67f72	0.024230693
75	0x3ed05151	0.4068704
76	0xbca82600	-0.020525932
77	0x3de19ddb	0.11016437
78	0x3bfb73de	0.0076737246
79	0x3f11b092	0.5691005
80	0xbd6ef65f	-0.058340427
81	0xbdc1a015	-0.09454361
82	0xbe1e8c88	-0.15483296
83	0x3e950d6c	0.29111803
84	0x3dbf9293	0.09354129
85	0x3cf19576	0.029490214
86	0xbca63452	-0.02028862
87	0x3e8175d7	0.25285217
88	0xbe5929d9	-0.2120737
89	0xbe80af42	-0.2513371
90	0x3d770fd9	0.060317848
91	0x3e31a5b9	0.17348374
92	0xbe0c383d	-0.13693328
93	0xbe4bf8f9	-0.19919194
94	0x3e0d568a	0.13802543
95	0x3ea83a37	0.32856914
96	0x3ddbb467	0.107277684
97	0x3e084821	0.13308765
98	0x3d9aa754	0.075514466
99	0x3efdcfaf	0.49572513
100	0xbc5dad1b	-0.013530041
101	0x3e3d6326	0.18494853
102	0xbe8144a3	-0.25247678
103	0x3ecdcf7e	0.40197366
104	0x3dc75b5b	0.097342215
105	0x3e300dea	0.17192808
106	0xbe511704	-0.20418936
107	0x3ee0c0d0	0.43897104
108	0xbe3a042c	-0.18165654
109	0xbe57e27e	-0.21082494
110	0xbe907c88	-0.2822001
111	0xbba8e224	-0.005153911
112	0x3bb04150	0.0053788796
113	0x3e9ce73a	0.30645162
114	0xbec7b712	-0.3900686
115	0x3df4903b	0.11941572
116	0x3d7bb794	0.06145437
117	0x3e9de1d0	0.30836344
118	0xbe909875	-0.28241315
119	0xbe4eb8bf	-0.20187663
120	0x3e01a239	0.1265954
121	0x3e0b4b2e	0.13602898
122	0xbd6a5f3c	-0.05721973
123	0xbd764c13	-0.060131144
124	0x3e283ec0	0.16430187
125	0x3ea2d4c7	0.3180296
126	0xbcdb3b5c	-0.026761703
127	0xbe4ff9f2	-0.2031019
128	0xbd9651ac	-0.073397964
129	0x3e6ea9c6	0.23306951
130	0x3d7ea0f3	0.062165212
131	0x3dc85c62	0.097832456
132	0x3daf630b	0.08563813
133	0x3e86831a	0.26271898
134	0x3b97c757	0.0046319175
135	0x3da0531c	0.07828352
136	0xbdea92de	-0.11453794
137	0xbd2804f0	-0.041020334
138	0x3d089627	0.03334632
139	0xbd0e581f	-0.034752008
140	0xbe18decf	-0.14928745
141	0xbe8a363f	-0.2699451
142	0xbed1afb1	-0.40954354
143	0x3e84ae1b	0.25914082
144	0xbe987852	-0.29779297
145	0xbe62b5d0	-0.22139668
146	0xbeacc44b	-0.3374351
147	0x3d9b051c	0.07569334
148	0xbd4f5192	-0.0506149
149	0x3e058bcb	0.13041608
150	0x3dfee4b7	0.12445968
151	0x3ad9e047	0.0016622626
152	0x3e6608cd	0.22464295
153	0xbd385889	-0.04500631
154	0xbe709465	-0.23494108
155	0x3cfc3ba2	0.030790154
156	0x3e08b856	0.13351569
157	0x3d8f250c	0.06989488
158	0xbeb47caa	-0.3525136
159	0x3c45c99d	0.012071994
160	0xbd8e8227	-0.06958418
161	0xbe05ead7	-0.13077866
162	0xbe13584c	-0.14389151
163	0xbe21a4eb	-0.15785567
164	0xbe119f7c	-0.14220995
165	0x3e22dbd6	0.15904173
166	0xbe98cebb	-0.29845223
167	0x3d0c2c72	0.034222074
168	0xbe2df012	-0.16986111
169	0x3dfe4eb1	0.12417353
170	0xbeae9118	-0.34095073
171	0x3e8e65fd	0.27812186
172	0xbd89d6aa	-0.06730397
173	0xbe3482d5	-0.17628033
174	0xbf556c1f	-0.83368105
175	0xbc9de4e3	-0.01927418
176	0xbe790a42	-0.2432032
177	0xbea953bb	-0.33071694
178	0xbe73120f	-0.23737358
179	0x3dcbcf24	0.09951618
180	0x3e7c4ecb	0.24639432
181	0x3e740bf7	0.23832689
182	0xbd49c98d	-0.04926448
183	0xbd692d03	-0.056927692
184	0x3c4e507c	0.012592431
185	0x3de2af96	0.110686466
186	0x3d6b83c6	0.057498716
187	0x3c6da886	0.014505511
188	0xbdbb3470	-0.09140861
189	0xbd91790f	-0.07103168
190	0x3e5ab8de	0.21359584
191	0xbdcc4fb4	-0.0997614
192	0xbc8757be	-0.01652133
193	0xbeeb654f	-0.4597573
194	0xbe3b8799	-0.18313445
195	0x3e3be7d3	0.18350153
196	0xbd9989ee	-0.07497011
197	0x3e6c4156	0.23071799
198	0xbe9978a2	-0.29974848
199	0xbe7eacba	-0.24870577
200	0x3e39717f	0.18109702
201	0x3e11d0a1	0.14239742
202	0xbedcfe34	-0.43162692
203	0x3e79ec50	0.24406552
204	0xbe21bdb2	-0.1579502
205	0xbca07696	-0.019587796
206	0xbeec8a25	-0.46199146
207	0xbf1c31d7	-0.6101355
208	0x3bbaaaa8	0.0056966133
209	0x3d0074c9	0.031361375
210	0xbe0df537	-0.13863073
211	0x3e572d0e	0.21013281
212	0x3d3e120a	0.046403922
213	0x3e620ccd	0.22075196
214	0x3ec1689c	0.37775123
215	0xbe574691	-0.21023013
216	0x3dfe46c4	0.12415841
217	0x3e1c731b	0.15278284
218	0x3a1fa9de	0.0006090681
219	0xbe8751dd	-0.26429644
220	0x3d862f4a	0.065519884
221	0x3e2874b5	0.1645077
222	0x3e297303	0.1654778
223	0xbeb7d4a7	-0.35904428
224	0x3e2ee502	0.17079547
225	0x3e302302	0.17200854
226	0xbebed449	-0.37271336
227	0xbc6d5ea6	-0.014487898
228	0xbe59aeca	-0.21258083
229	0xbe96cf49	-0.2945502
230	0x3ebe4a69	0.37166145
231	0xbd970914	-0.073747784
232	0xbd90dd15	-0.07073418
233	0x3ea3b325	0.31972614
234	0xbe10393c	-0.14084333
235	0xbe474948	-0.19461548
236	0xbdbc9658	-0.09208363
237	0xbd920231	-0.07129324
238	0x3e210458	0.15724313
239	0xbe12d9f2	-0.14340952
240	0xbe549afa	-0.20762244
241	0xbdff794f	-0.1247431
242	0x3c6bbfe7	0.014389015
243	0xbe88fa18	-0.26753306
244	0x3e813d2f	0.25241992
245	0xbe3b1eda	-0.18273488
246	0xbbff58a4	-0.007792549
247	0xbebf5bf6	-0.37374848
248	0x3e1e557c	0.15462297
249	0x3de4f952	0.111803666
250	0x3ed983ca	0.4248336
251	0x3e951b65	0.29122463
252	0xbdb806e6	-0.08985691
253	0xbd0becba	-0.034161307
254	0x3dffb336	0.12485354
255	0x3d92fd34	0.07177201

fc1.bias f4 [64]
0	0xbeceb433	-0.40371856
1	0xbce9da25	-0.028546402
2	0xbe3bbab3	-0.18332939
3	0xbe06b8d9	-0.13156451
4	0xbdf0a262	-0.11749722
5	0xbdb60b4b	-0.08888873
6	0xbe55b079	-0.208681
7	0xbdba4fad	-0.09097228
8	0xbe015ccc	-0.12633055
9	0xbe9788f5	-0.29596677
10	0xbce08ef1	-0.02741191
11	0xbea12c3a	-0.31479055
12	0xbe9ee6e6	-0.31035537
13	0xbede5723	-0.43425855
14	0xbdd05723	-0.1017287
15	0xbe1da4bc	-0.15394872
16	0xbe9291cd	-0.28626862
17	0xbe5511c0	-0.20807552
18	0xbeaa0783	-0.33208856
19	0x3eb6a302	0.3567124
20	0xbdc4e2c6	-0.09613566
21	0xbd8a01fa	-0.06738658
22	0x3e5e15ac	0.21687955
23	0xbd5a3c2c	-0.05328004
24	0xbda6564b	-0.08121928
25	0xbe549b98	-0.2076248
26	0xbea3b5dd	-0.31974688
27	0xbd7a5c82	-0.06112338
28	0xbea65ae6	-0.32491225
29	0xbd86dc6f	-0.06585013
30	0xbdeb5ce8	-0.1149233
31	0xbee6e801	-0.4509888
32	0xbe0adc89	-0.1356069
33	0xbe886b60	-0.2664442
34	0xbe9e665d	-0.30937472
35	0xbeb439ec	-0.3520044
36	0xbec0a25d	-0.37623873
37	0xbe7e67c1	-0.24844266
38	0xbe476273	-0.19471149
39	0xbea0652c	-0.31327188
40	0xbe869c2e	-0.2629103
41	0xbeb543cf	-0.35403296
42	0xbe808a0e	-0.25105327
43	0xbe591572	-0.21199587
44	0x3da21a96	0.07915227
45	0xbe0fa110	-0.14026284
46	0xbeb1ec29	-0.34750488
47	0xbe8a5c81	-0.270237
48	0xbe035c91	-0.1282828
49	0xbe459514	-0.1929515
50	0xbeca1d22	-0.39475352
51	0xbdf000c1	-0.11718894
52	0xbeb1155d	-0.3458661
53	0xbeb2bfc9	-0.34911945
54	0xbe5eeca1	-0.21769954
55	0xbe85d65b	-0.26140103
56	0xbe9d3898	-0.3070724
57	0xbe9b8174	-0.30372202
58	0xbe878aa3	-0.2647296
59	0xbb0ab2a3	-0.0021163605
60	0xbe8beaf6	-0.27327698
61	0xbe2a4cee	-0.16630909
62	0x3ee2b2a9	0.44276932
63	0xbe9b70bc	-0.30359447

fc2.weight f4 [4, 64]
0	0xbec394ca	-0.38199455
1	0x3dc46593	0.09589686
2	0x3d78ccec	0.060742304
3	0xbe8f996c	-0.2804674
4	0x3e9ad2ef	0.30239055
5	0x3dce3bcb	0.10069998
6	0xbe553f55	-0.2082494
7	0x3e344de3	0.17607836
8	0x3e37a744	0.179349
9	0x3ec07e9d	0.37596598
10	0x3ec8b703	0.39202127
11	0x3eaac05e	0.3334989
12	0xbeba6c4e	-0.36410755
13	0x3e9f5582	0.31119925
14	0xbe76de1b	-0.24108164
15	0xbe77b6ff	-0.24190901
16	0xbe7b121e	-0.2451863
17	0xbe577937	-0.21042334
18	0x3e04f3e6	0.12983665
19	0xbdda5e28	-0.1066249
20	0x3d8a103b	0.06741377
21	0xbea1b033	-0.31579742
22	0xbdad9f5d	-0.08477662
23	0xbdf7a161	-0.120913275
24	0xbcd3734b	-0.025811812
25	0xbea5136f	-0.3224139
26	0x3ee28a9f	0.44246385
27	0x3e8434e5	0.25821605
28	0xbea71890	-0.32635927
29	0xbd58e181	-0.052949432
30	0x3e9927f5	0.29913297
31	0x3e0e51e0	0.1389842
32	0x3dafd1ff	0.085849755
33	0xbec567b3	-0.3855568
34	0x3e3a7a1f	0.18210648
35	0xbe94907a	-0.29016477
36	0x3ea258ef	0.31708476
37	0x3e2a47bb	0.16628926
38	0xbea65b37	-0.32491466
39	0x3eb464b9	0.35233095
40	0xbed0c9ab	-0.4077886
41	0x3e941624	0.28923142
42	0x3dbabc70	0.09117973
43	0xbe74c9de	-0.23905131
44	0x3cb33c7a	0.021879423
45	0x3dec77a3	0.115462564
46	0xbeec0e78	-0.4610479
47	0x3e1e889d	0.15481801
48	0xbe7e92e5	-0.24860723
49	0x3eb29b2b	0.3488401
50	0x3eb04585	0.3442804
51	0xbe095a82	-0.13413432
52	0x3e8770e1	0.26453307
53	0x3e808a06	0.25105304
54	0x3d8f5efb	0.07000538
55	0x3ec246ed	0.37944737
56	0x3e7dbd53	0.24779253
57	0x3eb84bd8	0.35995364
58	0x3e19ef13	0.15032606
59	0x3d8f4c16	0.06996934
60	0x3e57c7d3	0.2107232
61	0xbea62c75	-0.32455793
62	0xbe0c67bb	-0.13711445
63	0xbe8d6776	-0.27617997
64	0xbd7705d3	-0.06030829
65	0x3d33282b	0.04373948
66	0x3c980248	0.018555775
67	0xbd6b6157	-0.057465877
68	0x3d97c344	0.07410291
69	0x3c0459bb	0.008078034
70	0xbd3a22c7	-0.045443323
71	0x3cd89e4a	0.026442666
72	0x3c6e17e6	0.014532065
73	0x3ceadc8f	0.028669624
74	0x3d70f636	0.058828555
75	0x3d70d22f	0.058794197
76	0xbdb6142d	-0.08890567
77	0x3d24d732	0.04024429
78	0xbcdf7e72	-0.027281974
79	0xbd409452	-0.04701645
80	0xbd4cf8ab	-0.050041836
81	0xbd083e21	-0.033262376
82	0x3d768ea9	0.060194645
83	0xbbd1fbcf	-0.0064081918
84	0x3c5faf19	0.013652586
85	0xbd953cb1	-0.072869666
86	0xbc3936c0	-0.011304557
87	0xbbbeafad	-0.005819282
88	0x3db1154b	0.086466394
89	0xbd3c456d	-0.045964647
90	0x3dbebd05	0.09313396
91	0xbbaa596a	-0.0051986473
92	0xbb568655	-0.0032733877
93	0x3dee3038	0.11630291
94	0x3d27314d	0.0408185
95	0x3e434249	0.19068255
96	0xbb9467c1	-0.00452897
97	0xbddae3c7	-0.10687976
98	0x3d1e5d80	0.038663387
99	0xbd828103	-0.06372263
100	0x3d53c5bd	0.05170225
101	0x3d9007dc	0.07032749
102	0xbd8d5873	-0.06901636
103	0x3d383ce6	0.044979952
104	0xbd9aff24	-0.075681955
105	0x3d636f99	0.05552635
106	0x3c0678b9	0.008207493
107	0xbd2a2828	-0.041542202
108	0xbda7d647	-0.08195167
109	0x3a8ac76d	0.0010587998
110	0xbd93f487	-0.07224374
111	0xbb93d4b2	-0.0045114392
112	0xbd79d9ca	-0.060998715
113	0x3de751a1	0.11294866
114	0x3d80dcfb	0.06292149
115	0xbcba0185	-0.022705803
116	0x3ca47f08	0.020080104
117	0x3d72cad2	0.059275456
118	0xbcb3b742	-0.02193797
119	0x3c8a5bdf	0.01688951
120	0x3c1c049e	0.009522585
121	0x3ebe6a2d	0.3719038
122	0x3d50c2e4	0.050967112
123	0xbd6d6970	-0.05796188
124	0x3d192246	0.0373862
125	0xbccbadf5	-0.024863223
126	0xbd271b21	-0.040797357
127	0xbd5b4347	-0.053530958
128	0x3a943f6d	0.0011310406
129	0x3ad56e0c	0.0016283407
130	0xbb51f56a	-0.0032037147
131	0xbbb4f6a6	-0.005522567
132	0x3bebaf71	0.007192545
133	0xba78e01e	-0.0009493845
134	0xbb2c84bb	-0.002632423
135	0x3bd70f5f	0.0065631117
136	0x3baa8fc2	0.0052051255
137	0x3bd1a6f2	0.0063980753
138	0x3c249726	0.010045802
139	0x3b2bc2e0	0.0026208684
140	0xbb322200	-0.002718091
141	0x3b04e982	0.0020280783
142	0xbad34a2f	-0.0016120131
143	0xbb1ed4f0	-0.0024235807
144	0xbb9095bf	-0.0044123824
145	0xbbf677ec	-0.00752162
146	0xbb841455	-0.004030744
147	0xb750dc70	-1.2449091e-05
148	0x3a371310	0.00069837365
149	0xbb387911	-0.0028148333
150	0xba8b944b	-0.0010649053
151	0xbb90c0f8	-0.004417535
152	0x3ca48764	0.02008409
153	0x3ba80639	0.005127695
154	0xb9cb895f	-0.00038821527
155	0x3b52a1c1	0.003213987
156	0xbb126f7f	-0.002234429
157	0x3d151150	0.036393464
158	0x3eb30881	0.34967425
159	0x3bf65992	0.007518002
160	0xb6f185c0	-7.1979302e-06
161	0x3b0ea621	0.00217665
162	0x3afbf38c	0.0019222363
163	0xbb97a05d	-0.004627271
164	0xbb577728	-0.003287742
165	0x3aa3ca4e	0.0012496205
166	0x3a1f7ae0	0.00060836785
167	0x3beeb80a	0.0072851228
168	0x39198dcc	0.0001464404
169	0xb8beb1d2	-9.0930276e-05
170	0x3b1a2df6	0.002352593
171	0x3ba8dbb3	0.0051531433
172	0x3b116011	0.0022182504
173	0x3be23f12	0.006904491
174	0xbb97883a	-0.004624394
175	0x3afe27e0	0.0019390546
176	0x3bede541	0.007259995
177	0x3be886cb	0.0070961467
178	0x3bfdefe5	0.007749545
179	0xbaf6e83a	-0.001883752
180	0x39897292	0.00026216038
181	0x3b0d9aad	0.0021607087
182	0x3aa6c8d2	0.0012724644
183	0xbb4b4df4	-0.0031021805
184	0xbb42683e	-0.0029664184
185	0xbbe467f1	-0.0069703986
186	0xbb3765ed	-0.0027984336
187	0xbbe9b619	-0.0071323034
188	0x3bd48d55	0.0064865747
189	0x3b0228b2	0.0019860682
190	0xbb2b6545	-0.002615289
191	0x3acab682	0.0015465769
192	0x3a28de58	0.0006441823
193	0x396b8818	0.00022462045
194	0x3a4177e7	0.00073802326
195	0x39013bde	0.00012324701
196	0x385f0bbe	5.317828e-05
197	0xb9911456	-0.00027671707
198	0x3a4a28a0	0.0007711742
199	0x3ae7cf0b	0.0017685605
200	0x3a4a258b	0.0007711283
201	0x3af84d6c	0.0018943972
202	0xbb32ef5f	-0.002730332
203	0x3a94f8ce	0.0011365653
204	0x39e5ff4e	0.000438685
205	0x3a8fe670	0.001097871
206	0xbb1ab14a	-0.0023604208
207	0xbb732a9b	-0.0037104252
208	0xb809570e	-3.274442e-05
209	0xbb910cd3	-0.0044265776
210	0x3a0c78f6	0.0005358601
211	0x3a9c72be	0.0011936051
212	0xb99a0306	-0.00029375422
213	0x3ae1456b	0.0017186826
214	0xb95bf588	-0.00020976935
215	0x39861c80	0.00025579706
216	0x3ad7194f	0.0016410741
217	0x38460ff2	4.722173e-05
218	0xbb10c893	-0.0022092208
219	0xbb78a29e	-0.0037938724
220	0x389feddc	7.6260156e-05
221	0xb9b51a96	-0.00034542818
222	0x3d28b462	0.04118765
223	0xba1f4e4f	-0.00060770375
224	0xb9c74f06	-0.00038015115
225	0xba5e49fe	-0.00084796536
226	0xbac07ed8	-0.001468624
227	0x39fe7c79	0.00048539395
228	0x3a68aa00	0.00088754296
229	0x3a45991e	0.000753777
230	0xb8c8910b	-9.5637595e-05
231	0xb9b987bf	-0.00035387088
232	0x3930ea0a	0.00016871854
233	0xba41f184	-0.00073983544
234	0x3a029cbb	0.0004982461
235	0x396ed5df	0.00022777122
236	0x385dc1ac	5.2870877e-05
237	0x3a37b750	0.00070082117
238	0xbb2e5672	-0.0026601818
239	0xb8f55c5b	-0.00011699713
240	0x3a8e7b6e	0.0010870525
241	0x3ab22419	0.001359108
242	0x3a1baab5	0.0005938218
243	0xba2164a0	-0.0006156657
244	0xb9ba3a0e	-0.0003551994
245	0x39cee9bc	0.00039465528
246	0xba9a656a	-0.0011779491
247	0x3ac3c7d4	0.0014936873
248	0xbaffcfaa	-0.0019516845
249	0x3ac0ab04	0.0014699404
250	0x3a16e14b	0.0005755617
251	0x3cc714ee	0.024301972
252	0x38a80cff	8.013285e-05
253	0x3b1109d9	0.0022131114
254	0xba576113	-0.00082160643
255	0x3990a1f8	0.00027586496

fc2.bias f4 [4]
0	0x3de77049	0.113007136
1	0x3cf6f9ca	0.030148406
2	0x3b081ac8	0.0020767916
3	0x3b2adb68	0.0026070718
