ffnn_model.pth (torch, 121175 bytes, 6 tensors)

fc1.weight f4 [64, 396]
00000000: 4698 043d 87e8 943c 3a5d 3f3d 1bf7 083d
00000010: f974 2f3a 35aa ba3b b700 453d 3ad0 113d
00000020: 0d85 1c3d a361 e03c 5964 bd3d 2499 063d
00000030: 31d0 333d 2e0f af3d 7dd2 883d 5740 1d3d
00000040: b75a 3e3d 12c4 aa3c 95c2 18bc 7f1b 81bc
00000050: a907 963d e75c 143d 05da 763d 788f a33d
00000060: f15d 053d ff78 38bc 6cf0 1d3c aa8a bc3d
00000070: 70d9 80bc 7193 4b3d 35a4 b63c 0c26 58bd
00000080: 1dbc febc 1a8c 32bd 73dd 183b 2b76 3c3d
00000090: aeb4 d4bc 3f7b c2bc 88d4 9a3d f5f7 c8bc
000000a0: d682 4f3d 72ff cbbb 82c5 ef3d 786d 3fbd
000000b0: 14f2 32bc 61c1 e83c 9388 8c3c 7bae 8fbc
000000c0: db41 9dbb 36cf 013c a3fb 2e3d 92bb 183a
000000d0: 806b 8a3c a4f6 b33d 1a9a a33d 309e 073d
000000e0: 1568 833c 75c4 2b3c 7a3d 9b3d 7f96 bd3c
000000f0: 42b4 6b3c f51a ff3c 51aa 973d 5f97 93bd
00000100: a7ff e93c b342 c4bb a0c3 623d 6dcd 913b
00000110: fb6b b03c a908 243d f775 253d 8ff5 c1bb
00000120: 19ee b73b a358 213c 3f54 c1bc 7846 babd
00000130: e954 1fbc f513 1f3d 8268 59bd 203b 56bc
00000140: e6bf 95bb 2410 e53c 7fc7 99bd 2de7 cfbc
00000150: 106d 583c 4298 273c 55c5 2cbd ffa4 a63c
00000160: effe 4b3d b2ca 3b3d 96ac 7a3c d80b 2c3d
00000170: 43c6 cf3c 4783 5a3d 8806 993d 5e62 36bd
00000180: 2927 153c 690b 493c 6e6f c93c 6c9a 123c
00000190: bf5a 2e3a 7e22 5a3d b1fc 8f3c fb03 82bc
000001a0: c0c7 983c e944 823d 4dad 883d 681d 303d
000001b0: b364 c63c 3918 bf3d a1e6 803c 0707 413c
000001c0: b406 483d 9a3a 22bc e7a4 3a3d 28c0 05bc
000001d0: e67c 03bd 4df0 b1bc dc0a 793d b9e8 71bd
000001e0: f886 7a3c 0eff c03c 23ab 293d d09d aebb
000001f0: d8a4 9a3c def6 083c 19a1 4dbd 929b b3bd
00000200: deed e43c 3ae6 b5bc 9f29 44bd d29f b83b
00000210: 467f 913b 5083 eb3c a06a 91bd 87e2 093c
00000220: bb09 18bc b4f5 9a3b e43b 44bd 121e aebc
00000230: 77a3 5e3c 857b 42bc 40e3 f1b8 c29b 8dba
00000240: df82 db3c 78cc 61bd 4054 be3c a972 8d3c
00000250: 6cce 3bbc 698a 013d 3b30 643d 8889 b7bc
00000260: d930 023d 1a4f 0bbd 9a3e 0c3e 3df2 743c
00000270: 053d 0dbd 48f1 68bd 868a 8a3d 5a55 1cbd
00000280: 15a1 0fbd 554c 99bc 015c 143e 8bda 96bd
00000290: 8218 a23c 7acb 36bc 3c1e 5c3c bd05 adbb
000002a0: 6156 253d 33da 8e3c 893f 7e3d 5ebc 4cbd
000002b0: 5971 5bbd 1eed e23c be65 c73d e306 953d
000002c0: 9b02 e4bc ae87 a4bc 36e6 1d3d 8a90 813c
000002d0: 4f82 023d 3b61 923c c29e b93c de6c f6bc
000002e0: 17ee 453b 48ce a13d 9701 003d 9a88 3bbd
000002f0: 7a5e fb3c 2538 043d 10e6 2fb9 5cd4 8abc
00000300: 2dec 873d 9c57 7abc 92fe 113d 2494 3dbd
00000310: 3323 a13c aa56 bc3b 1b14 673d e204 16bd
00000320: 857b 8b3d 42ec 3abd 59a6 443c 4fb5 81ba
00000330: 61f0 aa3c 2ed4 543d d0f4 383a deef 70bd
00000340: 5b93 ccbb 3b74 423c c455 4cbd 942b 20bd
00000350: 5996 b03b 67cd 97bd f4df b0bd 83a9 973c
00000360: 86c9 5abd 465b 6fbc a108 9bbd ac02 36bd
00000370: 9d58 56bc 3ea8 91bd af0f b0bd fd58 90bb
00000380: a4b5 f4bc 84f8 0d3d 2432 db3d 4d4f 613c
00000390: 6ef0 213c 98ee 373d a305 663d da70 6a3d
000003a0: 8ffc cb3c 4e68 003c 0a9e 143e 2b40 b6bc
000003b0: 8d7e d7bc 8ed2 c7bb 1241 cc3a ee43 8fbd
000003c0: a4d2 83bc 3ece 0e3c a79a 9e3d d2a7 bdbb
000003d0: a8cc b93c 8af8 99bd 567e ae3d ec3c cebd
000003e0: 74c9 23bd 328f 073d 0b74 0f3d 6bff 02bd
000003f0: 6d6b b3bc 43ac 1c3b 56bd b13d 3668 7cba
0.03237178 0.018177284 0.046719767 0.033438783 0.00066931505 0.00569656 0.048096385 0.03559897
0.038212825 0.027390307 0.092476554 0.03286089 0.04389972 0.08547817 0.066807725 0.038391437
0.04647323 0.020845447 -0.009323736 -0.015760181 0.0732568 0.03622141 0.060266513 0.07986349
0.032560293 -0.0112593165 0.009639841 0.092061356 -0.015728682 0.049701158 0.022295097 -0.05277066
-0.031095559 -0.043590643 0.0023325353 0.04601113 -0.025965061 -0.023740409 0.07560068 -0.024532298
0.050661884 -0.00622552 0.117075935 -0.046735257 -0.010921974 0.028412523 0.017154967 -0.017539253
-0.0047991103 0.007922938 0.04272045 0.000582629 0.016896963 0.08787277 0.07988377 0.033109844
0.016040841 0.010483851 0.07580085 0.023143051 0.0143862385 0.031140784 0.07405532 -0.07206606
0.028564287 -0.0059893965 0.055362344 0.0044495375 0.021535864 0.04004732 0.040395703 -0.0059191654
0.0056131002 0.009847793 -0.023599742 -0.09095472 -0.009724834 0.038837392 -0.053078182 -0.01307562
-0.004569995 0.027961798 -0.07508754 -0.025378788 0.013209596 0.010229172 -0.042180378 0.020342348
0.04980367 0.045847602 0.015299937 0.042003483 0.025363093 0.053347852 0.07471949 -0.044527404
0.009103575 0.012270787 0.024589267 0.00894795 0.00066510955 0.05325555 0.017576547 -0.015871039
0.018649936 0.063608 0.066736795 0.042996794 0.024217939 0.09330792 0.015734972 0.011781461
0.048834518 -0.009901667 0.04556742 -0.008163489 -0.032101534 -0.02172103 0.060801372 -0.059059832
0.015290968 0.02355912 0.041422974 -0.0053288713 0.018877432 0.008359639 -0.050202463 -0.08769907
0.027945455 -0.022204507 -0.047891255 0.0056342864 0.004440221 0.028749138 -0.07100415 0.008415825
-0.009279664 0.004728997 -0.04790868 -0.021254573 0.013588778 -0.01187027 -0.00011534104 -0.0010803866
0.026795803 -0.055126637 0.023233533 0.017266588 -0.011462789 0.03162614 0.05571006 -0.022404447
0.031784866 -0.034010984 0.13695756 0.014950332 -0.03448202 -0.05687073 0.067647025 -0.038167335
-0.03506573 -0.018713156 0.14488222 -0.073659025 0.019787077 -0.011156911 0.013434943 -0.005280225
0.04036558 0.01743803 0.06207231 -0.04998433 -0.053574894 0.027700957 0.09736203 0.07276704
-0.027833274 -0.020084228 0.038549624 0.015815992 0.031862553 0.017868629 0.02265871 -0.030081209
0.0030201727 0.07900673 0.031251516 -0.04578457 0.030684698 0.032280106 -0.00016775005 -0.016946964
0.06636844 -0.015279677 0.035643168 -0.046283856 0.019670105 0.005747636 0.05641566 -0.03662575
0.06810669 -0.04563547 0.012002551 -0.0009895953 0.020866575 0.051960163 0.0007055523 -0.058822505
-0.006243152 0.011868532 -0.04988648 -0.03910406 0.0053890166 -0.07412224 -0.08636466 0.018513447
-0.053414844 -0.014609164 -0.07570005 -0.04443614 -0.0130826505 -0.07112168 -0.085967414 -0.0044051395
-0.02987177 0.03466083 0.10702923 0.013751817 0.009883983 0.044905275 0.05615772 0.05723653
0.024900703 0.007837368 0.14513412 -0.022247395 -0.026305461 -0.006098098 0.0015583357 -0.069953784
-0.016091652 0.008716164 0.07744341 -0.005787828 0.022680596 -0.07518108 0.085201904 -0.10070214
-0.039987043 0.033095546 0.035022777 -0.031981867 -0.02190181 0.0023906387 0.08678691 -0.0009628566

fc1.bias f4 [64]
00000000: 1505 423e 3dd7 db3d ccf4 0dbd a828 12bd
00000010: 1f4e adbc 2da7 c33b 0ec2 acbb e16a fdbc
00000020: c128 9abd 1cbf 46bc 8a16 89bc 830f 65ba
00000030: 52f3 eabc 7a4e 30bc f9c9 843d 0b08 1e3d
00000040: 0641 f1bc 4ef9 2abc f300 fbbc 0e44 3d3d
00000050: b006 2f3d 8536 94bc a6a7 3cbd 57b0 b33c
00000060: 9683 80bb 08a2 94bd 116f b6bc 32f8 183e
00000070: 9e8b 983d 91db cb3d 7754 503c 1e3a 27bd
00000080: 4178 8b3d 7f93 103b 9e8a 13bd 00db 2c3d
00000090: 70b3 a9bd b2d8 67bc 918d bebb d358 bd3d
000000a0: 059c bfbc 7e55 62bd 796d a4bc 2d44 e9ba
000000b0: 46d7 16bc b405 a5bc 165e 39bd a5d6 b5bc
000000c0: 37a7 17bc 695e 38bd a21a a8bc bf23 0abd
000000d0: bc80 ae3d 8c02 abbc 5094 8dbd ef23 58bd
000000e0: 5567 5d3d 8197 6bbd eab5 3a3d 4053 d8bc
000000f0: 6ebb 813d ef1b 483d bad6 3bbd 3c61 20bc
0.18947251 0.10734413 -0.034657285 -0.035683304 -0.021155415 0.0059708566 -0.0052721566 -0.030934753
-0.075273044 -0.012130525 -0.01673438 -0.0008737968 -0.028680477 -0.010760898 0.06483836 0.03858189
-0.02944995 -0.010435415 -0.030640101 0.04620748 0.042730987 -0.018092403 -0.04605832 0.021934671
-0.0039219363 -0.072574675 -0.022269757 0.14938429 0.07448505 0.09953988 0.0127154505 -0.04082691
0.06810046 0.002206057 -0.036020868 0.042201042 -0.08286178 -0.014150785 -0.005815216 0.092454575
-0.023389826 -0.055257313 -0.020071732 -0.0017796807 -0.009206599 -0.020144321 -0.045255743 -0.022197077
-0.009256176 -0.04501191 -0.020520512 -0.033725496 0.08520648 -0.020875238 -0.06913054 -0.052768644
0.054053623 -0.057517532 0.045583643 -0.026406884 0.063345775 0.048854765 -0.045859076 -0.0097888075

fc2.weight f4 [64, 64]
00000000: 52e6 b73d 400a 3bbb 60e7 8fbd ac26 a1bd
00000010: 6443 a7bd 9cfb 143d f8fe 073d c6b3 cbbd
00000020: 989b b4bc 907e 163d 8863 babd 085c 85bd
00000030: d873 d0bc d8d6 5d3d 00d6 4d3b c894 e5bd
00000040: 2aae f6bd c809 debc 245f 8abd a0da 14bd
00000050: d052 f93d d058 793c 0cf8 46bd 564c a7bd
00000060: c8d0 11bd 98bc c13c e0b0 eabb 4099 fabd
00000070: 6a6d d8bd 201e a0bc 48e1 ea3d 4844 9a3c
00000080: ac0c 8abd 8012 db3d 44a3 033d 7c3a fdbd
00000090: ee18 f83d d0f1 803d 8a31 9e3d f881 b43d
000000a0: 904e 87bd c452 30bd 68ac d3bc ac99 623d
000000b0: d8d8 80bd 9852 bebc a497 003d 980b 71bd
000000c0: d0e9 4ebd e042 313c fcbb 843d f2ee edbd
000000d0: c0d5 0cbb 18b9 c13d 704f 683c 5a0b d93d
000000e0: 601c a5bc c8a9 b4bc 9a03 8d3d 0880 abbd
000000f0: 3059 a7bd 38b5 2f3d 923b d8bd 2c13 26bd
00000100: 47d5 f7bd 4e0e f63d 3929 7c3d 79a5 e83d
00000110: bbdd b2bd e013 c03d 9c0e b33c e446 9ebd
00000120: c1ef abbd 92b8 afbc e0cc c83c c3a0 9a3d
00000130: 52dc 093d 4678 30bc 11b4 27bd 7b29 2c3c
00000140: 8463 873c 7dae 9bbd 965d e3bd ca30 293d
00000150: d721 5a3d 7e71 9f3c eedb a9bc 613c fd3b
00000160: 1455 923d c098 933d a95e ddbc 3a18 eabd
00000170: 525d 90bd 6a03 3a3d d5ff eb3c 5fe4 66bd
00000180: 78d9 1d3d 21e6 c4bc 34e1 07be 4722 353d
00000190: 9481 d5bc 06ce a1bc 7c99 7a3d 1871 f7bd
000001a0: 76bb 503c f313 0fbe fb01 a83d 20c7 8f3d
000001b0: 255d 3dbd 1df8 ca3b 0b5d 353c ce51 763d
000001c0: 108e 573c 920d 113c 2b48 b7bd 542c 173b
000001d0: 44e2 61bd 6b2b 2ebb e885 773d dfa0 013d
000001e0: be9b f0bd 9e23 913c 09dd 84bc dfd3 94bd
000001f0: 2ec7 d7bb b9e4 893d d585 8f3d f586 88bd
00000200: d308 26bc c8a9 e2bc 6fb7 483d aa7b e53c
00000210: 54a4 503c 8bed 693d b598 bb3d 1c2e 153d
00000220: 1cd2 a6bd 8abc 013d 0acd 1e3c ba3a 0fbd
00000230: 6661 093d e358 c2bc 502b bb3d c22a 07bd
00000240: 9e48 56bc 6197 31bd e465 023d ef02 e4bd
00000250: 3ae4 4abe c988 80bd 2c07 61bd 0561 873d
00000260: 0e2e ed3d 2da8 b73d e17d c63d a9ab 103e
00000270: 0866 3b3d 10f9 9f3d 3f20 2c3d ad44 d1bd
00000280: bae0 673c de66 a03d 9117 df3b 5473 3e3d
00000290: 9ced ab3c c766 9e3d 9504 93bd c73c e33d
000002a0: 7b69 3e3d 0e4a 1ebd 4851 0fbe 653b e93c
000002b0: d8b0 e6bd 6034 3fbc 8ae1 113c 14df f2bd
000002c0: 9b6b cabd 56b0 10be 62e4 953d 3844 243b
000002d0: 0b4f 003e f49d d5bd ce7c 84bd 15d5 15be
000002e0: 6586 353d 307f f9bd 83b7 f83d b9ca 663d
000002f0: 2003 143e a983 5c3d 685e 80bd ca3e af3d
00000300: e71d 4b3d c0ec a63d 0a91 9fbd 2c35 423d
00000310: 0f73 3e3d ba2d 90bd 1dd5 dfbd 5ac8 33bb
00000320: cbc5 9f3d 667a a63d 5a12 9f3d 9cbe b83d
00000330: 10ae 883d 74e3 ce39 0f0e ba3d 09a1 f03d
00000340: 2a79 23bd 1079 233d deb6 893d 09c3 cb3d
00000350: 514e bc3d 416b 8a3d 087d 54bd bc17 95bd
00000360: 9474 32bd c148 853d 5eb9 66bd c068 7fbc
00000370: 81a8 0e3d 79cb 833d 00fc 85bd 6ae9 d83c
00000380: 0a90 2d3d 47a5 85bc eb1a ac3d fa4a c83d
00000390: 29c8 ea3c 49cb ddbd b204 d3bd 1859 9a3d
000003a0: 16f6 933d f335 223e 236a eabd 6f6f fdbd
000003b0: 3238 08be 297d 40bd 3f3c a23d c5f9 07be
000003c0: 215d b9bd df05 35bd 3a64 a5bd 0ef6 2f3c
000003d0: e875 993d cd1f 783d 2acf 6ebd 77ab 9ebd
000003e0: 48d5 033d 278e 33bd ca9f 843d f224 4c3d
000003f0: ed66 e53d 8d84 51bd bad8 edbc e4f4 563d
0.08979477 -0.0028540045 -0.07026553 -0.07868704 -0.081671506 0.036372766 0.03320214 -0.099463984
-0.02204685 0.036741793 -0.09101015 -0.06511694 -0.025445864 0.05415997 0.0031408072 -0.112100184
-0.12044938 -0.027104273 -0.06756428 -0.03634131 0.12173998 0.015218928 -0.0485764 -0.08168857
-0.0355995 0.023649499 -0.0071621984 -0.12236261 -0.10567744 -0.019545615 0.1146875 0.018831387
-0.06740698 0.10696888 0.032138124 -0.12364671 0.1211413 0.06296122 0.077242926 0.08813852
-0.066067815 -0.04304768 -0.025839046 0.055322334 -0.0629136 -0.023232743 0.031394616 -0.058848947
-0.05051595 0.010819167 0.06481168 -0.11617841 -0.002148971 0.09459132 0.014179096 0.10597868
-0.020155132 -0.022053614 0.068854526 -0.083740294 -0.08171308 0.042897433 -0.10558237 -0.040545627
-0.12101226 0.12014447 0.06156275 0.113596864 -0.08733698 0.09378791 0.021857552 -0.07728365
-0.08395339 -0.021450315 0.024511755 0.07550194 0.03365738 -0.010770863 -0.04094321 0.010507937
0.016526945 -0.076016404 -0.111018345 0.041306295 0.05325493 0.019463297 -0.020734753 0.007728145
0.071451336 0.07206869 -0.027022677 -0.11430402 -0.070490494 0.045413412 0.028808514 -0.056370135
0.038537472 -0.024035515 -0.13269502 0.044222143 -0.026062764 -0.01975156 0.06118153 -0.12082118
0.012740007 -0.13972454 0.08203503 0.07020402 -0.046231408 0.006194128 0.011069546 0.06013661
0.013156429 0.008853333 -0.08949312 0.0023067193 -0.055147424 -0.0026576172 0.060430437 0.03164756
-0.117484555 0.017717179 -0.016218679 -0.07266974 -0.0065850234 0.067330785 0.07007948 -0.06666366
-0.01013394 -0.027668849 0.04900306 0.02801307 0.012734491 0.057111304 0.09159986 0.036420926
-0.08145544 0.031673945 0.00969244 -0.034968115 0.033540152 -0.023724025 0.091391206 -0.03299976
-0.013078837 -0.043357257 0.03183545 -0.11133372 -0.19813624 -0.0627609 -0.05493848 0.06610302
0.1158105 0.08967624 0.09691978 0.14127983 0.0457516 0.07811177 0.04202294 -0.10218177
0.0141527 0.0783212 0.0068082293 0.046496704 0.020987324 0.07734447 -0.07178608 0.11095577
0.046487313 -0.038644843 -0.1399585 0.028470704 -0.11264199 -0.011670202 0.00890387 -0.11858955
-0.09883805 -0.14129767 0.07318951 0.0025065076 0.12530152 -0.10430518 -0.06469117 -0.14632066
0.04431762 -0.12182462 0.12144377 0.056345675 0.14454317 0.0538365 -0.062680066 0.08556898
0.049589064 0.08150625 -0.07791336 0.04741399 0.046496447 -0.07039972 -0.1092932 -0.0027432651
0.07801398 0.081288144 0.07767172 0.09020731 0.06673825 0.00039460848 0.09084713 0.11749465
-0.039910473 0.039910376 0.06724332 0.099493094 0.09194625 0.06758738 -0.05187705 -0.072799176
-0.04356821 0.06508017 -0.056329124 -0.015588939 0.034828667 0.06435294 -0.06542206 0.026478488
0.042373694 -0.016314162 0.08403572 0.09779926 0.028659897 -0.10829789 -0.1030363 0.075365245
0.072246715 0.15840892 -0.11446025 -0.1237477 -0.13302687 -0.046994362 0.07921647 -0.13278873
-0.09050966 -0.044195052 -0.08075757 0.010739816 0.07493192 0.060577203 -0.058303036 -0.07747548
0.032185823 -0.04383674 0.0647579 0.04983992 0.11201272 -0.0511518 -0.029034007 0.05247964

fc2.bias f4 [64]
00000000: d0a9 f9bd 45c4 61bd 1f67 7c3d c542 943b
00000010: 843c fe3c eae9 8c3b 87d6 9fbd 3ff6 733d
00000020: 64c8 87bc 6dba 643d 2b2c c63d 97c7 a2bd
00000030: edd9 7dbd 91db 923d c15d f6bd 4f30 17be
00000040: 1467 5ebd cbed 233c 6d5a 23be c3f0 62bd
00000050: 0630 133d e739 cb3d b1ea fd3d e1ca 1bbe
00000060: cb9a 383d 64df 09be f840 c53c ecf0 ae3d
00000070: afb7 e3bd 83b7 a4bd ec8d 4ebd 9be0 b33b
00000080: 5c4e 043d 6b6a 26be 7a0b 96bc fe90 9e3d
00000090: b6db b1bd 648e be3d aa60 00be 8a5c bebd
000000a0: 594e d13d b316 d4bd 5e61 053a 4d01 073c
000000b0: 6417 a6bd 4294 10bd 55be a83c 2ab2 053c
000000c0: 22c7 033e daa2 8b3d 230e dabc 88c4 1f3d
000000d0: 0edb 403d dfd0 733d 86dc cfbd 8eec a9bc
000000e0: 6e9b 11be b33a 753d 019c 8abb ee4e c0bd
000000f0: 04c0 9d3d 3675 98bd e059 24bc 2044 f33c
-0.12190592 -0.055118818 0.06162178 0.004524561 0.031034715 0.0043003457 -0.0780459 0.05956101
-0.016575046 0.055841852 0.09676393 -0.07948225 -0.06197541 0.07170785 -0.12029601 -0.14764522
-0.05429752 0.010005425 -0.15952463 -0.05540539 0.03593447 0.09923153 0.123982795 -0.15214111
0.045069497 -0.13464123 0.024078831 0.08542046 -0.11119019 -0.080428146 -0.050428316 0.0054894215
0.03230129 -0.16251533 -0.01831602 0.07742499 -0.08684485 0.093045026 -0.12536874 -0.09294994
0.10220022 -0.10355892 0.0005088056 0.008240056 -0.0810993 -0.03529764 0.02059857 0.008160153
0.12868932 0.06818171 -0.026618069 0.039005786 0.047083907 0.059525367 -0.101494834 -0.02074268
-0.14219448 0.059870433 -0.004230023 -0.09390055 0.0770264 -0.07444231 -0.0100311935 0.02969557

fc3.weight f4 [4, 64]
00000000: 5612 9a3d 2904 fb3b 8358 aabd 7dc5 2dbb
00000010: be47 8cbd e5c2 8eba a500 babb 4b13 e83d
00000020: 6fd4 333d e79f 933a 68a0 283c 8c9a 463d
00000030: 6816 243e a285 a23d f478 06bd 9410 9fbd
00000040: 4f95 4c3d c3fc bd3d ebfb 94bd 7db4 7cbd
00000050: d273 033e 112c 1abd 6f90 46bd 5d6c 29bd
00000060: 2b9f cabc 1429 ca3c 3e50 0f3e c929 b83d
00000070: 82d9 6a3b 9c7d 42bd 2d18 1e3d eaa9 013e
00000080: 2cc2 14bb 5b1e 93bd 17ad 39bd 342b ff3d
00000090: 9f4b e5bb acc0 c93d 2ca7 6fbc cce7 dabd
000000a0: 078f 07be bf95 593b 12b0 083c 0ba8 a03d
000000b0: c338 bb3d e614 063e 5e6e 333d 3523 96bc
000000c0: a9e0 9b3d 161f 44bd e0a9 ffbc 8a43 b63d
000000d0: b160 da3c 0c5c 6fbb 567d 8cbd b4ee 413a
000000e0: 66d8 00bc 0a76 583d 0bac a43d 3476 27bc
000000f0: ca1f adbd 3528 ca3d be08 bcbc 56a0 533d
00000100: d046 013d 3cd2 a43c cf01 40bd 33ff 4bbd
00000110: a086 293d bb78 4a3d 9426 a8bd 0549 2f3d
00000120: 9e79 40bd 4402 bdba 66ce 06b9 f93a 04bd
00000130: 39ba ccbb 6cdd 183e 9c37 823c 044a 9abd
00000140: 2cef 71bb 2889 b83d 7737 4d3d e760 b03d
00000150: 1294 eabc 122c b03d f9d2 afbd b35b 013d
00000160: b672 503c 479d c03d 49f2 913c c1bd 19bb
00000170: 317e 7c3d c7c9 a53d 57f5 aa3b 4a13 ff3c
00000180: c112 013d 04ce abbd e145 0abc 2920 b6bd
00000190: d6c3 933c b287 a93d fa51 833d 5c8e 9f3c
000001a0: b015 84bc d6ea ecbd 31b1 bf3d 4ec8 d43d
000001b0: 06c7 1e3d a85f 953c 96e1 2abc 7eac 91bd
000001c0: a0ad d5bc 4024 29bd 009d f03d 0006 4a3d
000001d0: 2614 143d b0e1 e5ba 438e a13d a168 7c3d
000001e0: 1c29 8abd 9a4d 04bd 3082 e33d 80b0 9ebc
000001f0: de7f e53b 481c 033d f07d be3d ed6d d7bd
00000200: 9856 6a3d 283f 3abd 1891 b33d 7d7a e8bb
00000210: a890 0bbc 91c2 9e3d 4095 b4bc 7535 9abc
00000220: 2fc4 1c3d 5b84 a03c 8359 d03d 5400 6ebd
00000230: 0cd1 2c3c 28fa ef3b ef4c 913d 8a27 b23c
00000240: 1287 d239 2492 c63d 46bb aabd 42f9 e83d
00000250: e767 d83d 7b6e d73a 7254 8e3d 253d adbd
00000260: 74e0 a53d 1067 b4bb b04b 93bd b99c 563d
00000270: cd3a e53d bc15 3dbd 2cf6 043d 17f9 b7bd
00000280: bb3f 233c 70e6 b2bc 4a00 8ebd 2146 643c
00000290: 0a4a a2bd e468 6c3d a701 6d3d 9fc3 1abc
000002a0: d020 b8bb 66a2 79bd c4e0 6f3d 6ba3 10bd
000002b0: 1dbf b4bd 41fb 60bd 69c9 0d3d 03f8 7c3c
000002c0: b052 c13d 9b13 083c 66bf cfbc 3f36 b9bd
000002d0: 664c 873d f76e d43c 39c3 09bc 43f7 55bd
000002e0: e260 d4bc 21e2 5abd 0d5b f13c 5cd0 c4bd
000002f0: a87b d83c 9c1c 753c 15c4 99bd a527 f5bc
00000300: a2fc 8d3d 9b92 b1bd a5f3 033d f465 ba3c
00000310: f72b 463c 9257 c7bc 2bee 8b3c 36cb febb
00000320: 7898 87bd 191a 3c3d e183 cabb bf22 f23c
00000330: 19c9 b1bc 6343 7cbc bdaf 55bd 07ce 27bc
00000340: 06ee dcbc 66ab 2bbc f4c2 b63d b611 523d
00000350: cb9e 8e3d 1b39 313d 22a3 ecbc 73ac 1dbc
00000360: 81b9 2a3d 4a03 673c c28e 05bd b32f 3b3c
00000370: 9684 ac3b a6d6 23bd e57c 88bb ed4d ebbc
00000380: d2b9 72bc 3a8e 6abd 2812 eebd f1ae fabc
00000390: 3238 a73d 773a abbc d008 e0bc a759 613c
000003a0: d6e6 d3bc 94cf 4abd 4bfe 8cbc a793 4abc
000003b0: 9fab 3abc c218 f63c b755 0b3d fad0 1c3b
000003c0: 2ba6 de3a 340e 40bc fe1d d9bb 21d1 2dbc
000003d0: 02a2 643c 3af1 16bc 7bf8 5bbc 3f9d dcbc
000003e0: 1d4b ad3d d7b7 e6bb aeec b23c e077 46bd
000003f0: 98d9 3dbd ee53 273d 7339 fd3c d929 b23c
0.075230286 0.007660408 -0.083176635 -0.0026515417 -0.06849621 -0.0010891823 -0.0056763464 0.11331805
0.043903764 0.0011262865 0.01029215 0.04848723 0.16024172 0.07935645 -0.032830194 -0.07766834
0.04994708 0.09276726 -0.07274612 -0.061695565 0.1283715 -0.03763968 -0.048477586 -0.04136311
-0.0247341 0.02467779 0.13995454 0.08992345 0.0035835211 -0.04748307 0.038597275 0.12662473
-0.0022698743 -0.07183524 -0.045331087 0.12459412 -0.00699754 0.09851202 -0.014627259 -0.10688743
-0.13238154 0.0033200828 0.00834276 0.07844552 0.09141686 0.1309391 0.043806426 -0.018327335
0.0761121 -0.04788121 -0.031208932 0.08899601 0.026657434 -0.003652337 -0.068598434 0.0007397935
-0.007864093 0.052846946 0.08040627 -0.010221053 -0.08453329 0.0987095 -0.022953387 0.05166658
0.031561673 0.020119779 -0.046876725 -0.049803924 0.041388154 0.049431544 -0.08210483 0.042794246
-0.046990983 -0.0014420231 -0.00012856125 -0.032282803 -0.0062477854 0.14928216 0.015895657 -0.075336486
-0.003691624 0.090105355 0.050101724 0.08612233 -0.028635059 0.08602156 -0.08585162 0.03158159
0.012722662 0.09404998 0.017815726 -0.002345905 0.061643783 0.080951266 0.005217235 0.031137127
0.031512026 -0.08388904 -0.008439512 -0.08892853 0.018037718 0.08277835 0.0641212 0.019477062
-0.016123623 -0.11568229 0.093599685 0.103897676 0.038764022 0.018234089 -0.01042976 -0.071129784
-0.026083767 -0.041294336 0.117486954 0.04932213 0.036152028 -0.0017538574 0.078884624 0.06162322
-0.06746122 -0.03230057 0.11108816 -0.019371271 0.0070037683 0.032009393 0.093013644 -0.105190136
0.05721149 -0.045470387 0.08767909 -0.00709468 -0.008518375 0.07751954 -0.022043824 -0.018824318
0.038273033 0.019594362 0.10173323 -0.05810578 0.0105478875 0.007323522 0.07094752 0.02174737
0.00040154957 0.09695843 -0.08336501 0.11375667 0.10566693 0.0016436124 0.069497004 -0.08458928
0.08099452 -0.00550545 -0.071921706 0.052395556 0.11192856 -0.046163306 0.03246133 -0.08983057
0.009963925 -0.021838397 -0.06933649 0.013932736 -0.07924278 0.05771722 0.057862904 -0.009446054
-0.005619146 -0.06094589 0.058563963 -0.035312098 -0.088255145 -0.054927114 0.034615908 0.01543999
0.094395995 0.008305456 -0.02535982 -0.0904355 0.06606369 0.025931818 -0.008408361 -0.05223776
-0.025925104 -0.05343831 0.029462362 -0.09610054 0.026426151 0.014960434 -0.07508103 -0.02992613
0.069329515 -0.08670541 0.03221478 0.022753693 0.012095443 -0.024333749 0.01708134 -0.0077756895
-0.06620878 0.045923326 -0.006180272 0.029557584 -0.021702336 -0.015396926 -0.05216955 -0.010241992
-0.026968967 -0.010477876 0.08923903 0.05128642 0.06963881 0.04326735 -0.028886382 -0.009623635
0.041680817 0.014099905 -0.032606848 0.011424947 0.005264829 -0.039999627 -0.004165279 -0.028723681
-0.014814811 -0.057264544 -0.11624557 -0.030600997 0.08165015 -0.020901902 -0.027347952 0.013754285
-0.025866907 -0.04951437 -0.0172111 -0.012364305 -0.011393457 0.030041102 0.03401729 0.002392827
0.0016986778 -0.011722136 -0.00662589 -0.010608942 0.013954641 -0.009212786 -0.013425942 -0.02693045
0.08461592 -0.0070409584 0.021841373 -0.048454165 -0.04635009 0.040851526 0.030911183 0.02174847

fc3.bias f4 [4]
00000000: 0cd7 8d3d 7954 623c 15a9 36bd 75bb fc3b
0.069257826 0.013814085 -0.044594843 0.0077127763
