ffnn_model.pth (torch, 121175 bytes, 6 tensors)

fc1.weight f4 [64, 396]
000000 f0 5a 24 bd fa b6 4b bc e9 64 0b bd 76 a0 12 3d
       -0.040125787 -0.012433762 -0.034031782 0.03579756
000010 b5 c3 90 b9 72 2a 92 bc 2d de 86 bb e3 09 40 bd
       -0.00027611633 -0.017842505 -0.004115841 -0.04688443
000020 b8 a8 28 bd 67 f6 0e bd a3 8f 2b bc cd 83 1c bc
       -0.041176528 -0.034902956 -0.010471257 -0.009552908
000030 dc 18 11 bd 3d 96 76 3c 19 dc 82 3d e4 9e 9b 3c
       -0.0354241 0.015050468 0.063896365 0.018996663
000040 77 60 c2 ba a0 78 1d bc d9 06 7b 3d fb 2f aa 3c
       -0.0014829774 -0.009611279 0.061285827 0.020774832
000050 c5 bf fe ba 12 9d 76 bd 6f b4 19 3d ac 7d fa bc
       -0.0019435814 -0.060208388 0.03752559 -0.030577503
000060 78 2a 88 ba 5b b0 d2 3c 1e 25 46 ba 53 91 37 bb
       -0.0010388633 0.025718858 -0.00075586315 -0.0028010204
000070 09 77 c5 bc 30 d7 a1 bc e1 77 ec 3c 39 8e 62 bd
       -0.024104612 -0.01975593 0.028865756 -0.055311415
000080 cf 68 d3 3c c2 e6 93 3c d5 e6 05 bd a5 89 26 3d
       0.025806813 0.01805437 -0.03269084 0.04065861
000090 dd 38 e3 3b 0e 12 01 bd fd 79 57 bd 9d f5 46 3d
       0.006934269 -0.03151136 -0.05260657 0.04857408
0000a0 a8 0f 5d bd 3f 4b 0e bc 9c 01 5b bc df 24 de bc
       -0.05397001 -0.008684932 -0.013367083 -0.02711719
0000b0 9e a9 47 bd 44 6f 0a 3d 54 62 29 bd 4c 00 d4 3c
       -0.048745744 0.033797517 -0.04135354 0.025879048
0000c0 ae 92 cb bb f2 31 c7 3b 14 95 f6 3a 43 d4 37 bd
       -0.006212554 0.006078952 0.0018812739 -0.044880163
0000d0 ac 8d 51 3a 1d 51 68 3c 98 24 78 3d 58 1a 81 3d
       0.0007993828 0.014179495 0.060581774 0.06303853
0000e0 df c0 d2 bc d0 58 59 bd ef 67 ec bc 15 d2 c0 bc
       -0.025726734 -0.053063214 -0.028858153 -0.023537675
0000f0 cf dd 2c bd d7 1b 27 3c d3 31 99 bc 45 dc dc 3a
       -0.04220372 0.010199509 -0.018700516 0.0016850313
000100 e5 69 e0 3c 96 f6 1a 3b e1 fd 01 bd 33 7d 0c 3d
       0.027394244 0.0023645512 -0.03173626 0.034299087
000110 38 d7 51 bd 10 06 01 bd 0b 3b 97 bc 12 9c 48 bd
       -0.05123064 -0.031499922 -0.018460771 -0.048976965
000120 b1 f7 23 bd ac 78 be 3b c3 79 df bc fb c5 31 bc
       -0.04003114 0.005812725 -0.02727974 -0.010850425
000130 87 07 51 3c b3 d9 a4 b9 50 6e 95 bd 04 ab 01 3d
       0.012758142 -0.00031442716 -0.07296431 0.031657234
000140 19 10 4c 3c 43 27 4f bd 2d 9e 99 bd e2 04 03 3d
       0.01245501 -0.050574552 -0.07500873 0.03198708
000150 d1 ad 37 bd e2 0c 3a bd fb 9e 55 bc 65 c9 a8 3c
       -0.0448435 -0.045422442 -0.013038392 0.020603845
000160 b8 45 fa bc c8 47 35 bd a9 c6 38 bd 83 97 bd 3c
       -0.030550823 -0.04425791 -0.045111332 0.023143535
000170 99 3c 13 bc 55 12 6f 3c 74 8b 0b bc cf 1b ca 3c
       -0.008986616 0.014591773 -0.008517135 0.024671463
000180 ff 4a 36 bd ef aa 06 bd 54 a5 79 bd f4 b2 82 3c
       -0.044505116 -0.03287786 -0.060948685 0.015954472
000190 07 a8 c9 3c 25 8a a8 bb 5f f0 46 3c 68 62 c4 3c
       0.024616254 -0.0051434212 0.01214227 0.023972705
0001a0 73 4c 9e bc 6e 4e 58 3c a6 26 e3 bc 9a ac bb 3c
       -0.019323563 0.013202293 -0.02772839 0.022909451
0001b0 f2 66 1e 3d df 0a c4 bc cb 72 4a bd 21 67 4d 3d
       0.038672395 -0.023930965 -0.04942588 0.05014718
0001c0 fe 3e 83 bb 21 0b 31 bd e6 a1 8c bd 73 d2 d3 bc
       -0.004005312 -0.043223504 -0.06866817 -0.025857186
0001d0 45 b8 7e 3c ad 45 b7 bc 6e 42 d9 bc f5 59 0d bd
       0.015546863 -0.022372091 -0.026520934 -0.034509618
0001e0 43 74 6f bd 52 db d5 bc 18 0a c4 3c 9d c0 2d 3c
       -0.058460485 -0.026105557 0.023930594 0.010605005
0001f0 f8 60 d5 bc a7 6f 69 bd ca 9b cd 3b 01 4e 44 bd
       -0.026047215 -0.056991246 0.006274675 -0.047925953
000200 db fe 3b bd 85 a2 a9 3c 42 e9 30 3c 60 91 55 bd
       -0.045897346 0.020707378 0.0107978005 -0.052140594
000210 50 08 91 bd 6f 07 1b bd 98 5e 58 3c 05 de 1e 3b
       -0.070816636 -0.037848886 0.013206147 0.002424122
000220 4f 0c 42 bd 71 1a 10 bd 0f 65 ba bc c3 37 6f 3c
       -0.04737502 -0.035181466 -0.022753267 0.014600697
000230 bd 47 6a bc ba d8 ba bc a6 a7 01 bc 71 f0 81 3a
       -0.01429933 -0.022808421 -0.007913506 0.0009913576
000240 19 7a 01 3d 37 85 a9 bc f8 4e a1 bc 40 6f f7 ba
       0.031610582 -0.020693405 -0.019690976 -0.001887776
000250 bb 82 62 bd a1 d5 43 bd 9d b3 6e bd da bf b4 3b
       -0.055300456 -0.047811154 -0.05827676 0.0055160346
000260 05 6f 04 bd a2 ff cb bc 2b af da 3b 30 6a 52 3c
       -0.03233244 -0.024902169 0.0066737137 0.0128427
000270 28 35 18 bd d8 7d 50 3c e1 75 5e bc 1b 28 dc bc
       -0.03716007 0.012725316 -0.013577909 -0.026874593
000280 2d 0f c3 3b 6d f9 99 bd 2a 19 51 3d 6a a7 85 bd
       0.005952737 -0.07518277 0.05104939 -0.06526072
000290 e4 d6 47 bd f2 b6 07 bd 7f 95 5b 3b f4 c1 ea 3a
       -0.04878892 -0.033133455 0.0033505855 0.0017910586
0002a0 72 8f f6 bc 49 71 b8 bc 29 ae 1c bd 5f 2d 9d 3c
       -0.030097697 -0.022514956 -0.03825203 0.019186674
0002b0 93 d8 7c bb 84 1b 02 b9 fe 52 71 3c a4 7e 03 bd
       -0.0038581237 -0.00012408016 0.01472926 -0.032103196
0002c0 88 78 30 bd 44 be 67 bd 49 fa e3 bc 73 59 16 bd
       -0.043083698 -0.056577936 -0.027829306 -0.0367064
0002d0 8c b3 f1 bc d0 63 98 3a 1c b8 25 3d bb b3 07 bc
       -0.02950456 0.0011626426 0.040458784 -0.008282597
0002e0 65 3c 20 bd f6 b3 d5 bc 69 18 b7 bc 8d eb a0 3c
       -0.039120097 -0.026086789 -0.022350507 0.01964357
0002f0 d6 f5 54 bc 74 eb df bc ad e1 88 bc fe 97 eb 3c
       -0.012998065 -0.027333952 -0.016709173 0.028758999
000300 1a e2 74 bb 7f 57 8d bc 81 ed 87 bd ab a3 08 bd
       -0.0037366212 -0.017253635 -0.06637097 -0.03335921
000310 ab 0f de bd b4 99 c6 bc a9 da 81 bd ed 9f 85 bd
       -0.10842832 -0.024243213 -0.06340534 -0.06524644
000320 32 0a bb 39 6f b4 c3 bd b1 86 eb bc a3 47 2c bd
       0.00035675016 -0.09555899 -0.02875075 -0.042060506
000330 3f 4e 8b 3c 9c f8 93 bd 0c bf 9e bd 7e 65 9b bd
       0.017005084 -0.07225153 -0.07751283 -0.075877175
000340 71 a0 d7 bd 8b 0e 90 bd 0f 34 cf bd 20 84 e8 bc
       -0.10528649 -0.07034024 -0.10117351 -0.028383315
000350 a3 54 c6 3c 3c 0f 10 bd 20 db 9c bc 1d eb 7e 3d
       0.02421028 -0.03517078 -0.019147456 0.06223594
000360 8c 57 b1 3c c4 48 69 bd 8d 10 b2 bc ae a9 82 bd
       0.02164819 -0.05695416 -0.021736408 -0.0638002
000370 05 f4 19 bd 29 a6 3f ba 54 76 97 bd b8 74 f1 38
       -0.03758623 -0.00073108316 -0.07395616 0.00011513516
000380 84 69 41 bd bc 40 df 3c 8d e5 f5 3b f4 d5 3e 3d
       -0.04721977 0.027252547 0.007504171 0.04659076
000390 cb f0 de bc 20 1a ac bc 10 e9 60 bc bf 07 96 bc
       -0.027214428 -0.021008551 -0.013727441 -0.01831424
0003a0 2c b8 3a bd b2 75 97 bc ad 97 04 bd ed 3e 01 bd
       -0.045585796 -0.018488739 -0.03237121 -0.03155415
0003b0 3c ce 7f bd a0 1a ee bc 1c 53 4f bc 2f 07 62 bc
       -0.06245254 -0.02906543 -0.012654092 -0.013795658
0003c0 4d bc ab bd 69 aa 97 bb 6a c4 0d 3c f0 dd e3 bb
       -0.08385525 -0.004628469 0.008652786 -0.0069539472
0003d0 a6 c1 2f bc c5 59 08 bd 99 8c 00 bd 9b 19 8a bd
       -0.010727322 -0.033288736 -0.031384084 -0.06743165
0003e0 fa c6 35 bd 6f a9 01 bd 1b 77 6c bc 0b b3 67 bc
       -0.044379212 -0.031655725 -0.014432694 -0.014141808
0003f0 76 4d 8f bd d3 7d 95 bd 7f b8 c8 ba 36 2a 7d bc
       -0.069971964 -0.0729939 -0.0015313773 -0.015451958

fc1.bias f4 [64]
000000 6b 2b bc bd a0 cf 2b be 3d 16 13 be 36 12 bd bd
       -0.09187969 -0.16778421 -0.14363952 -0.09231989
000010 3f 3c 6b be 8e 5b c7 bd 8d 78 17 be 4d 01 c4 3e
       -0.22972201 -0.097342595 -0.1479208 0.38282242
000020 b3 29 54 be 0b 0d a5 be 12 38 1c bd 5a 3b 19 bd
       -0.20719032 -0.32236513 -0.03813941 -0.037410118
000030 1f b5 41 be 70 0b df 3d 5e a8 bd 3e da 14 41 bd
       -0.18916748 0.108908534 0.37042516 -0.047139026
000040 cc ac 21 be ea 16 86 bd fa 75 0f be 2f 84 b5 3d
       -0.15788573 -0.06547339 -0.14009848 0.08863103
000050 5e e6 04 3e 86 fd 92 3d 58 dc 94 3e 2b 42 01 be
       0.12978503 0.07177262 0.2907436 -0.12622897
000060 08 e4 78 be 5a 72 89 3d 0c fb 45 3c 0e 66 cb bd
       -0.24305737 0.06711264 0.01208378 -0.09931575
000070 08 65 18 be 9a 46 72 3d 14 b2 0a bd bc 84 a7 3e
       -0.1488229 0.059149362 -0.033861235 0.32718456
000080 b7 6d d3 3c dd af 4b be 18 b9 e0 3c ba 77 57 be
       0.025809152 -0.19891305 0.02743201 -0.21041766
000090 5a d5 92 be 0e a1 a4 ba 3c 29 58 bd a7 37 8f bd
       -0.286784 -0.0012560205 -0.0527737 -0.06993037
0000a0 50 a6 5a be d9 a1 d0 bd 36 63 8f be 59 65 70 be
       -0.21352506 -0.1018712 -0.2800538 -0.23476161
0000b0 64 2c 84 bc 6c e5 5b be c2 42 86 be 19 cf 8f 3d
       -0.016134448 -0.21474236 -0.26222807 0.070219226
0000c0 a3 66 fc 3d 01 da 2e bd e2 15 89 be 4c 76 a7 bd
       0.12324264 -0.042688373 -0.26774508 -0.0817686
0000d0 3f 4e 0b be 04 40 24 bd d8 bc 41 3d 8e 5b cf bd
       -0.13604067 -0.040100113 0.047299236 -0.101248845
0000e0 10 bc ac be b1 3e 9f bd 21 c0 9d 3d 41 43 8a 3b
       -0.3373723 -0.07775629 0.07702661 0.004219443
0000f0 22 28 00 be 99 31 00 3d 27 b0 09 be a3 18 0f be
       -0.1251531 0.0312973 -0.13446103 -0.13974242

fc2.weight f4 [64, 64]
000000 3f eb e1 bd 1e f8 9c 3d f6 d4 9f be dc 9e 80 bd
       -0.11031198 0.07664512 -0.31217164 -0.062803
000010 a9 60 89 3d 73 06 a5 3e 06 77 99 3e f2 a7 4e be
       0.067078896 0.32231483 0.2997362 -0.20181254
000020 25 ba db 3c 36 2c 74 3e 70 8e e0 be a9 d9 99 3e
       0.026822159 0.2384499 -0.4385867 0.30048874
000030 df 59 77 bc 32 67 6f be 12 74 ac be 96 fd ab 3d
       -0.0150971105 -0.2337921 -0.33682305 0.08397977
000040 f1 ae 3a 3e bb 7f a7 3e dd e4 e9 be 2a cc 75 bc
       0.18230797 0.32714638 -0.4568242 -0.01500229
000050 90 b3 66 be 9c ec 1a 3e 06 c6 ae be 17 2b 70 3d
       -0.22529435 0.15129322 -0.34135455 0.058634844
000060 6e fd fe 3d 09 f6 a4 3e 24 00 d4 be fb c4 ad be
       0.124506816 0.3221896 -0.41406357 -0.33939347
000070 cb be e1 be 2e 8f a4 be 16 f9 93 be 20 70 0b bf
       -0.44090876 -0.32140487 -0.28900975 -0.54467964
000080 c8 06 90 3e 47 54 2e 3e e2 fd 49 bc e2 d7 2b 3e
       0.28130174 0.17024337 -0.012328597 0.16781572
000090 9e 67 4d bd 11 0b 90 be 1e 5e ba 3c c3 7f 3f 3e
       -0.050147645 -0.28133443 0.022749957 0.18701081
0000a0 e8 90 d4 3d 85 a4 54 3e 6d 5f c8 3d cd 35 08 3e
       0.10379201 0.20765884 0.09783826 0.13301773
0000b0 c8 06 07 3e df cc 3c 3e 54 fc f8 3d 75 e9 1e 3e
       0.1318618 0.18437527 0.12157503 0.15518744
0000c0 02 4c ab be 96 fd 03 3e 15 ca 78 3d ab 44 85 bb
       -0.33456427 0.12889704 0.060739595 -0.0040670238
0000d0 05 a6 07 bf b8 e8 41 bd 5f 39 36 be a7 51 bc be
       -0.529877 -0.04734108 -0.17795323 -0.36781046
0000e0 0c 23 32 3d f2 c3 49 3e 0c c7 b2 bd e0 15 54 bd
       0.043490455 0.19703653 -0.087293714 -0.051778674
0000f0 55 3b fc be d1 7a d9 3d 49 5e 8a be 06 3e 69 be
       -0.49264017 0.106191285 -0.2702506 -0.22777566
000100 b4 50 9a 3d 48 3d d9 bd 6e e6 e0 3c 6d 99 d9 bd
       0.07534924 -0.106073916 0.027453627 -0.10624967
000110 20 65 06 3e 53 89 96 3e b3 78 74 be e8 6f 9d bc
       0.13124514 0.29401645 -0.23874168 -0.0192184
000120 66 00 ba be ed 6e 35 be f5 c0 78 3b 2c 9b d9 3d
       -0.3632843 -0.17718096 0.0037956808 0.106253
000130 09 2c 48 be f3 7d 36 3e 12 96 24 bd bb 5f 54 be
       -0.19548048 0.17821483 -0.04018218 -0.20739643
000140 29 de 7a bd 27 e7 ab bd ee 2b 90 bc ac b2 26 bd
       -0.061247025 -0.08393698 -0.017599072 -0.04069774
000150 f6 14 8f be 3d 85 ac 3e 53 a9 a1 3d f5 9d a7 3d
       -0.2794568 0.33695403 0.07893624 0.08184425
000160 ba e7 07 bd b4 b5 62 3d 4c 79 3f be 48 7d 9f bc
       -0.033179976 0.055349067 -0.18698615 -0.019468918
000170 b5 41 33 be 4a ad bd bd 01 d9 ac bd 24 2f e6 be
       -0.17505534 -0.09261568 -0.08439828 -0.4495784
000180 83 46 0c be 11 3c 36 be 6a 0f 37 3e 22 02 6a be
       -0.13698773 -0.17796351 0.17876974 -0.22852376
000190 4d 96 0a be 03 bd 26 bd 2c 29 31 3e 41 1b 9d be
       -0.13533898 -0.0407076 0.17300862 -0.30684856
0001a0 e7 ef fb bb 62 08 d2 3d 36 c7 06 bf 42 9c da bd
       -0.0076885107 0.10255505 -0.5264772 -0.10674335
0001b0 3c 66 14 bf 7c bd 32 be 22 16 03 be 0d db 49 be
       -0.579685 -0.17455095 -0.12801412 -0.19712467
0001c0 b2 3b f6 be da 7a d1 be 0c 34 40 be 46 20 a1 3d
       -0.4809242 -0.4091404 -0.18769854 0.07867484
0001d0 d0 c7 75 be 96 d0 bd bd 7e 47 5a be dd e9 3f 3e
       -0.24002004 -0.092683 -0.21316335 0.18741556
0001e0 8e cc 59 3d e5 e7 66 3e 65 85 a1 3d 37 d4 75 be
       0.053173594 0.22549398 0.07886771 -0.24006735
0001f0 a7 8b c9 be 70 03 87 3e c0 ae 90 be ee 7d d9 bb
       -0.3936436 0.2636981 -0.28258324 -0.0066373264
000200 32 9f 21 3e 89 4c 6d bd 7c d7 a9 bd 2f 14 99 bd
       0.15783384 -0.057934318 -0.082930535 -0.07474553
000210 7a 15 c9 3d 93 e9 8f 3d 45 3f 5c 3e 77 c1 55 be
       0.098185495 0.070269726 0.2150851 -0.20874582
000220 ca 3c dd bd 47 0c 3d 3d f8 c8 e0 be 8b 4e 0e 3b
       -0.1080261 0.046154287 -0.43903327 0.0021714296
000230 07 a0 83 be a2 43 6d be e5 03 79 be a5 f5 dc bb
       -0.2570803 -0.23170331 -0.24317892 -0.0067431503
000240 7f 86 6a 3e fc 73 a2 3e 7b 4b ca bd f2 4f 91 bd
       0.22902869 0.31729114 -0.09877678 -0.070953265
000250 04 dd 7b be 06 05 fe 3d 01 58 3c be 54 42 1c bd
       -0.2459603 0.12403302 -0.18392946 -0.038149193
000260 d5 f0 b2 3d df d1 76 3c ed 1f 20 be 5c e8 a3 be
       0.08737341 0.015064686 -0.15637179 -0.32013214
000270 f4 7d a1 be 9f 9b 27 bc 6f 68 b2 be 26 ae af be
       -0.31541407 -0.010229974 -0.34845302 -0.34312552
000280 a8 a7 02 3d 16 aa 06 3e cb 84 51 be 74 ea 81 3e
       0.03189817 0.1315082 -0.20460813 0.25374186
000290 30 6b 50 3c f2 f5 89 be d2 18 ce 3d 32 8e 8e 3e
       0.012720868 -0.26945454 0.10063328 0.2784286
0002a0 97 e6 81 3d 8f 64 3d 3e aa 84 5e 3e 85 ab 6f bd
       0.0634281 0.18495391 0.21730295 -0.058513183
0002b0 ab 02 ba 3d 70 24 26 3e 8b 96 1a 3e 36 5e 5d be
       0.0908254 0.16224837 0.1509649 -0.2161797
0002c0 8f 7c e0 bd 70 8c 83 3e 00 44 89 bd 2e 38 31 be
       -0.10961258 0.25693083 -0.06702423 -0.17306587
0002d0 0f 1e 59 bd c1 c2 ad 3d 2c ac 2f be f4 82 be be
       -0.05300718 0.08484412 -0.17155522 -0.37209284
0002e0 75 8e 85 3d 08 34 42 3d ca f7 84 bd 41 d7 82 be
       0.06521312 0.047412902 -0.064925745 -0.2555485
0002f0 ce cc b4 be 9e 39 05 3e a9 7c 9f be 44 87 04 bd
       -0.35312504 0.1301026 -0.31149796 -0.03235556
000300 14 be bc 3c db c2 b2 bc f1 b7 96 be 41 c4 e8 bd
       0.023039855 -0.02182143 -0.2943721 -0.113655575
000310 e0 34 ca bd d0 06 0a 3e 52 f8 c4 3e c7 07 11 be
       -0.09873366 0.13479161 0.38470703 -0.14163123
000320 99 43 b2 3d 83 a4 c6 3d 36 ca 3f be 9f a3 09 3e
       0.087042995 0.09699347 -0.18729481 0.13441323
000330 1f 7c 0f be e5 c1 74 be a9 f0 8b be 1a b8 32 bd
       -0.14012192 -0.2390209 -0.27332047 -0.043632604
000340 9b b7 27 3e bc ca 9c 3e e6 97 8f 3c 84 2b 84 bc
       0.16378634 0.30623424 0.017528486 -0.016134031
000350 c1 b1 97 be f3 49 56 3d 8b 49 90 be da 23 06 be
       -0.29627803 0.052316617 -0.2818111 -0.13099614
000360 83 20 f7 3d 37 86 ca 3e 8d 09 85 be 68 b1 e3 be
       0.12066748 0.39555523 -0.2598385 -0.44471288
000370 35 7f a2 be ca 1e 42 be 75 83 1e be 16 20 f2 be
       -0.31737676 -0.18957058 -0.15479834 -0.47290105
000380 7a 2f 9d 3e c9 3e 68 3e f1 66 f2 bd 0d 66 10 bd
       0.30700284 0.226802 -0.11836041 -0.035253573
000390 9b fc e6 3d ac f4 91 be ca f8 88 bc 56 b6 6e 3e
       0.112786494 -0.28506982 -0.016720194 0.23311743
0003a0 a7 39 89 3e 75 8d 01 3e 70 4b c4 3d 32 7a a3 bc
       0.26801798 0.12651618 0.09584701 -0.019955728
0003b0 ce 3b 7e be b6 ae dd 3d 13 8d ae 3e 96 0c 66 bd
       -0.24827501 0.10824339 0.34092006 -0.056164347
0003c0 85 c2 54 be fc 6d b8 3e 6c 27 85 3c 50 71 a9 bb
       -0.20777328 0.3602141 0.01625415 -0.0051709786
0003d0 d5 2f a2 be 5f 59 0f 3d 91 fc 87 be d9 cb ae be
       -0.31677118 0.03499734 -0.2655988 -0.34139898
0003e0 65 fb ae 3d 7a 8c 52 3e 27 3f 2b 3d 9e 89 67 be
       0.085440435 0.205614 0.041808274 -0.2261109
0003f0 b1 2e bf be 3a bc cf 3d 3e aa 3c bd 03 82 d8 3d
       -0.3734031 0.10143323 -0.046060793 0.10571673

fc2.bias f4 [64]
000000 01 c5 ca 3d 6e 3e 1d bd 2a d1 8b be 01 da 03 3c
       0.09900857 -0.038389616 -0.27308017 0.008047582
000010 ca c7 84 be 52 85 03 3d 32 b0 7c be d7 03 82 bd
       -0.25933677 0.032109566 -0.24676588 -0.06348389
000020 cb 9f 0b bd ea 41 f6 3c a0 3e 59 bd a3 5f 25 bc
       -0.034087937 0.030060727 -0.05303824 -0.010093602
000030 3c 72 df bc 07 7d 03 be 96 f2 2b be d4 9b 39 3e
       -0.02727615 -0.12840663 -0.16791758 0.1812585
000040 65 01 22 3d 95 e0 5a bd 68 ac f5 3d c8 72 d0 3d
       0.03955211 -0.053436834 0.119957745 0.10178143
000050 b5 61 47 be ea f0 4d be 47 64 bf bd d6 e6 93 bc
       -0.19470866 -0.20111433 -0.09345298 -0.018054407
000060 f4 e9 bb be 94 42 62 bd af e7 6d be 2b 42 27 be
       -0.3670193 -0.055239275 -0.23232912 -0.16333835
000070 04 ce b8 bd e4 4d 8a 3c 02 96 41 3e 77 ff d7 bd
       -0.09023669 0.016882844 0.1890488 -0.10546773
000080 e4 f0 6c bd 68 52 60 3c 7d c0 75 3b c2 d3 46 3d
       -0.05784692 0.013691522 0.0037498765 0.04854179
000090 d0 0f 81 bd 9f 42 a3 bd 06 18 c0 3d bc 90 2f bd
       -0.06301844 -0.07971691 0.09379582 -0.04286264
0000a0 11 2b 48 be 37 83 e3 3d 70 ff 4e bd 47 34 5a b9
       -0.19547679 0.111090116 -0.050536573 -0.00020809575
0000b0 b8 38 df bd 9f c5 62 be ed bc c0 bd 6e 89 fc 39
       -0.1089949 -0.22145699 -0.09411035 0.0004816758
0000c0 48 63 bf 3d e3 5c ad bd 3a 33 ce bd 1f a5 a1 bd
       0.09345108 -0.08464982 -0.100683644 -0.078928225
0000d0 2e 1c 22 bd 1f 04 66 3c 64 dd 94 bd 87 3d e4 3b
       -0.039577655 0.0140390685 -0.072687894 0.0069653424
0000e0 e9 b6 36 be 83 cb fe 3c 8c 9b fe 3d bb d1 67 ba
       -0.17843212 0.031102901 0.12432012 -0.0008843203
0000f0 b2 0c 7b ba f9 ca 8c bc ee ee 1d be e8 82 a3 bd
       -0.0009576782 -0.017186629 -0.15423176 -0.07983953

fc3.weight f4 [4, 64]
000000 c3 37 17 3e 24 ec 12 3e 6e 53 c2 be b0 36 ae 3d
       0.14767365 0.14347893 -0.37954277 0.085065246
000010 9d 3c e9 be ac e6 a1 bd 69 0e 3e 3e 39 d9 92 bd
       -0.45554057 -0.07905325 0.18560185 -0.07170338
000020 17 11 24 3d 82 46 a0 3c 75 13 70 3e 62 79 28 3e
       0.04005536 0.01956487 0.23444922 0.16452554
000030 e5 5e 1a 3e ec 92 57 bd 3a 53 2c be 28 74 e3 3d
       0.15075262 -0.05263035 -0.16828623 0.111061394
000040 2d 87 4d 3c eb c7 31 bd d8 fb 03 3e 08 0d 71 3e
       0.012544435 -0.043403547 0.1288904 0.23540127
000050 3b a7 fb 39 bc b2 c0 be 0e 1e 1d bc d5 ca 81 3d
       0.00047999047 -0.37636364 -0.009589685 0.06337515
000060 76 6b c7 be 33 c3 37 3e dc ce c7 be 83 52 c0 be
       -0.38949174 0.17945556 -0.3902501 -0.3756295
000070 bd b4 06 3e 08 99 17 3e 7d 22 3c be d6 d2 f1 3e
       0.13154884 0.1480447 -0.18372531 0.47231168
000080 57 1a 87 be 7b aa 7f bd 2f 00 8d 3e 9f ce 02 be
       -0.26387283 -0.062418442 0.27539203 -0.12774132
000090 38 6c 9f 3d d1 43 c1 3d ca d3 46 3e 41 b1 75 3e
       0.07784313 0.09436763 0.19416729 0.23993398
0000a0 e8 c7 55 3d cf 48 af 3d b1 4f 28 3e 1b 6d d5 be
       0.0521926 0.08558809 0.1643665 -0.41684803
0000b0 94 d0 c3 3d 62 b1 b1 bd 3d fa 24 3e f1 b0 71 3e
       0.095612675 -0.08676411 0.16111083 0.23602654
0000c0 71 cc 47 be 3c 33 2a be 8b 8d 16 bd 9d 9d 9d bd
       -0.19511582 -0.16621107 -0.03675608 -0.07696078
0000d0 7c fc aa 3d af 47 dc 3e 7d 63 20 3e 27 14 6b 3e
       0.08348939 0.4302344 0.15662952 0.22956906
0000e0 43 58 fb 3b 9c 0f 73 3e 14 fb 3c 3e b9 d2 2f 3e
       0.0076704337 0.23736423 0.18455154 0.17170228
0000f0 f9 d2 7d 3e ae 97 a5 bd 6f b1 12 3e f5 f2 61 bd
       0.24787511 -0.08085571 0.14325498 -0.055163343
000100 8b 86 b0 3d 88 56 e1 bc 8f 0e 0b be 7c 3c fc 3c
       0.08619412 -0.027507082 -0.13579772 0.03079056
000110 8a 9b 37 bd d2 cc df bc 31 a8 69 3d 47 f2 25 bd
       -0.044826068 -0.027319346 0.057045165 -0.040514257
000120 ee 6f 86 3b 53 58 0a 3c 55 0b 1d 3e 15 66 6a 3d
       0.0041026985 0.00844391 0.15336354 0.05722626
000130 22 a6 25 3d 3b 6d 49 be 06 71 af bc 45 f2 f6 bc
       0.04044164 -0.19670574 -0.021416198 -0.03014482
000140 19 de 1e 3a 3c a2 3d 3e 71 84 5d 3d 9d 4e 60 bc
       0.0006060317 0.18518919 0.054081384 -0.013690618
000150 aa d6 18 bc 32 24 bf bd d6 e7 a0 3d 81 6f 55 3c
       -0.009328524 -0.093330756 0.07856719 0.013027073
000160 b4 b2 a2 bd b8 4f a7 3d 7d 93 7d 3d 87 02 e9 bd
       -0.07944241 0.08169502 0.061908234 -0.11377435
000170 6f a0 40 3d e1 9d 62 3d cc 73 78 bd ea 3a d7 3e
       0.047028 0.055326346 -0.060657308 0.42037135
000180 a3 8f 50 bd 42 8e 95 bd fc 4a ec ba 6b bc 3a b9
       -0.050918233 -0.07302524 -0.0018027718 -0.00017808533
000190 5e f4 32 3d 8b 29 9d 3d ce 05 db bc 8a 81 8b 3a
       0.043690078 0.07673939 -0.026736166 0.0010643464
0001a0 39 bb 1d bd 5f 3f 27 bd 09 64 39 3e 39 11 c7 bd
       -0.038508628 -0.04083192 0.18104567 -0.09720082
0001b0 8d ee 3a 3e 0a 56 05 bc 9a ae c2 3c ed 30 48 3d
       0.18255062 -0.008138189 0.023764897 0.048874784
0001c0 c7 e0 4e 3e e5 cd 5e bd cf 3b 96 bb 04 29 64 be
       0.20202933 -0.054395575 -0.0045847665 -0.22281271
0001d0 58 63 c6 3d b7 f4 a1 3d db af 2c 3c b7 1f 2e 3d
       0.09686917 0.07908004 0.010539974 0.042510714
0001e0 71 2c 83 3d ae 2d bd 3d 60 29 20 bd 53 42 0d 3d
       0.06404961 0.09237228 -0.03910196 0.03448708
0001f0 e8 cf 98 bb b9 80 49 be 25 28 80 3e 9e 5d 89 3b
       -0.004663456 -0.1967801 0.25030628 0.0041920682
000200 c4 26 d2 3b d1 c9 3c 3c 81 6e 62 3c 6b ba 13 bb
       0.0064133126 0.011522726 0.0138202915 -0.0022541534
000210 86 3d 62 3c d9 16 6f 3b 06 b1 1d bc 1a 84 47 ba
       0.013808614 0.0036482124 -0.009624725 -0.0007610932
000220 4f a6 9d 3e 2e 94 1a bd b6 48 c5 bc 3e 3f 12 3c
       0.30790946 -0.03773897 -0.024082523 0.008926211
000230 8c 0f 2b bc cf 55 b8 3c c6 90 81 3d dd 4c a6 3b
       -0.010440718 0.022501854 0.063264415 0.005075081
000240 b7 78 e6 3c ae 3a 01 3c ca df a1 3b 37 ba 65 bc
       0.028133733 0.0078875255 0.004940008 -0.014021448
000250 7c 51 bd 3b 33 fc 33 3c 88 33 ea bb 0e 12 52 ba
       0.005777536 0.010985422 -0.0071472563 -0.00080135546
000260 13 63 1c bb b1 36 6e bc 90 57 ff bc cf ad 33 bc
       -0.0023862764 -0.014539407 -0.031169683 -0.010966732
000270 1a 16 a0 3b e8 5c 9d 3c 8c 0b a3 3a 90 59 de 38
       0.004885447 0.01920934 0.0012439354 0.00010602467
000280 99 04 81 3b 45 d6 17 bc b2 ad 16 3b 44 a3 00 3b
       0.0039373157 -0.009267394 0.0022991714 0.0019628564
000290 c0 fa bf 3a 84 b7 8a bc fe cc 1c 3c 8e 65 59 3b
       0.0014646873 -0.01693321 0.009570358 0.0033172104
0002a0 19 21 59 3c 2e cc 86 3c 16 b8 3c 39 13 bc a5 3b
       0.01325252 0.016454782 0.00017997655 0.0050578206
0002b0 93 ef 6a 3c 02 a4 e2 bb e3 12 6e b9 fc a1 f8 3c
       0.0143393455 -0.006916524 -0.00022704485 0.030350678
0002c0 e2 7d 09 3d ee 0a 9b bb 22 1a 0d 3c 61 16 90 bc
       0.033567317 -0.0047315275 0.008612188 -0.017588796
0002d0 cf 9d d3 3e f7 55 46 bc 9d 7a 22 39 f2 a9 e8 3b
       0.41331336 -0.012105457 0.00015495201 0.007100337
0002e0 93 f4 22 3d 2b c3 a0 3c 8b bb 90 bc 25 2a 26 3c
       0.039784025 0.019624313 -0.017667552 0.010141884
0002f0 55 78 9f 3b 9e be 06 3d 97 ca f1 bc eb ab a3 ba
       0.0048666396 0.03289663 -0.029515548 -0.0012487149
000300 43 4d e3 3b c3 35 3c 3a 9b 26 65 3c f2 e1 e5 3a
       0.0069367005 0.0007179642 0.013986255 0.001753865
000310 00 3a 75 bb 8e e1 62 b9 6c b8 31 bc 4e c9 94 b9
       -0.0037418604 -0.00021637065 -0.010847192 -0.00028378743
000320 6b e9 84 3d 76 ed b7 ba c6 87 85 bb 27 ca 02 bb
       0.064898334 -0.0014032561 -0.0040750233 -0.0019956918
000330 17 6b 43 3a a7 93 e1 3b 7e c9 3f 3c 5f 7c 9c 3b
       0.00074546173 0.0068840566 0.011705754 0.0047755684
000340 84 77 7f bb 7c 27 60 3c a7 85 8b ba 73 d9 9d bc
       -0.003898115 0.013681289 -0.001064469 -0.019268727
000350 1a 4e da 3a eb e0 5f bc 10 5e 29 3c 0c 4d 14 bb
       0.0016655356 -0.0136644645 0.010337368 -0.0022628931
000360 25 40 f2 bb 79 ec ad ba bf 9c 5e bc ff a4 7c 3b
       -0.0073929005 -0.0013269327 -0.013587176 0.0038550494
000370 7e cc df 3c 3f 51 68 bb fd c7 c4 bb 65 22 7d bb
       0.02731919 -0.0035448817 -0.006005286 -0.0038625237
000380 44 7b 1b 3c 2d 1e 6e 3c 5b 34 88 3b 1d c7 68 bb
       0.009489838 0.014533562 0.004156632 -0.0035519071
000390 92 ea cd bb 29 c1 9c 3c cb 76 87 3b e4 9c a1 bb
       -0.0062840665 0.019135075 0.0041340343 -0.004932033
0003a0 8f d0 60 bc 3d 50 fb bb 40 e2 21 3c a3 3a 97 3c
       -0.013721599 -0.0076694773 0.009880602 0.018460577
0003b0 f1 5a b2 3c 7a 52 38 3b 10 a9 6a 3b 7c ae 57 3c
       0.02177188 0.0028125332 0.0035806336 0.013164159
0003c0 a6 dd 03 3c e8 bd 46 3c fc aa 82 3c c2 e8 2a bc
       0.008048451 0.012130238 0.015950672 -0.01043147
0003d0 cc f4 8b 3d e9 9c 08 bc cb 0d 03 3b 4c f2 66 3c
       0.06833801 -0.008338192 0.0019997235 0.014095854
0003e0 00 6c 72 3b b2 5b 21 bb 13 6f ef 3b 5e 7d 96 bb
       0.0036990643 -0.0024621305 0.0073069423 -0.0045925817
0003f0 8d c5 66 bb 49 fb 2c ba 46 d1 5e 3c fa 0b 44 3c
       -0.0035212964 -0.00065987237 0.013599699 0.011965746

fc3.bias f4 [4]
000000 ab 4c d0 3d b4 83 09 3d 1f 79 0a 3b 4b 71 5e 3b
       0.10170873 0.033572868 0.0021129323 0.003394204
