gru_model.pth (torch, 157255 bytes, 10 tensors)

gru.weight_ih_l0 f4 [192, 4]
00000000: 9ce5 d6bc 91c2 733d 1d56 953c b3cc 80bd
00000010: dfd0 053d 2253 fe3d 2d80 8bbe 7276 a0bd
00000020: e5e0 f3bd c8cf c2bc c088 803d dc72 383c
00000030: f5a5 e43d 8f36 0b3d 64b6 643d 9ab2 a33c
00000040: 122f 973d 7c7f 4dbe 3b2a 5c3c ceca 66be
00000050: 8f61 33be a95e b6be a3a9 433e da91 3d3d
00000060: 2edb 76bd 71b8 ec3d ca8c b3bd 18f4 0abe
00000070: 6c84 5f3c 1876 4bbc 728b 913d 7151 73bd
00000080: 2029 e73c 14d5 6c3e b4aa bfbd 25a6 2c3e
00000090: 521d 2d3d 35de a4bc e7f7 9bbd 59a5 dabd
000000a0: 17fd fb3d f104 b7bd f368 06bd d03b d6bd
000000b0: e687 2cbe aa17 703e 96e8 bdbd e054 b6bc
000000c0: b364 b8be 17df e3be dedc 963d d843 7b3e
000000d0: 3029 003e 77f7 b93d 17b5 d2bd 3324 e7bd
000000e0: bfaf 493d 74ce 9abd dbc4 c7bd 2e7b bdbd
000000f0: afc7 1d3e bf27 593e 3e03 d0bd 2723 c43d
00000100: fbbd a1bd c997 cd3c 9cb1 2c3b 05f6 6fbc
00000110: 639c 49bc 963e 2cbe f45a 0f3e 0129 cc3d
00000120: 7074 5fbd 02aa 8cbd 5e1a b53c 300e 2cbd
00000130: 2438 5e3d da94 6b3e b39a 75bd 0b62 4d3d
00000140: 5cd2 2ebc 5e6f f93d 1c9d 53bc 9260 803d
00000150: b98b 233d 0ce6 483e cb14 e6bd 5428 3dbc
00000160: da2e ee39 e4a1 dabd c307 c13d 09c7 f1bd
00000170: 658f 8dbd 2009 04be 590b 173b ec8a 34be
00000180: 5a65 e23c b741 373e 281c 0f3d 4a1c a33d
00000190: 5573 f8bd 4dd2 f03d 4b7e 1dbe ce93 273e
000001a0: 622e ecbc 5a0f 06bd fcbf cebb f771 21be
000001b0: 747b 273e 6733 573e af37 b03d 8f00 a73d
000001c0: 3286 723d e8de 88bd 298b 44bb 97b3 52bd
000001d0: 2bcb 1a3e 05ba 073d 23f9 b13b 8918 803c
000001e0: 24cf 333d 66ed fbbd 923b 7fbd 33b7 02be
000001f0: c4a6 2ebc d2da b2bd cd1b 9f3d 4ade ccbd
00000200: 02e8 203c 81bf c1bd 8ea1 52be 51fb 82be
00000210: 6748 973c 3ee1 863e 71ee 083e b5a2 b4bd
00000220: a76c bebd e602 b5bd eaa2 5dbd a274 44bd
00000230: 5ddd 85bd 5d3a 063e a7dd b6bb 8072 b0bd
00000240: 355c 54bd 2610 23be 44ad 133d 2748 a13c
00000250: 454a 843c d78b 183d 927f 803d e1f2 a6bb
00000260: 4440 a5be ac4e ddbe c45c 1b3e 19e6 593d
00000270: 8db4 28bd 7dc0 c1bb edcf 3abe 8da9 f3bd
00000280: ef25 be3b a350 163c 1cc6 e23d 4235 5d3e
00000290: 8a16 87be bf51 5abe ab64 1dbd 1615 d63d
000002a0: 830e 25be cd5f d8bd a2e1 ac3d fd4f e13c
000002b0: 1d69 163e afb7 30be 94e0 59be 7b3d 5abd
000002c0: 3330 57bd f09c 703c c47c e33d 7053 a33d
000002d0: e6d7 97bd 226a 9d3e 6673 6f3d 40e8 983c
000002e0: 5b74 e83d e01c 743e e36f 35ba daa1 f0bd
000002f0: 44d8 f3bc dbb8 abbc 5a0d 8dbd 8602 54bd
00000300: 3241 51be 001e 96be fab2 8dbd 0626 e0bd
00000310: f855 d4bc cdbc 9bba 2f64 b0bd e216 0c3e
00000320: 2c85 a4be 75a2 d8be 732e e43d 817b 813d
00000330: 834d 4bbe 86c1 cfbd 385c c7bc f6bd bebb
00000340: d26c 19be b455 38bc ebf2 ef3d 4c84 823e
00000350: 77b2 89be 9fc9 61be 35ea b43d 1475 573e
00000360: 1188 1dbd 6bfa e1bd 1bd1 6dbd aed9 073b
00000370: da76 903d 050a 9c3c d94d 36bd 06d1 e7bc
00000380: 4628 e73d 4f60 783d 49b4 dabd 2f09 64be
00000390: 9e4c c53d d8f6 883d 2bc7 9c3d e587 04be
000003a0: 92c0 7a3d 3ebc 463d 9569 043d 847f 183e
000003b0: b97c a83c 2438 153e 1e1b ab3d c7e2 973d
000003c0: bea3 f2bd 714e ba3d 2970 39bd ac47 a4bd
000003d0: 5119 7dbe 859b ccbe e4f3 c33d 18df 9f3e
000003e0: 04ea 193e 256b 183c 670f 113d e08f 18be
000003f0: 0220 82bd d67b f0bd 9efa 123c 0cde 18bc
-0.026232533 0.059511725 0.018229539 -0.06289043 0.032669898 0.124182 -0.27246228 -0.07835092
-0.119081296 -0.023780718 0.06276083 0.011257853 0.11164466 0.033987578 0.055838004 0.019982625
0.07382025 -0.20068163 0.013437803 -0.22538301 -0.17517684 -0.35619095 0.1910768 0.046281673
-0.06026762 0.11558617 -0.08767088 -0.13569677 0.013642412 -0.012418292 0.07106675 -0.05940384
0.028217852 0.23128158 -0.09358731 0.16860254 0.04226429 -0.020125488 -0.07615643 -0.10676069
0.123041324 -0.089364894 -0.03281493 -0.10460627 -0.16848716 0.23446527 -0.09272878 -0.022257268
-0.36014327 -0.44506142 0.07366346 0.24537599 0.12515712 0.09080403 -0.102884464 -0.11286201
0.04923987 -0.07558909 -0.09754344 -0.0925201 0.15408204 0.21206568 -0.101568684 0.09577017
-0.07897564 0.02509679 0.002635098 -0.014646058 -0.012305352 -0.1682075 0.1399954 0.099687584
-0.054554403 -0.06868364 0.0221073 -0.042005718 0.05425276 0.23006001 -0.059961986 0.05014233
-0.010670271 0.12179445 -0.012915876 0.06268419 0.03992817 0.19619006 -0.11234435 -0.0115452595
0.00045429805 -0.106754094 0.094253086 -0.11805541 -0.06912116 -0.12894106 0.0023047535 -0.1763112
0.027636219 0.17896162 0.03493896 0.0796438 -0.12131373 0.11758862 -0.15380208 0.16364977
-0.02883071 -0.032729484 -0.0063095074 -0.1576613 0.16355687 0.21015702 0.08604371 0.081544034
0.05921001 -0.06683141 -0.0029990172 -0.0514408 0.15116565 0.033136386 0.0054313107 0.0156367
0.043898717 -0.123011395 -0.06231267 -0.12765197 -0.010659877 -0.08733143 0.077689745 -0.10003336
0.00982094 -0.094603546 -0.2056944 -0.25582364 0.018467141 0.2634372 0.13372208 -0.088200964
-0.092980675 -0.088384435 -0.054110445 -0.047962792 -0.06536362 0.13108201 -0.0055806222 -0.08615589
-0.051845748 -0.15924129 0.03605391 0.019687725 0.016148696 0.037242737 0.06274332 -0.0050948714
-0.32275593 -0.43224084 0.15172106 0.053197954 -0.04118781 -0.005912839 -0.1824338 -0.118975736
0.005802862 0.009174499 0.110729426 0.21602347 -0.26384383 -0.21320246 -0.038426083 0.104532406
-0.16118817 -0.105651475 0.084414735 0.027503962 0.14688535 -0.1725757 -0.21277076 -0.05328129
-0.0525362 0.014685854 0.111077815 0.07974899 -0.07414226 0.30745035 0.058459662 0.018665433
0.11350318 0.2383914 -0.00069212745 -0.11749621 -0.02976621 -0.02096217 -0.06887312 -0.05176022
-0.20435026 -0.29319763 -0.06918903 -0.109447524 -0.0259199 -0.0011881829 -0.086128585 0.13680604
-0.32132852 -0.42311445 0.11141672 0.063223846 -0.19853787 -0.101443335 -0.024335966 -0.005820985
-0.14982918 -0.011250902 0.11716255 0.2549156 -0.2689397 -0.22049569 0.08833734 0.21040756
-0.03845984 -0.110340916 -0.058060747 0.0020729112 0.07053919 0.019047746 -0.044507835 -0.028297912
0.112869784 0.060638722 -0.10678918 -0.22269128 0.09633754 0.06687707 0.07655176 -0.12942465
0.061218806 0.048519365 0.032327253 0.14892393 0.020567285 0.14572197 0.083547816 0.07416301
-0.118476376 0.09096993 -0.04527298 -0.08021483 -0.24716689 -0.39962402 0.09568003 0.31224895
0.15030676 0.009302889 0.03541508 -0.14898634 -0.06353761 -0.1174237 0.008970885 -0.009330284

gru.weight_hh_l0 f4 [192, 64]
00000000: fd1d b63d d604 30be 6077 123c 659c 003e
00000010: 0767 053e 011d 51be 6a80 04bd 3922 b2bc
00000020: 5514 89bd 0289 2e3e 4a4a dbbd 01e5 04be
00000030: acfb 6dbe b854 663e 1aec 12bd 1630 d93d
00000040: 88f9 98bd 063b 07bc 4115 27bd eb7d 41bd
00000050: eaa2 d8bd cd65 7cbd 552e 11be c687 1e3c
00000060: e677 f1bd b280 6d3e f962 79bd 3678 a7bd
00000070: 5ae8 d33c 96e7 23be 9bdd dbbc 3a57 1cbc
00000080: ad92 663e 4900 94bd bb62 8abb 89cc 52be
00000090: 877a 163e 5a75 3abd 5c27 323d c701 ff3d
000000a0: 4272 153e 2479 0cbe 207a 06bd 0d07 95bd
000000b0: 1abd 823e 4f83 673e c101 f33b edff 8dbd
000000c0: 094c 16be adb6 3a3e 5180 c23d 810f 35be
000000d0: 8a7c 0bbd c927 4b3e a276 23be d071 bcbd
000000e0: 4a62 abbd b62e 45be db9d 193e 8d24 f83a
000000f0: a43c eebd 4621 bbbd 9786 09be ef99 573d
00000100: cb4d bfbc 63c7 28bd 8b38 203e 7b85 123d
00000110: cc03 3fbe 6b1d ecbc af97 9abd 39fb db3c
00000120: bd0a a7bb e999 d73d 7081 f1bb 3e90 19be
00000130: 415f 983c 0fe0 063e b135 38bc ade6 d13d
00000140: f981 0cbc 45be 073e 629e f53d 53cd b83d
00000150: 55c4 cd3d 0aa8 67bc c8b6 e63d 8bce 103d
00000160: b02e 9f3c a709 22ba 3891 3b3d 51ea 21be
00000170: 24fe b2bc 3f33 b23d 8f43 063e 2c45 c9bd
00000180: 2b53 5a3d b2cf a13d 80a1 ad3d 868f 85bc
00000190: ec86 a8ba e4ad ce3a a970 f33d 42b7 fcbd
000001a0: 4db9 83bd ffde 0c3d c12f 99bd 35dc c73d
000001b0: 1de5 e23d e0cd 2ebd 1855 013e c7fc 9e3c
000001c0: 0ab6 0abd 86b5 983d aa18 80bd 966d c6bc
000001d0: 0c28 053e eaf0 4c3d c784 fcbd 8a9c f43c
000001e0: 492d 7ebc d478 fb3d 654d 093d c985 27be
000001f0: a0d7 e3bc 2073 0b3e 882a 30bd cd4c 553d
00000200: b01c 5ebb 884a ba3d aded c1bd 2201 b33c
00000210: 7630 873d 6dbd be3c 45a1 15be 222b 873d
00000220: 7ba3 ed3d 1615 76bd 936c b33d 38cd af3d
00000230: 1c8c 42bd b6e4 d6bd 132e 37bc 9d28 f2bd
00000240: be9e e23d 4f41 0d3d 95b3 b8bd 5a3c eebd
00000250: da21 41bd 905f 43bd 55b8 a1bd 3ec4 843b
00000260: 5078 473c cf59 cd3c ac1f e33d d34a 973c
00000270: 8076 d43c 881f 14bb 63e6 92bd 6b3b c93d
00000280: da1f a73d a69b a93d 6ee5 efbd 0bf0 e03d
00000290: ae42 123e a7d4 4fbd ffcc d53c f068 c43c
000002a0: c13f b0bd 20a1 d1bd ab49 9b3d 4f28 fb3a
000002b0: e3c4 f83b e698 e6bb 73e2 09be 1c15 c1bd
000002c0: 91e2 08bd f8de 4dbd 4846 bd3d 74cb cebd
000002d0: a25a 3dbd ce65 a4bd bc79 103e b541 b3bd
000002e0: c424 b83d 12a9 11be 413b d93a c50a 1e3d
000002f0: 0e9c e5bd cfd8 d13c b763 723c 4254 56bd
00000300: ac14 f1bd 625b 31bd e2f4 2d3d 71f5 203e
00000310: 82fc ab3d d55a 9bbd 60fb 033e de87 e2bd
00000320: 013d f8bc d976 023d 4aa3 98bd 9ad8 40bd
00000330: aa3c ddba 93f2 ddbb 99bf ccbc e551 c43d
00000340: 5df4 9dbd 0c0c 5ebd 604b 27be 45b3 32be
00000350: fdf1 86bd 8df4 483e 1606 b1bd 6e78 813c
00000360: 000f dd3c edf2 f93c 027f b3bd 22b2 02be
00000370: 0f8a 91bd 41f5 2fbe 3146 e1bd 1dea 0a3e
00000380: f312 36bd b40c babd 4c21 46be db5e a6bd
00000390: b2fb b4ba 36bc 61bd ea06 f53d a135 8abd
000003a0: 2d67 333d 99c2 1cbe ef84 6ebc 2d60 993c
000003b0: 6a5e 613c f36b 3d3e 3930 f8bd 963b 17bc
000003c0: 684c 7fbd ad66 0cbd 0e6d 5f3d 7e3a f7bd
000003d0: 3b59 17bd cde3 be3d a549 15bd c1cf 39bd
000003e0: 234e 8b3d 4dc5 01bd 74ab 063e b745 2bbd
000003f0: f144 25be cbef 693d 7da2 c23d 19d6 613d
0.088924386 -0.17189345 0.008939594 0.1255966 0.13027583 -0.2042122 -0.032349028 -0.021744834
-0.06693331 0.17044452 -0.10707529 -0.12977983 -0.23240536 0.22493255 -0.035869695 0.10604875
-0.07469469 -0.008253818 -0.040791754 -0.047239225 -0.105779484 -0.061620522 -0.1417783 0.009675926
-0.11790447 0.23193625 -0.060885403 -0.08177225 0.02586763 -0.16006312 -0.026839068 -0.009542281
0.2251689 -0.07226617 -0.0042231954 -0.20585836 0.14695178 -0.04552207 0.043494567 0.12451511
0.14594367 -0.13718086 -0.03283131 -0.072767355 0.25534898 0.22608684 0.0074159806 -0.069335796
-0.14677443 0.18233748 0.09497131 -0.17681696 -0.034054317 0.19839396 -0.15963224 -0.092013955
-0.083683565 -0.192561 0.15001623 0.0018931791 -0.1163266 -0.09137206 -0.13430248 0.052637037
-0.023352524 -0.041205775 0.1564657 0.03577183 -0.18653792 -0.028822621 -0.075484626 0.02685319
-0.0050977156 0.10527403 -0.0073701665 -0.1499643 0.018600108 0.13171409 -0.01124327 0.10249076
-0.00857591 0.13256176 0.119931 0.090235375 0.10047213 -0.014139185 0.112653315 0.035353225
0.019431442 -0.0006181248 0.04579279 -0.15812041 -0.0218497 0.08701181 0.13111709 -0.098276466
0.05330197 0.07900943 0.08478069 -0.016303789 -0.0012857593 0.0015768376 0.118867226 -0.12339641
-0.06431828 0.034392353 -0.074798115 0.09758798 0.11078856 -0.042676806 0.12630117 0.019407643
-0.033865012 0.07456498 -0.06254704 -0.024222177 0.13003558 0.05003444 -0.12330013 0.0298598
-0.0155137265 0.122789055 0.033521075 -0.16359629 -0.027812779 0.13618135 -0.04300931 0.052075196
-0.003389161 0.09096247 -0.09469161 0.021851126 0.0660104 0.023283685 -0.146123 0.06600024
0.11603447 -0.060078703 0.08760943 0.08584064 -0.0474969 -0.10492842 -0.011180419 -0.118241526
0.11065434 0.03448611 -0.090186276 -0.11632605 -0.047151424 -0.047698557 -0.07896487 0.004051714
0.012174681 0.025067238 0.11090025 0.018468296 0.025935411 -0.0022601802 -0.07172849 0.09825786
0.08160372 0.08281641 -0.11713682 0.109832846 0.14283249 -0.05073991 0.026098726 0.02397582
-0.0860591 -0.1023581 0.075824104 0.0019161793 0.00759183 -0.00703727 -0.1346529 -0.094278544
-0.033419196 -0.050261468 0.09241921 -0.10097399 -0.046229012 -0.0802723 0.14108938 -0.08752767
0.089913875 -0.14224651 0.0016573445 0.03858449 -0.11211406 0.025616078 0.014794282 -0.05232645
-0.11771521 -0.04330004 0.042469867 0.15718628 0.083977714 -0.07585684 0.1288886 -0.11061071
-0.030302526 0.031851623 -0.0745302 -0.047081567 -0.0016879041 -0.006773302 -0.024993705 0.09585933
-0.07712624 -0.054210708 -0.16337347 -0.17451198 -0.06589124 0.19624539 -0.08643739 0.015804496
0.026984692 0.030511344 -0.08764459 -0.12763265 -0.07106411 -0.171834 -0.10999716 0.1356587
-0.044451665 -0.09084454 -0.19348639 -0.08123561 -0.0013807921 -0.055111133 0.119642094 -0.0674851
0.043799568 -0.15308608 -0.014558061 0.018722618 0.01375542 0.1849821 -0.12118573 -0.009230515
-0.062328726 -0.034277607 0.054547362 -0.120717034 -0.03695033 0.09320793 -0.036447186 -0.045364145
0.06802013 -0.0316823 0.13151342 -0.041814532 -0.1613958 0.05711345 0.095036484 0.05513582

gru.bias_ih_l0 f4 [192]
00000000: bd10 c9bd 73a5 be3d 8521 cc3d ae90 06be
00000010: 9575 b8bd 49b1 163b 1ba3 5abe c36e 353d
00000020: 3ef2 ddbd d904 17bd 8aa3 c63d cd6c 23bd
00000030: 08a2 b3bd 9c2a e9bd ddab f6bd ec90 03be
00000040: bec6 9f3d cfad 2ebd 8250 943d f79b aabd
00000050: 071c 3e3d 997d 28bd 6b3d 71bd 8e61 c0bd
00000060: 45bd c4bd a3cd bf3d 45ee a43d 49b0 5e3d
00000070: 16fb 16be 30f7 92bd 07d7 9fbd 5a98 fe3d
00000080: f216 f4bd 5b2b 6fbc 30e6 873d 2291 f73d
00000090: cf7b ec3d b601 f4bd 2bd4 4dbc e3bc c3bd
000000a0: 56cb 373d 688d b8bd 76e4 23be 69d8 873c
000000b0: dbe9 aebd ed20 32bd 87c5 c5bc 22e0 78bd
000000c0: 1797 2dbe 71fc 24be e02a f5bd e86e 1ebe
000000d0: 1fd0 dbbd b2ff 2abe 06fe 07be 04b2 dc3b
000000e0: 7802 bebd e3fa adbd 31e7 55bc 5db8 603d
000000f0: 5d59 663d 175e 1cbe 0aee f1bc 7862 6d3d
00000100: e39f 0cbe 543a 7ebe 1fb4 2b3e 54e3 1cbe
00000110: 06bb d33c 90a8 f8bd ff5b eb3b cba2 663e
00000120: 8bc5 b3bd 11ca 9e3e 3c52 f83d 728c b0be
00000130: 6184 2c3d 85dd 53be c560 373d 4487 02be
00000140: 671d 363e a131 01be a4a3 22be a0e3 8cbe
00000150: c1bd 3abd e54e f4bd ed03 99be 6c9d ad3d
00000160: 3849 20be c27b 7dbe 8819 31be 5ff5 95be
00000170: a195 573e 545a 84be 5c49 8ebc 2665 c83e
00000180: f40c 90bd 870d 0a3e d6fe 0d3d 3201 5e3d
00000190: a536 933e 1198 063e 6b51 853d e68f 10bd
000001a0: 5ce0 59be af37 1c3e 1005 f83d 58d3 48bd
000001b0: 71e7 90be 6272 17be cc3b 39be 8c2f 19be
000001c0: 3a96 e83c 468e 78be b093 0cbe c1d2 42be
000001d0: 36f1 76be 6f4b f6bd d48f a03e 1e7e 723e
000001e0: 9f42 b4bb 5fba 4ebe e161 ab3d c9aa 9ebd
000001f0: 6faa 80be a53c 303e d009 88bd dc06 6a3e
00000200: 4b3b a53b 9878 8e3d a49b 96bd f125 96bd
00000210: 417c 2e3d e59f 853d a061 b33c 0687 cf3d
00000220: bd46 5f3d 10b9 67bd a563 453d 6175 1e3d
00000230: eedc 8d3d 6bf6 fdbc 6ab1 8cbd 1e5d 87bd
00000240: ca7c e03c f843 e1bb dde0 0cbd 1ce4 493d
00000250: e321 ab3c b700 17bd 67cf 29bb f641 2fbd
00000260: e2fd 7e3d 4c95 6abd beee 3b3b 3960 bc3c
00000270: 9b2b 283d b08a 9d3d 23a8 b0bc 856d 9cbd
00000280: 4f14 9fbd 32e0 313d 4c2f 4d3d 115a 6d3d
00000290: 73b3 d0bd edb2 553d 9a19 043d 1525 a83d
000002a0: 4ca7 1d3c d0a4 8c3d bbdf 1c3d 189a b4bd
000002b0: 0478 81bd 8e95 07bc 4c3f 213c 0d8f b63d
000002c0: 49e1 dcbc 69d3 2dbd 5c6c 6abc 14cf ab3d
000002d0: 8e00 953d 3744 253c 171a 603c ea1e bfbc
000002e0: 53ac 85bd 902d 243d 7084 c53a 0948 f5bc
000002f0: 1bbf bc3c f971 453b 7235 a63d a506 bfbc
-0.09817646 0.09308901 0.09967331 -0.13141128 -0.09006802 0.0022993854 -0.21351282 0.044295084
-0.1083722 -0.036869857 0.09699161 -0.039898682 -0.087711394 -0.1138508 -0.12044499 -0.12848252
0.07801579 -0.042646226 0.07241918 -0.08330529 0.046413448 -0.041135404 -0.058896463 -0.09393607
-0.09606413 0.09365394 0.08053259 0.054367337 -0.14744219 -0.071760535 -0.07804685 0.124314025
-0.11918439 -0.014597739 0.06635702 0.12088229 0.11547052 -0.11914389 -0.012562792 -0.09557512
0.04487165 -0.09011346 -0.1600512 0.016582685 -0.08540698 -0.04348843 -0.02414204 -0.060760625
-0.16952167 -0.16111924 -0.119710684 -0.15471995 -0.10733055 -0.16699103 -0.13280496 0.0067350883
-0.092778146 -0.084951185 -0.013055609 0.054863323 0.056237567 -0.15270267 -0.029532451 0.057955235
-0.13732867 -0.24826938 0.1676793 -0.15321094 0.025846016 -0.12141526 0.0071825976 0.22523038
-0.08777913 0.3101354 0.1212506 -0.3448215 0.042118434 -0.20689972 0.04477002 -0.12746912
0.17784654 -0.12616588 -0.15882736 -0.27517414 -0.04559112 -0.119291104 -0.29885808 0.084772915
-0.1565293 -0.24754241 -0.17294896 -0.29288766 0.21053173 -0.25850165 -0.017368965 0.3913967
-0.070337206 0.13481723 0.03466686 0.05420036 0.28752628 0.13143946 0.0650967 -0.035293482
-0.21276993 0.15255617 0.121103406 -0.049029678 -0.28301576 -0.14789727 -0.18089217 -0.14959544
0.028391946 -0.24273023 -0.13728213 -0.19025709 -0.24115452 -0.120261066 0.31359732 0.23680922
-0.005501106 -0.20188282 0.08368278 -0.077474184 -0.2513003 0.17210634 -0.066424966 0.22854179
0.0050424687 0.06956595 -0.07353905 -0.073314555 0.042598967 0.06524638 0.021897137 0.101331756
0.05451082 -0.056572974 0.04819073 0.03868616 0.069269046 -0.03100129 -0.068697765 -0.066095576
0.027403254 -0.0068745576 -0.034394134 0.049289808 0.020890182 -0.036865916 -0.0025910975 -0.042787515
0.06225384 -0.057271287 0.0028676237 0.022995101 0.04105721 0.07692468 -0.021564549 -0.07638077
-0.077675454 0.0434267 0.050093934 0.057947222 -0.10190477 0.05217259 0.032250978 0.08210198
0.009622406 0.06867373 0.038299304 -0.088184536 -0.06321719 -0.008275403 0.009841751 0.089140035
-0.026962893 -0.042437945 -0.014308061 0.083891064 0.072754964 0.0100870645 0.013678095 -0.02333017
-0.06527009 0.040082514 0.0015069377 -0.029941576 0.023040345 0.0030127747 0.08115663 -0.023318598

gru.bias_hh_l0 f4 [192]
00000000: 4683 38be fba9 923d cfd8 373c 0792 21be
00000010: 5a20 8cb9 3b66 c9bb 8343 36be 489a 29bc
00000020: 08a9 28bb 47bb f83c 4a34 ba3d 9fd9 cb3d
00000030: d172 eebd 11b8 72bc 8e27 323d 5961 26bd
00000040: 00c8 403d 1cd8 363d 4dc7 afbd 99b4 c43c
00000050: 3af5 fbbc bdd2 c5bc f6f4 c5bd 05ac cbbd
00000060: 5d94 5c3d 6ae5 ed3d 21f4 f6bd cb5e c23d
00000070: 6865 83bd 95b7 4bbc 8e0f 3dbb 2504 cc3d
00000080: 9406 f03c f3c8 b73d fbff 0c3d 26ee 29bd
00000090: 0234 a5bd cebe 0c3c cf2d 8a3d f462 b13d
000000a0: a62a 99bd b246 ba3d 1bfa 21be c477 50bd
000000b0: faa3 8cbc 94d5 5ebd dd14 b1bd bb24 9a3d
000000c0: 2c03 20be c20a 17be f4a4 5cbd 2cf9 18be
000000d0: 375e b4bc bd12 eebd 4f02 853d a0a9 12be
000000e0: b615 0abd 3520 663d c2bc 12be 9469 05be
000000f0: a263 5fbc 1877 7d3d 4fe0 9fbc 8f18 a3bd
00000100: 199d aebb d92f 58be be0f 223e 8a44 39be
00000110: d6d4 c53c 9388 c2bd 9a54 66bb fbc9 2b3e
00000120: ec66 91be a580 b83e f167 a53c fc38 a9be
00000130: 6eb9 7cbd c6a7 84be 93dc 02bd 1d5e 46be
00000140: 1062 1d3e a694 70be 5c11 9cbe b4d1 a9be
00000150: a795 32be a651 92be 97fe 82be 5d06 fabc
00000160: 1a07 3cbc 7b20 a3bd 8ab3 0ebe d5b7 91be
00000170: c958 793d c69f 12be 2763 1cbc c0e9 de3e
00000180: 492d ffbc e22e cb3d 9a71 233e 3402 543d
00000190: 82ba 923e 248f 5b3e ed1e f5bc af95 70be
000001a0: 3995 7bbc a495 833e bd66 9a3e eb78 003d
000001b0: 8298 8abe eab6 45be 49e3 63be 7d73 86be
000001c0: ff55 21be 6e6d 9fbe e674 8bbe 5068 75be
000001d0: e79e 47bd 7f4c 23be abfb 9b3e 5625 1c3e
000001e0: 4d87 14be 7291 85be e19a 33bd 3da9 e7ba
000001f0: ecc8 afbe 2993 843e b838 e63d ab71 493e
00000200: 815a 19bd 8fcf 37bc 501b ee3d 9ca0 d4bc
00000210: 9ef6 c4bd 1360 80bd 2403 b8bd be3b dcbd
00000220: d9fd dbbc 75c5 79bd 0397 c8bc 168f f5bd
00000230: e5e4 d23d 6539 4ebd a04d e93d 76de 5bbc
00000240: 97ba 313d 5bef ae3a 48b4 8a3d 9c20 fc3b
00000250: ddd8 033d 32de 6c3d 6083 c83c 2f06 9f3c
00000260: 9bcd 28bd 8cfc 083d 4f79 4e3d 4fab 3b3c
00000270: 2528 b6bd b7b3 8c3d bd33 713c 5e82 bd3d
00000280: aff9 ca3c 6998 f1bd 4c02 793d 557b 1dbd
00000290: 35ab c13d 5548 90bd ae6a 913a 0628 aebd
000002a0: a32d c5bd 8948 c0bc af36 6f3d be4f 563d
000002b0: bb63 2bbc 8524 873d 4720 a0bd 0b19 41bd
000002c0: ea18 363d 69e8 3cbd 3135 733d fec1 f8bb
000002d0: 9187 06be 3c75 d9bd c821 743d fa41 603d
000002e0: 777d a43d af2c 4a3d bbe7 9fbd afc6 0f3d
000002f0: 4b27 debc 318c 3cbd 8609 2bbd 5e6b b53d
-0.18018827 0.071613275 0.011221125 -0.15778361 -0.00026726985 -0.00614622 -0.17799191 -0.010351725
-0.0025735516 0.030362738 0.090920046 0.09953617 -0.11642993 -0.014814393 0.043494754 -0.04062018
0.047065735 0.04463969 -0.085829355 0.024011897 -0.030756582 -0.02414834 -0.09665863 -0.099449195
0.053852428 0.11616023 -0.12058283 0.094907366 -0.06415826 -0.012433906 -0.0028848383 0.09961728
0.029300012 0.08973875 0.03442381 -0.04148688 -0.0806656 0.008590413 0.067470185 0.08661452
-0.07478838 0.09095515 -0.15818064 -0.050895467 -0.017168034 -0.054402903 -0.086465575 0.07526537
-0.1562621 -0.14750198 -0.05386825 -0.14938802 -0.022017581 -0.11624668 0.06494581 -0.1432252
-0.03371211 0.05618306 -0.14329818 -0.13028556 -0.013634594 0.061881155 -0.019516138 -0.079636686
-0.005328786 -0.21112002 0.15826318 -0.18092552 0.02414934 -0.09498706 -0.0035145641 0.16776268
-0.28398836 0.36035648 0.020191165 -0.33051288 -0.061700277 -0.2590925 -0.031948637 -0.19371839
0.15369439 -0.23494205 -0.30481994 -0.33167803 -0.174399 -0.28577918 -0.25584862 -0.030520612
-0.0114763025 -0.079651795 -0.13935676 -0.28460565 0.060875688 -0.14318761 -0.009545124 0.43537712
-0.031149523 0.099210516 0.15961304 0.051759914 0.2865792 0.21441323 -0.029921973 -0.234946
-0.015355402 0.25700104 0.30156508 0.031365316 -0.2706948 -0.19308057 -0.22254671 -0.26259986
-0.15755461 -0.31138176 -0.27237624 -0.23965573 -0.048735525 -0.1594715 0.30465445 0.15248618
-0.14504738 -0.26087528 -0.043848876 -0.0017674338 -0.3433298 0.25893524 0.11241287 0.19672267
-0.037439827 -0.011218919 0.11626303 -0.02595549 -0.09617351 -0.06268325 -0.08984974 -0.107535824
-0.026854442 -0.060979325 -0.02448607 -0.11990182 0.102975644 -0.050347704 0.11391759 -0.013419738
0.043390837 0.001334648 0.06772667 0.007694317 0.03218924 0.05782909 0.024476707 0.019412128
-0.041211706 0.033443972 0.050408658 0.011454417 -0.08894376 0.068702154 0.014721808 0.09253381
0.024777262 -0.11796648 0.060793206 -0.038447697 0.09456483 -0.07045046 0.0011094415 -0.085037276
-0.09627845 -0.023472087 0.05840176 0.05232214 -0.010460789 0.065987624 -0.078186564 -0.047143023
0.044457354 -0.04612008 0.0593769 -0.007591485 -0.13137652 -0.10618064 0.05960253 0.05475042
0.08031743 0.04935902 -0.07807871 0.03510159 -0.027118346 -0.046032134 -0.04175713 0.08858369

gru.weight_ih_l1 f4 [192, 64]
00000000: 2271 ccbd e571 3d3d 1701 a53d 472c 86bc
00000010: 5c39 183e 5b92 a3bd 0d6a 65bd 9e38 983d
00000020: 1507 f1bd ddb6 483d 6a6c 863d 149d 393d
00000030: 6b44 52bc b7c1 c53b 9997 d0bb fe3c 293a
00000040: bf44 9cbd ac62 d23d 85b0 c1bd 518e a1bd
00000050: d626 dabd bd86 28bd 436d e6bd 12d3 90bd
00000060: 940a c43c 5521 fc3d 8c62 9ebd 114f 53bd
00000070: bc5d 6fbd 53cc 093d df1e 8c3d 4935 e43d
00000080: 6968 ee3d 00f5 04be 7082 7fbd 83ab 1c3c
00000090: f8f9 173e 600f 01be fe3e f73d 82ee b73c
000000a0: 3a49 fe3c 720a 053d 9d58 d7bd f664 a53d
000000b0: 2864 c1bd 2e13 c9bd b2b0 a2bd db70 083e
000000c0: 5bed 27bd b151 32bc 4e00 743c f1c1 a33b
000000d0: 176d 89bd ae20 c03d 2995 b8bd 5a12 d7bd
000000e0: a050 86bd eff7 bcbd d87e 50bd 54ba db3c
000000f0: b938 2f3d 1e76 4cbd c4e1 4d3d 4266 f4bd
00000100: 8866 71bd 91d0 573d 3bdc 183e 4c08 9a3d
00000110: 25db b93d 1fc1 a3bd 9be6 173e 8631 49bd
00000120: 53e0 a3bb d5ab ddbb 3a86 fdbd f2c0 853b
00000130: 828b 143d 44e2 86bd f1e6 2b3d 5c70 af3d
00000140: e76c 85bd ba60 813a c5ca 49bd 1bfd ab3d
00000150: 5147 6ebd 43d9 cbbd f4c9 7a3d 115f bd3c
00000160: ceec 13bd 1112 de3c d370 febd 14c4 f63c
00000170: 7168 f23d c86e f9bc 69d2 873d 91df 0a3e
00000180: 646d b03d 473a 263e 628c 5a3d d2bc 7fbd
00000190: b336 b63d debb 0cbe affc a93c ce30 1bbd
000001a0: ff4b a4bc 7c1a c93c fd7d 16bc 3aab 1d3d
000001b0: df28 0d3d 6282 a63d 0c69 8c3d 3105 aa3d
000001c0: 9d13 08be ab1e f43c 858b 023e d332 1bbe
000001d0: 6a59 71bd d0fd 133e 8fd1 183d d4e0 09be
000001e0: 0aed 58bd 0da6 18be 4cef 3e3d ac98 cf3d
000001f0: a214 3abd 60ec ecbd 71cf 183d 2a03 fcbd
00000200: 1d65 cdbd b934 1dbe 0f2f 803d c558 7dbd
00000210: 4bc6 173d 1978 84bd 597b 163e 47c0 c23d
00000220: d68b 0abe 73ed 2f3e 6bc2 a6ba d26e 15be
00000230: 4483 e23c 8087 a83c 786b 00bd 8511 37bc
00000240: 9b10 b03d a105 d3bd 01f6 573d 6345 6cbd
00000250: dfdf 09bc c9de 1dbe 11cc bfbd 1143 32be
00000260: cd62 463d 0e9f cfbb 53ed dabb f527 813b
00000270: 44e5 f3bd a36e 29be ae08 7d3d 360e c93d
00000280: ed65 cd3d 22a0 1f3d 6652 39bd fa0e 1e3d
00000290: 38be 2b3d 3ebc 04be 3987 35be 36d6 c93c
000002a0: 90e4 5abd c641 1cbd 9557 17be e809 a8bd
000002b0: 6167 79bb aa23 923d ca9c 25bd 3877 d93d
000002c0: 1d11 fcbd 6ba4 ea3d b4bf 413e 3011 d9bd
000002d0: a21f b83c e7cb 253d a1cb 343d f032 72bd
000002e0: d5d8 14be 85f6 753a 28a5 2fbd 8a77 e43d
000002f0: 1692 23be 1ee2 04be 0097 f5bc d470 6b3d
00000300: 8d82 99bd 45a5 253d 7010 ad3c d5db 1cbd
00000310: bdc6 1abd ddaa c93d 9cd0 c4bd 90f5 04be
00000320: 8346 02bd 746e e83d a62a b3bd 436a ab3c
00000330: fe0a a93d 4185 eebc 5e67 32bd a889 abbc
00000340: e970 9b3d 02c2 d6bc d938 933b 80d4 afbd
00000350: e0b3 883d d8ee 0dbe 163e ae3d 2939 40bd
00000360: 2564 9d3d c55f 19bd 3921 f73d cb8d a93d
00000370: ea36 e23d d60c f13b 039e 533c 300e 003e
00000380: e4a7 643d 7eac 663a 21db 2c3d da4d bf3d
00000390: 5882 093e b544 8cbc ddd1 85bd f697 373c
000003a0: 82cb b93d 4b7f 09be 340e cb3c 5eb9 b33d
000003b0: 09db bebd cd52 13bc 94ea 053e 8596 5ebd
000003c0: 0e76 31bd d326 90bd c576 01be b559 603d
000003d0: 1c43 00be f2f1 c9bd dd23 bb3d 2157 3c3d
000003e0: 13a3 e3bc d6f6 973d 31ae 893d e8a4 d7bd
000003f0: 336e dd3d cef4 e6bd 4e70 29bd 45b8 253d
-0.09982516 0.046251196 0.080568485 -0.016378535 0.14865631 -0.079868995 -0.05600934 0.07432674
-0.11768929 0.049002517 0.06563647 0.045315817 -0.012833695 0.0060350555 -0.006365728 0.0006455927
-0.076303 0.102727264 -0.094574966 -0.07888473 -0.106519386 -0.04114412 -0.11251309 -0.070715085
0.023930825 0.12311045 -0.0773364 -0.051589075 -0.058439 0.033642124 0.06841826 0.11142976
0.116410084 -0.12984085 -0.062380254 0.009562376 0.1484145 -0.12603521 0.12072562 0.022452597
0.031040777 0.032480665 -0.105149485 0.080758974 -0.094429314 -0.09818111 -0.07943858 0.13324301
-0.040997844 -0.010883735 0.014892651 0.004997485 -0.0671026 0.09381233 -0.09012825 -0.10501547
-0.06558347 -0.09226977 -0.050902218 0.026822247 0.042778704 -0.049917333 0.050264135 -0.11933567
-0.058935672 0.05268914 0.14927761 0.07521114 0.090750016 -0.07995819 0.14834063 -0.049119495
-0.0050011068 -0.0067648687 -0.12379117 0.0040818388 0.036265858 -0.065861255 0.04196829 0.08566353
-0.06514912 0.0009870746 -0.04926564 0.083978854 -0.05817348 -0.09953549 0.061227754 0.02311662
-0.036114506 0.027108224 -0.12423863 0.030122794 0.11836327 -0.030448332 0.066319294 0.13561846
0.086146146 0.16233169 0.053356536 -0.062435932 0.08897152 -0.1374354 0.020750372 -0.03788834
-0.020055769 0.024548762 -0.009185311 0.038493372 0.034462806 0.08130337 0.068559736 0.083017714
-0.13288732 0.02979978 0.12748535 -0.15156107 -0.058923163 0.1445229 0.037309226 -0.13464671
-0.052960433 -0.14907093 0.04661493 0.10136542 -0.045429833 -0.115685225 0.037307207 -0.12305291
-0.100290515 -0.15352143 0.06258976 -0.061852235 0.03705434 -0.06468219 0.14695491 0.0950933
-0.13529906 0.17180423 -0.0012722736 -0.14593056 0.027650483 0.020572424 -0.03135249 -0.011173611
0.08596917 -0.10303808 0.052724842 -0.05768336 -0.008415191 -0.15417017 -0.093650945 -0.17408396
0.048434068 -0.0063360995 -0.0066811233 0.003941531 -0.11908963 -0.16546111 0.061775856 0.09817164
0.100292064 0.038971074 -0.045244597 0.0385885 0.041929454 -0.12962434 -0.17727365 0.024638277
-0.05344063 -0.038148664 -0.14779504 -0.082050145 -0.0038056003 0.07135709 -0.04043273 0.10618442
-0.123079516 0.114571415 0.18920785 -0.105989814 0.022476021 0.04047766 0.04413951 -0.05913061
-0.1453584 0.00093827426 -0.042882115 0.11155613 -0.15973696 -0.12976882 -0.029979229 0.05748065
-0.07495604 0.040440816 0.021126002 -0.038295586 -0.037787188 0.09847043 -0.096101016 -0.129843
-0.031805526 0.11349192 -0.08748369 0.020924693 0.0825405 -0.029116275 -0.04355561 -0.020939663
0.07589895 -0.026215557 0.0044928608 -0.08585453 0.066749334 -0.13860643 0.08507936 -0.046929512
0.07685117 -0.03744485 0.120668836 0.08278998 0.1104563 0.0073562665 0.012916091 0.12505412
0.055824175 0.0008799507 0.042201165 0.09341021 0.13428628 -0.017122606 -0.06534169 0.011205664
0.09072019 -0.13427465 0.024787046 0.0877559 -0.093191214 -0.008991909 0.13077766 -0.054342765
-0.043325476 -0.07038655 -0.12642963 0.05477305 -0.125256 -0.098606005 0.091377 0.04598153
-0.02778772 0.07420127 0.067226775 -0.105295 0.108120345 -0.112771615 -0.041366868 0.040458936

gru.weight_hh_l1 f4 [192, 64]
00000000: 09f9 a53c c19e 1abd f287 aa3b a368 0d3e
00000010: c3b8 9bbc b20a 003e 3c91 81bd 40c8 3d3c
00000020: f246 1aba 1704 87bd 5b9a e2bd ad86 27bd
00000030: 5471 8ebd 3468 6c3c c2d1 d7bd d00c 983d
00000040: 52db ce3c 1c02 aa3d 9510 b13c be0e 37be
00000050: 8fa6 b93d 24bd 8f3d 1881 183e 3089 8ebd
00000060: 6de0 a8bd a499 ea3d 9fbe 82bd 5760 c03c
00000070: ecbf c33d 8f50 133e ccd5 a7bd 2006 01be
00000080: 31aa 003e 39bf 7bbd 651f d73d 7cd8 b23d
00000090: 70a9 2b3e f6ca 5dbd 8171 62bc 87e5 09bd
000000a0: 9472 3f3d 45bf 26bd 855b 843d 71e8 88bb
000000b0: 05d3 b53d c2f4 efbd 5ef9 fabc 7e84 9dbc
000000c0: 7a50 1bbe fd3d babc 822c 9dbd ed67 203e
000000d0: 0ca3 f1bd a63d 3abd 79af 133e d6bd 093e
000000e0: 9c94 a23d cba1 313d fe5c 003e 3df1 81bc
000000f0: ef03 f6bd 3cb8 c4bd 91a8 9d3c 1aaa 76bd
00000100: 4e39 f4bd 3b9a 773d ecdc 1cbe ea82 7dbc
00000110: 58e4 7abd bb95 0a3e eea2 86bd 0a33 4b3c
00000120: be8c c13d 564a 32be 6c94 d83c 404e 38bd
00000130: 2467 b43c 80f8 d03d 5aab af3d fca9 933d
00000140: 71df 98bb a187 f53d bc44 a63d ba3e 033b
00000150: a57f 31be 6d10 3abd 0c1a 633d ad50 8fbd
00000160: b1a6 0fbe e54f 3a3c dec1 1a3d da7f bcbb
00000170: 718a a4b9 13c9 94bd ab8b cf3c bff7 103d
00000180: 53ac 82bd f298 093e 16c0 2dbd a66e 9cbc
00000190: abe0 9fbd 62dd 843d bde6 b1bd 5b3b 833d
000001a0: 5f70 5ebd a7d5 ecbd 71f3 a93d ed75 cbbd
000001b0: 8d80 9b3c 9c27 1d3d e80a f2bc 30a9 8ebb
000001c0: 18eb 833d 1173 1abd 3c54 58bd f4c3 b13d
000001d0: 6b90 c6bd 83d8 013e c085 aabd 6d22 e6bc
000001e0: 0043 50bd 1ddf 96bc dfe7 68bc 0afb 673d
000001f0: 5a10 61bc b7fe 203e a3d2 20bd 7d57 30bc
00000200: e1b9 adbc 7c20 32be 932f f3bd d7d5 c23b
00000210: dde0 dbbd 2ab1 3bbd fbf1 bebd 33e4 9b3b
00000220: 52c0 413e f68e b03d 1ccf f3ba c227 1a3c
00000230: c742 0a3d e1de e93d 1845 64bd fd19 7d3d
00000240: 1581 d03b 902c 493c d835 b4bd c042 2b3d
00000250: 6ab2 103e 58ff 7a3d 5f68 dd3d 3694 933d
00000260: 9e5c 1abe c97a d23d 56c6 143d a733 fe3d
00000270: 9c9e 96bd 4edf babd 71a3 74bb e719 bb3d
00000280: 3653 18bd a2a9 42be f055 c83d d1f9 7cbd
00000290: 09f0 4cbc b8ea e8bb 1176 ecbc adf6 043e
000002a0: f749 d43d 2d00 d43d 47f3 d93d eaf4 2f3d
000002b0: 92d0 183d 6ec2 9dbd d371 0d3c e39a 363d
000002c0: e65f 20bd 538c 113e 9f84 a3bd 3778 9d3d
000002d0: 1946 883d de40 49bd 59c1 9ebd e994 123e
000002e0: 9af8 d8bd 9707 dabc 94e6 09be 9d2c 633d
000002f0: 8275 3ebd 6537 b73d dff5 bbbd 8c3a 003c
00000300: ae73 81bd df9e fc3d cf53 a0bd 42a4 7b3d
00000310: ce16 14be d4ec 283d dd2c 1f3d 6e34 00be
00000320: 04b9 b43c e794 05bd eca4 563c 63d9 95bd
00000330: f84b 01bb 6f18 e43d c281 9a3d a1ce 44bd
00000340: a5f8 863d 5d77 d93d 247a 513d 9a0c 943d
00000350: 96bc 0a3e f6c1 40bd a853 cbbd ce3b b93d
00000360: 1aba d8bd d356 083d 81aa e5bd c0e1 aebd
00000370: 4fca 713c 79be 9d3d 04f3 073e 7754 71bd
00000380: 6c24 003e bfab abbd 367c ccbd ec44 4e3d
00000390: 7604 14be c05b df3c 6b07 a23d be3c dd3b
000003a0: 13ba c6bd 0ae4 40bd 9701 073e 1175 2b3d
000003b0: 7f9d d83d 25b6 1a3c 0830 cd3d 24ca 9bbc
000003c0: 7eb7 893b a6c7 5dbc d1d1 a13c 8eec b9bd
000003d0: f543 f43d 326f 643d da42 bbbc 9701 893d
000003e0: 1595 123d 0fd7 a1bd 4fae 813d 2c7b 81bd
000003f0: 3f4f 7f3c 894e 4d3d 6387 60bd e8dc 84bd
0.02026035 -0.037749056 0.005204194 0.13809447 -0.019009 0.1250408 -0.063265294 0.011583388
-0.00058852055 -0.06592577 -0.11064597 -0.04089992 -0.069552094 0.014429141 -0.10538055 0.07424319
0.025251064 0.083011836 0.021614352 -0.17876717 0.09064972 0.070184976 0.14892995 -0.0695976
-0.08245931 0.11455086 -0.06384014 0.023483438 0.095580906 0.143862 -0.081950754 -0.12599993
0.12564923 -0.06146166 0.10504035 0.08732697 0.16763854 -0.054148637 -0.013821007 -0.03366616
0.04674013 -0.040709753 0.064627685 -0.0041781 0.088781394 -0.11716606 -0.030636486 -0.019228216
-0.15167418 -0.022734636 -0.07674505 0.15664645 -0.11798677 -0.04546895 0.14422406 0.13451323
0.07938501 0.04336719 0.12535474 -0.015862102 -0.12012469 -0.096054524 0.019245418 -0.060220815
-0.119249925 0.06044982 -0.1531865 -0.015473107 -0.06125292 0.1353368 -0.06574045 0.012402305
0.094506726 -0.1741117 0.02643796 -0.0449965 0.022021838 0.102036476 0.085776046 0.07210156
-0.004665308 0.1198876 0.08118579 0.0020026402 -0.17333849 -0.04542582 0.055444762 -0.069978096
-0.14028431 0.011371587 0.037782542 -0.005752546 -0.00031383664 -0.07264914 0.025335154 0.03539252
-0.063805245 0.1343725 -0.042419516 -0.01909573 -0.07806524 0.06487538 -0.08686588 0.064078055
-0.054306384 -0.115641885 0.08298386 -0.09934602 0.018982196 0.038367853 -0.029546216 -0.004353665
0.06441325 -0.037707392 -0.052814707 0.08679953 -0.09695514 0.12680249 -0.08326292 -0.028092587
-0.050845146 -0.018416936 -0.014215439 0.056635894 -0.013736809 0.15722166 -0.03926338 -0.010763046
-0.021206798 -0.17395204 -0.118743084 0.005945902 -0.10736249 -0.045823254 -0.09323498 0.004757428
0.1892102 0.08621018 -0.0018601152 0.009408893 0.03375509 0.11419464 -0.055729955 0.061792362
0.006363044 0.012278691 -0.087993324 0.041811705 0.1413056 0.06127867 0.10810923 0.07206003
-0.15074393 0.10277326 0.03632196 0.12412196 -0.07354471 -0.09124623 -0.0037328864 0.091358
-0.03718873 -0.19010022 0.09782016 -0.06176168 -0.012508401 -0.007108059 -0.028864892 0.12984724
0.1036567 0.10351596 0.106421046 0.042958178 0.037308283 -0.077031 0.008633095 0.044581305
-0.039153956 0.14213686 -0.0798428 0.07688945 0.06653995 -0.049134128 -0.07751722 0.14314617
-0.10594292 -0.026614947 -0.13466865 0.05546247 -0.046498783 0.089461125 -0.091777556 0.007826459
-0.06320892 0.1233499 -0.07828485 0.061435945 -0.14461824 0.041241482 0.038861144 -0.1252
0.022060879 -0.032612707 0.013100844 -0.07316854 -0.0019729119 0.11137473 0.075442806 -0.04804862
0.06590394 0.1061847 0.051141873 0.07228966 0.13548502 -0.047059976 -0.099280655 0.0904461
-0.10582371 0.033285927 -0.11214162 -0.08539152 0.014757707 0.077023454 0.13276297 -0.058918443
0.12513894 -0.08382367 -0.09984629 0.050358698 -0.14454827 0.02726543 0.07911571 0.006751626
-0.097034596 -0.047092475 0.131842 0.04185969 0.10576915 0.009442841 0.10018927 -0.019017287
0.004202782 -0.013536369 0.019753369 -0.09078322 0.11927024 0.055770107 -0.022859026 0.06689756
0.035786707 -0.07902347 0.06332075 -0.06322321 0.015582859 0.050123725 -0.054816615 -0.06487447

gru.bias_ih_l1 f4 [192]
00000000: 5dcc 563d 1d7f 19be 3c5b 923b ecdb 47bd
00000010: 01dd d0bc 6683 a33d 2da2 f8bd aadb 193c
00000020: 08e8 65bc 8e2a 8ebd 520e 94bc 0997 f7bd
00000030: 8107 56bd 6440 363d 0ece 97bd a7ca 3a3d
00000040: 0ed0 6b3c a440 81bc 98ae 14be 7c6f 3a3c
00000050: 4941 8bbd 8565 7b3d 21d0 e9bd 71e2 4a3d
00000060: a912 13be dfcd ddbc cbf6 d9bd deb6 ccbd
00000070: 0d83 2fbe 5b2a f2bd 872a ab3d 182e 73bd
00000080: f9d2 17be c6a1 75bc c753 fe3d 01a4 97bd
00000090: cfc1 27be d0e6 993d e04d 5ebd d87d f7bc
000000a0: f601 0dbe 3abd 963d 40fa 3fbd 3903 e6bd
000000b0: 90f4 bf3c 1cd0 823d ea06 07be b98f c1bd
000000c0: 520e 05be 2e86 de3c a5fe 2e3d 82d9 4bbc
000000d0: 2166 b53d 2817 94bd 6b3a 9e3d df14 89bd
000000e0: b454 55bc 6291 03be 4c60 93bd b627 aebd
000000f0: f03c 05be 3695 9cbd 243d e2bd 2a68 a33d
00000100: 619c 7abe e576 4abe aa71 b2bc 6fbc 713d
00000110: a5bf 36be 808a b7bd 8c38 0fbd 1389 7dbe
00000120: a9d7 f3bc 59d6 66be c1d6 b0bc 9b6d 54be
00000130: 891c 003e b83d 6fbe 6b04 453e 91bb dcbd
00000140: bebe 483e 299d febd f67c 7bbe c84b 773c
00000150: b133 58be ab80 06be 3f6f b5bc 3b91 cf3d
00000160: 3ce3 84bb 5e5c 6c3d e86e 513e 675b a6bd
00000170: 451f 583e 0f66 60bd 7dc5 343e 2dcf 1cbe
00000180: 5a72 3f3e 0b2f 96be 81c5 b03d 7f53 96be
00000190: 57e8 4dbe 7bf8 7e3d 5c2a a9be 7d66 f0bd
000001a0: 50c7 08be c2df 7dbe d3f7 68be e47a f1bd
000001b0: d2e7 acbb 89a9 cdbd 5f33 9dbd 12b5 963e
000001c0: 62ea 883e c7da 81bd 989e b8be 58d7 5bbe
000001d0: 8cb2 79be 1a8a 573e e44c 53be 4a3c cc3c
000001e0: fb42 21be 8ef1 0cbe 7f05 f6bc e246 5dbe
000001f0: 47fc 05be 256c 833d 92eb 18bd 4a28 37be
00000200: c32b 363d ef6e e83c 3f5b a83d 84cb 01be
00000210: 8fd6 863d a69d e4bd 4da2 93bd 0d08 99bd
00000220: 102e ad3d 42c6 223c 04c9 50bd 7e62 7abd
00000230: 9b33 d23c 60c1 9dbd 63ea 4fbd fa2f bebd
00000240: 276b 2dbc bf8a 803a 6d3b 4abb 6c30 f6bb
00000250: ac3d 5ebd 8dcd 83bd 7045 113c 0360 2dbd
00000260: 8c55 6b3d 06c5 0f3d f50e 813d 9a8f 003c
00000270: 19ed b2bc 7ea6 c6bd ca22 e43c c304 a7bd
00000280: d03a 2abd a43b 8b3d a682 cd3d c2e3 71bd
00000290: ecf0 a23d 9daf 0ebc 6ec7 c33d 017b 363d
000002a0: 83ad 323b 3b4b be3c a71e a8bd ada7 883d
000002b0: da86 743d 256d 99bd 0670 d53d 4d95 3a3d
000002c0: 5b55 b53d 8aaa d8bd 3398 bfbd 8d92 72bc
000002d0: fe1c 8a3d 00d5 22bd 3643 7bbd 23d1 87bd
000002e0: 3b3b 623d fdbd 0b3d 841a 433d 3953 13bd
000002f0: 5b59 72bc a9b8 bfbd 877e 94bd 0504 fdbc
0.05244099 -0.14989896 0.0044664424 -0.04879372 -0.025496008 0.07984047 -0.121403076 0.009390751
-0.014032371 -0.069417104 -0.018073235 -0.120893545 -0.05225325 0.044495 -0.07412349 0.04560342
0.014392866 -0.015777893 -0.14519727 0.011379119 -0.067995615 0.061376113 -0.114166506 0.049532358
-0.14362587 -0.027075706 -0.10642775 -0.09995817 -0.17139836 -0.11824485 0.08357721 -0.05937013
-0.14826573 -0.014992183 0.12418323 -0.07404328 -0.16382526 0.07514727 -0.054273486 -0.030211374
-0.1377028 0.07360311 -0.046869516 -0.112310834 0.023432046 0.0638735 -0.13186231 -0.09451241
-0.12993744 0.027163591 0.042723317 -0.012441995 0.0885737 -0.07230979 0.07725986 -0.06693434
-0.013020683 -0.12848428 -0.071961015 -0.08503668 -0.13011527 -0.07645647 -0.11046818 0.07978852
-0.24473716 -0.19771917 -0.021782715 0.059017595 -0.17846544 -0.08961964 -0.034966037 -0.24759321
-0.02976592 -0.22542705 -0.021586778 -0.20744936 0.12510885 -0.23363388 0.19239967 -0.10777963
0.19604012 -0.1243232 -0.24559388 0.015093751 -0.21113469 -0.1313502 -0.022147773 0.101351224
-0.0040554088 0.057705276 0.20452464 -0.08122902 0.21105678 -0.05478483 0.17653461 -0.15313406
0.18695965 -0.29332766 0.08631421 -0.29360577 -0.20108162 0.06224869 -0.3304013 -0.11738298
-0.13357282 -0.24792388 -0.22750787 -0.11791018 -0.0052766586 -0.10042102 -0.07675814 0.2943502
0.2674132 -0.063405566 -0.36058497 -0.21468866 -0.24384516 0.21048775 -0.206348 0.024931092
-0.15748207 -0.13764021 -0.030031918 -0.21609071 -0.13084517 0.06417111 -0.037334032 -0.17886463
0.04447533 0.02837321 0.08220529 -0.12675291 0.065838926 -0.111628816 -0.07208691 -0.07472239
0.08456051 0.009934964 -0.050972953 -0.061129086 0.025659373 -0.07702899 -0.050760638 -0.092864946
-0.010584629 0.0009806975 -0.0030858174 -0.0075130966 -0.054258034 -0.0643569 0.008866653 -0.042327892
0.05745463 0.035100006 0.06301681 0.007846737 -0.021841573 -0.096997246 0.02784862 -0.08155205
-0.041559994 0.06798485 0.10034685 -0.059055097 0.079561085 -0.008708862 0.095595226 0.0445509
0.0027264066 0.023229232 -0.082089715 0.066726066 0.059698917 -0.07491521 0.104217574 0.04555254
0.08854171 -0.10579403 -0.093552016 -0.014805448 0.06743811 -0.039753914 -0.061343394 -0.066316865
0.055232268 0.034116734 0.04763271 -0.03596804 -0.014791812 -0.09361393 -0.07250696 -0.030885706

gru.bias_hh_l1 f4 [192]
00000000: 4179 04bb af76 043d 94e1 13bd ded8 06bd
00000010: 2c18 bbbd 88e0 64bd be8a 61bd fc0d ecbc
00000020: 2274 5a3d 37c2 06bd 97d6 83bd fc52 21bd
00000030: f41f 9fbd 9aaf 203b a2e6 e23c a936 eabd
00000040: b147 723d 7cfd 943d 83ef bcbd 1327 6f3c
00000050: e36e 7b3d fd69 f5bd 064f 98bc 6007 093d
00000060: 1d10 033c 3c05 b93d 323a 553d 85cd 1f3d
00000070: 5d12 3ebe c630 3b3d 9aac babc 5942 d03d
00000080: 3d8b 40be 6e88 0dbe ab99 af3d b22a 81bd
00000090: b26f cebd db32 f5bd cfdc eebd c60d b53d
000000a0: 8525 e9bd 9b10 e4bd c450 06be 8a84 8e3d
000000b0: f6e1 093d dd96 b2bb 2851 293d 887c ecbd
000000c0: 3be2 a8bd 10f2 18bc fed4 803b 92de e6b9
000000d0: 5f7d 6bbd 170f c9bb f11a 48bc 08de b9bd
000000e0: a93d 803d 2ecf 153d 8bd8 253d 8eca 5d3d
000000f0: f697 37bb b2f7 8e3d bee3 a9bd 12e2 0e3d
00000100: 4f38 18be ab16 84be 4a30 f4bd 783e 23be
00000110: b92c a4bd 8709 d5bd cbc5 1cbe 5214 b0bd
00000120: 9fd3 3ebe 597c 83be e2ee dfbd e5b2 65be
00000130: 553d 4cbd a827 85be c776 8e3d 3a25 02be
00000140: 2e1b 433e f75b 13be 3b08 28be 65bd 42be
00000150: b229 3fbe 62ec 7bbe b33f 0ebe 1626 14bd
00000160: c59f 193d cb6d 1cbe d804 963e 383d f2bd
00000170: 6764 ba3e 9273 09be 8c1e 823e f853 0cbe
00000180: 353a 3a3e 6f97 85be a671 113e 7456 02be
00000190: cc02 51be dde1 cb3d 877d 0cbe f0a6 49be
000001a0: 8de5 93bd 24e1 91be a4bd 6ebe 4837 33bd
000001b0: bb0b 223e 720b 8abe 5fe6 1cbd 2d3c bd3d
000001c0: aae8 4f3e 3873 54be 6d58 a0be 3b54 48bc
000001d0: 6f8c d7bd 9868 d83d 651b 83be aec4 773a
000001e0: 6e4e 9abd b06d 81bd 8f4f ba3d 19b2 2dbe
000001f0: 7efc 93be e5e7 6d3e 8112 b7bd 0d35 e5bd
00000200: cfd9 623d 58b9 a3bc b2e6 3dbc ee19 be3d
00000210: fb4f b3bc 9872 43bb 6d70 ce3b fe96 3a3c
00000220: 5c96 efbd 8fbb ad3d 9859 e03d 60c4 8f3d
00000230: 76ec af3d f77c 083e e431 cf3d ca5c 1f3d
00000240: e39e b7bd a711 833d c75d 7bbd 25b0 1d3a
00000250: 3a70 05bc 0e64 3cbd eb4b 43ba 8a26 98bd
00000260: bfb8 a63c 5ec8 c9bd 92e1 c03d 0853 bc3d
00000270: d619 b33d b2a3 e03d 415d b0bd 2558 a8ba
00000280: c39a e8bb 45a9 b13d d9c4 0cbe d5bd 3abc
00000290: 0ea6 863c fb31 773d 60e1 d8bd 19b1 edbd
000002a0: 4948 973d 4d11 d53c c954 5bbd ecf3 bcbd
000002b0: e606 873d ff59 c33d 9c88 113d 1115 ecbd
000002c0: 3d95 d1bd 1d45 6bbd 129e 5f3b c9ae b3bd
000002d0: 1adf b4bd fb4e 093d 0c5d e63d 39dd f83c
000002e0: bcc8 ef3c df26 68bd 8a01 0dbd 8ef9 ddbd
000002f0: 85a3 673c 5c11 d3bd db83 4ebc e169 03be
-0.0020213875 0.032339748 -0.0361038 -0.032921664 -0.0913547 -0.055878192 -0.055063955 -0.028815262
0.05333341 -0.03290006 -0.06437414 -0.03938578 -0.077697664 0.002451873 0.027697865 -0.11436207
0.0591504 0.07274911 -0.09225371 0.014596718 0.061385047 -0.11983106 -0.018592369 0.0334543
0.007999447 0.090342015 0.052057452 0.039014358 -0.18561693 0.04570081 -0.022787381 0.10168905
-0.18803115 -0.13821575 0.08574232 -0.063069716 -0.10079898 -0.119725905 -0.1166321 0.08840518
-0.113841094 -0.1113598 -0.13116747 0.069588736 0.03366276 -0.005450113 0.041337162 -0.1154719
-0.08246275 -0.009335056 0.0039316406 -0.00044034846 -0.05749261 -0.006135832 -0.012213455 -0.09075552
0.06261761 0.036574535 0.040489715 0.05414825 -0.002801416 0.06980838 -0.082953915 0.034883566
-0.1486523 -0.25798544 -0.11923273 -0.15941799 -0.08016343 -0.10402208 -0.15309827 -0.08597626
-0.18635415 -0.25680807 -0.10934235 -0.22431524 -0.04986318 -0.26006818 0.06956249 -0.12709513
0.19053337 -0.1439055 -0.1640939 -0.19017561 -0.18668249 -0.24601892 -0.13891487 -0.036169134
0.037505884 -0.15276258 0.2930057 -0.11828083 0.36404726 -0.13422993 0.2541393 -0.13703907
0.18186267 -0.26092097 0.1420351 -0.12728292 -0.20411223 0.099551894 -0.1371976 -0.19692588
-0.07221518 -0.2849208 -0.2331453 -0.043753892 0.15824787 -0.26961857 -0.038305636 0.09239993
0.20303598 -0.20747077 -0.31317464 -0.012227113 -0.105248325 0.10566825 -0.25606838 0.000945161
-0.075344905 -0.06319749 0.09097206 -0.1696247 -0.28903574 0.23232992 -0.08939076 -0.11191759
0.0553835 -0.01998584 -0.011590647 0.092822894 -0.021888724 -0.0029822942 0.0063000233 0.011388538
-0.11698601 0.084830396 0.10954589 0.070198774 0.08590023 0.1332892 0.10116938 0.03890685
-0.08965852 0.06399851 -0.06136873 0.0006015322 -0.008144433 -0.045993857 -0.00074499723 -0.07429226
0.020351766 -0.0985267 0.09418024 0.091955245 0.08745162 0.109687224 -0.08611537 -0.0012843652
-0.007098527 0.08674864 -0.13746966 -0.011397799 0.016436603 0.0603504 -0.10589862 -0.11606044
0.07386834 0.026009226 -0.053547654 -0.09226212 0.06593113 0.0953865 0.03553067 -0.115274556
-0.10233543 -0.05743896 0.0034121317 -0.08773572 -0.08831616 0.033522587 0.11248216 0.030378925
0.029270522 -0.056677695 -0.034425296 -0.108386144 0.014138107 -0.103060454 -0.012604679 -0.12833358
