lstm_model.pth (torch, 208455 bytes, 10 tensors)

lstm.weight_ih_l0 f4 [256, 4]
0.24967682 -0.14356996 0.49801216 -0.12412563 0.14079133 -0.31712413 0.28434145 0.23013107
0.19955896 0.37858897 -0.37653685 0.030686755 0.33425942 0.63284975 -0.44637018 -0.11633566
0.1252454 0.11028234 0.11404076 0.1692399 -0.16303863 0.0569953 -0.36327395 -0.09501814
0.15028232 0.3745029 0.7784325 0.11363754 -0.00945277 0.47749144 -0.8800381 -0.31051058
-0.036071833 0.03878541 -0.11070505 -0.04370805 -0.0620528 0.020660765 -0.4123354 -0.007981516
0.03624461 0.6092068 0.7701782 -0.04557497 -0.024776572 0.5594128 0.40452537 -0.022502722
0.096141316 0.25271112 -0.68406284 -0.43237236 0.13254459 0.060672536 -0.05657943 -0.116063684
-0.07746935 0.21244802 -0.43746763 -0.105175994 -0.04193694 0.08843644 -0.49836677 -0.18241498
-0.12060912 0.36111093 -0.7790209 -0.39291295 0.17054832 0.38473508 0.2745608 -0.44410893
0.1494758 0.4890781 0.6402915 0.027285047 0.21862888 0.27408367 -0.5213719 -0.15555187
0.08465574 0.106267296 0.013585824 -0.11777192 0.20721337 -0.22936872 0.18662092 -0.14546484
0.0061275447 0.46796787 0.51842743 -0.25002617 0.20501928 0.27486283 -0.23441498 -0.16372974
0.089747876 0.19849174 -0.4333964 -0.13488668 0.24051726 0.5005153 0.04916295 0.18993936
-0.07313056 0.50586313 -0.92917985 -0.07625839 -0.05573962 0.3231452 -0.93557966 -0.15714173
-0.11346157 0.20642504 -0.9681012 -0.3806134 0.048277054 0.039326794 -0.15644714 -0.1701824
-0.011203266 0.15480518 -0.35962212 -0.17780332 0.03796392 0.38112926 0.1829976 -0.06483935
0.2005863 0.37098467 0.27403507 -0.30107838 -0.021882657 0.32614622 -0.9037367 -0.2221839
0.2914698 -0.10284072 0.2237828 0.2001892 -0.038040202 0.2063538 -0.9259799 -0.3387872
0.048642434 0.27822018 -0.66630954 -0.5081211 -0.34001482 0.14681678 -0.23549598 -0.27327466
-0.05737974 0.22994639 -0.039748818 -0.06988061 0.30325285 0.44149706 0.09402567 -0.26484534
-0.097902976 0.35361087 -0.82537377 -0.416889 -0.07578835 0.38053057 -0.37650883 -0.4186804
-0.5693265 0.08132827 -0.44547838 -0.18185854 -0.024013085 0.7009059 -0.8177349 -0.15706713
-0.22653848 0.0950847 -0.07537735 -0.008947734 -0.047864866 0.20925903 -0.7102997 -0.12147055
-0.3223678 0.04918485 -0.12151231 0.09826057 0.050188016 0.008335857 -0.8332962 -0.23205635
0.064560704 0.1096916 -0.42119035 -0.15331264 0.05670866 0.3641549 -0.9132894 -0.40558848
-0.012406447 0.33921537 -0.84972197 -0.175695 -0.28637365 -0.15320049 0.26771155 0.2234453
0.1526498 0.29019615 -0.33595487 -0.26665944 0.2368508 0.21542606 0.09070257 -0.36040667
0.21159628 0.32082582 -0.23616253 -0.101527154 0.15382427 0.19622369 0.032101642 0.02044745
0.012170867 0.053573504 -0.47226653 -0.13900813 -0.065283746 0.12752952 -0.9976846 -0.24713846
0.24442948 0.29013684 -0.115746535 0.090889014 0.061368648 -0.16706456 0.0053828787 -0.19595584
0.0608127 0.52724653 0.4613769 -0.2785181 -0.07306049 0.1366352 -0.66292804 -0.41199094
0.18003011 0.40640533 -0.42302808 -0.07605465 -0.02664362 0.065734014 -0.72164136 -0.13746293
00000000: 48ab 7f3e 0104 13be 73fb fe3e 9435 febd
00000010: 9a2b 103e 185e a2be 3495 913e 7ba7 6b3e
00000020: 2f59 4c3e 6ad6 c13e 70c9 c0be ca62 fb3c
00000030: 0d24 ab3e 7102 223f a28a e4be 6441 eebd
00000040: 5540 003e b5db e13d 348e e93d 394d 2d3e
00000050: 99f3 26be e773 693d 0bff b9be df98 c2bd
00000060: 9ce3 193e d8be bf3e 5a47 473f ccba e83d
00000070: cbdf 1abc c279 f43e 2d4a 61bf 3efb 9ebe
00000080: 0fc0 13bd 73dd 1e3d 54b9 e2bd 3607 33bd
00000090: 142b 7ebd c440 a93c a01d d3be e8c4 02bc
000000a0: 3a75 143d faf4 1b3f 662a 453f d2ac 3abd
000000b0: 3df8 cabc ad35 0f3f f31d cf3e a157 b8bc
000000c0: bde5 c43d 5a63 813e be1e 2fbf e95f ddbe
000000d0: c5b9 073e c483 783d d5bf 67bd ccb2 edbd
000000e0: 40a8 9ebd f98b 593e c2fb dfbe 8366 d7bd
000000f0: 12c6 2bbd 2a1e b53d ee29 ffbe feca 3abe
00000100: ea01 f7bd 88e3 b83e ea6d 47bf e32b c9be
00000110: 38a4 2e3e fffb c43e 3c93 8c3e 3f62 e3be
00000120: 2f10 193e 7268 fa3e 25ea 233f e484 df3c
00000130: 40e0 5f3e b254 8c3e a178 05bf fd48 1fbe
00000140: fd5f ad3d aba2 d93d 1397 5e3c 6832 f1bd
00000150: be2f 543e a2df 6abe 8e19 3f3e bcf4 14be
00000160: 92c9 c83b 7c99 ef3e a9b7 043f 6e03 80be
00000170: 93f0 513e d2ba 8c3e 7b0a 70be c5a8 27be
00000180: bccd b73d 6b41 4b3e 22e6 ddbe bc1f 0abe
00000190: 284a 763e c521 003f 175f 493d 777f 423e
000001a0: 7ac5 95bd 3f80 013f bbde 6dbf 5c2d 9cbd
000001b0: 3a4f 64bd 4a73 a53e 2682 6fbf c3e9 20be
000001c0: 8a5e e8bd 1661 533e 7bd5 77bf c2df c2be
000001d0: 29be 453d 2215 213d ae33 20be 4c44 2ebe
000001e0: e78d 37bc 4085 1e3e 6420 b8be 1312 36be
000001f0: 0e80 1b3d 6023 c33e b963 3b3e 7eca 84bd
00000200: 7f66 4d3e b4f1 bd3e 534e 8c3e f226 9abe
00000210: 4243 b3bc a3fc a63e 4a5b 67bf 2d84 63be
00000220: 883b 953e 289e d2bd 5127 653e 66fe 4c3e
00000230: 0bd0 1bbd 694e 533e 050d 6dbf 8475 adbe
00000240: 4a3d 473d e072 8e3e 4393 2abf 3914 02bf
00000250: 6c16 aebe 2357 163e dc25 71be a8ea 8bbe
00000260: 0507 6bbd 1177 6b3e a8cf 22bd 911d 8fbd
00000270: f543 9b3e e70b e23e 8890 c03d cf99 87be
00000280: 5b81 c8bd 7c0c b53e b24b 53bf 7a72 d5be
00000290: ec36 9bbd e7d4 c23e c4c5 c0be 475d d6be
000002a0: 62bf 11bf 708f a63d be15 e4be 2039 3abe
000002b0: 17b7 c4bc 926e 333f 1357 51bf 35d6 20be
000002c0: b4f9 67be c4bb c23d 715f 9abd 8499 12bc
000002d0: f30d 44bd 0048 563e 33d6 35bf 8dc5 f8bd
000002e0: 640d a5be 0e76 493d 72db f8bd d63c c93d
000002f0: f391 4d3d 1e93 083c e652 55bf 2ea0 6dbe
00000300: 6738 843d fda5 e03d 43a6 d7be fdfd 1cbe
00000310: 5747 683d 8372 ba3e 56cd 69bf 4ba9 cfbe
00000320: 6944 4bbc a3ad ad3e 6187 59bf 64e9 33be
00000330: 919f 92be 97e0 1cbe 7d11 893e d8ce 643e
00000340: 3b50 1c3e 9794 943e 4702 acbe 9687 88be
00000350: 0489 723e a698 5c3e 45c2 b93d 3987 b8be
00000360: b2ac 583e 4843 a43e 97d4 71be 78ed cfbd
00000370: 1c84 1d3e ddee 483e 037d 033d 6981 a73c
00000380: 5168 473c e46f 5b3d ebcc f1be 2658 0ebe
00000390: 7cb3 85bd 1997 023e 4268 7fbf dd11 7dbe
000003a0: b94b 7a3e d18c 943e 850c edbd 0524 ba3d
000003b0: b15d 7b3d f912 2bbe dc62 b03b a6a8 48be
000003c0: bd16 793d a1f9 063f 9839 ec3e ed99 8ebe
000003d0: bda0 95bd 19ea 0b3e a7b5 29bf 7af0 d2be
000003e0: d059 383e 5c14 d03e 2397 d8be 8ac2 9bbd
000003f0: b943 dabc 8e9f 863d 7dbd 38bf 15c3 0cbe

lstm.weight_hh_l0 f4 [256, 64]
0.04003074 -0.2015761 0.17907543 -0.040811125 -0.5271204 0.33867142 -0.19096896 -0.0056584785
0.056086585 0.077448525 0.017996972 -0.08960222 -0.05502315 -0.06754915 -0.15593131 0.060702793
0.0061079976 0.10244007 -0.13476351 -0.29517385 -0.43094626 0.09280341 0.106450886 -0.23125398
-0.1772456 -0.48984808 0.027038015 0.031033406 0.2677203 0.05900635 -0.012320736 -0.08401452
-0.19327925 -0.09958277 -0.13237728 0.2020905 0.107623406 -0.02915132 0.0927413 0.30546936
-0.10281755 0.10026648 -0.11924941 0.16015688 0.13866879 0.21062824 0.066787444 0.1339627
0.00090283726 0.023691848 -0.09203066 0.10796203 0.09633785 0.07592926 -0.16568966 0.21466106
-0.028718084 0.18111321 0.5512535 -0.047220457 -0.103267334 -0.16537154 -0.2560493 0.083824456
0.043017656 0.19068278 -0.17386165 -0.14630876 -0.113426216 -0.013623332 0.10117614 0.014526348
-0.040537264 -0.01662397 0.005909108 -0.062149163 -0.03142658 -0.07730508 -0.01634345 -0.014851007
0.012206211 0.008687781 0.09215018 0.019564088 -0.24641238 0.021025386 0.066717476 -0.18604162
-0.09914983 -0.009301466 -0.10446716 0.0736885 0.006788548 -0.09868081 0.092520334 -0.17920175
0.1108353 -0.11663262 0.113707 0.17216335 0.019585982 -0.02415914 0.06761122 -0.15969051
0.13045597 -0.105433576 -0.10762543 0.035267048 -0.018346699 -0.05336192 0.053648036 -0.08110278
-0.07164251 0.031759992 -0.08574605 0.07933978 0.054055598 -0.023828993 0.18399934 -0.08563087
-0.15607935 -0.061031487 -0.013251311 0.05501572 0.017532587 -0.1408099 -0.051433373 -0.05232512
-0.05388449 -0.10958953 -0.082367316 0.22322486 -0.28609568 -0.18022615 0.037019055 0.38534576
-0.17387947 0.19030267 -0.25552312 -0.09570033 0.12058973 0.14800891 0.28443733 0.27952236
-0.104801305 0.015376443 -0.10290659 0.030198766 -0.17289405 0.06784795 0.022889601 0.12580633
0.15318267 -0.29872084 0.3384072 0.24229948 -0.08364888 0.056759186 0.020211004 0.11578122
-0.07290055 0.20248643 -0.18099411 -0.08802679 -0.0017537483 -0.08766346 -0.04555685 0.2420287
0.16931286 0.028928664 -0.107720725 -0.22478724 -0.15252692 -0.08464367 0.28590098 -0.06117544
-0.1979354 0.2283623 0.20105694 0.048402995 -0.06496303 0.36041823 0.010229738 0.08437307
0.10503217 -0.09204451 0.28280875 0.0021985015 -0.09353974 0.1827717 -0.18410888 -0.1238437
0.4085238 -0.28822896 0.07651007 0.28924772 -0.30487013 0.01962718 -0.25397265 0.31947982
-0.025571471 0.09076881 0.04462165 0.11197288 0.10364953 0.12991072 0.02947689 0.10946496
-0.23445007 0.024666142 -0.2241279 -0.16055799 -0.3023456 0.12124695 0.33248743 -0.08332859
0.2478496 -0.6555661 0.41215414 0.37890828 -0.21610427 0.13029455 0.045296863 -0.22731356
-0.09491749 0.38990924 -0.3184114 -0.29417473 -0.076874 -0.37546927 -0.004461681 0.004889669
0.23796585 -0.20513241 -0.39835298 -0.3466016 -0.056981 -0.0062017455 0.53969777 -0.16671528
-0.42251188 0.111019425 0.1181068 0.30176634 -0.15625829 0.26915506 -0.11235061 0.37176424
0.19613801 0.067397445 0.43859136 0.05078189 0.13385212 0.06869569 -0.13230035 -0.037975084
00000000: 46f7 233d f769 4ebe 8d5f 373e 9129 27bd
00000010: 5df1 06bf 5766 ad3e 5e8d 43be c26a b9bb
00000020: 0cbb 653d 559d 9e3d 636e 933c 5e81 b7bd
00000030: f45f 61bd 3557 8abd 75ac 1fbe 7ea3 783d
00000040: 9925 c83b 19cc d13d 72ff 09be 0721 97be
00000050: fda4 dcbe b70f be3d ec02 da3d d8cd 6cbe
00000060: df7f 35be 5ecd fabe d47e dd3c c539 fe3c
00000070: a312 893e a4b0 713d eadc 49bc ce0f acbd
00000080: ffea 45be 0df2 cbbd e98d 07be d0f0 4e3e
00000090: a969 dc3d c0ce eebc 27ef bd3d 7b66 9c3e
000000a0: 0292 d2bd 8358 cd3d 0939 f4bd 2a00 243e
000000b0: 31ff 0d3e eeae 573e dbc7 883d 852d 093e
000000c0: 62ac 6c3a 6815 c23c 927a bcbd 321b dd3d
000000d0: c74c c53d cd80 9b3d 8daa 29be 1cd0 5b3e
000000e0: 3042 ebbc be75 393e f31e 0d3f 3d6a 41bd
000000f0: d37d d3bd 2857 29be e518 83be 28ac ab3d
00000100: 4833 303d 5942 433e ca08 32be f7d1 15be
00000110: 014c e8bd 6534 5fbc 7035 cf3d ebff 6d3c
00000120: 670a 26bd fe2e 88bc 31a1 c13b 1f90 7ebd
00000130: 28b9 00bd 2052 9ebd b3e2 85bc a351 73bc
00000140: 8ffc 473c 3257 0e3c 3cb9 bc3d de44 a03c
00000150: 8753 7cbe 6e3d ac3c 2ca3 883d b281 3ebe
00000160: 110f cbbd 2d65 18bc e1f2 d5bd ffe9 963d
00000170: 7872 de3b 2a19 cabd 4d7b bd3d aa80 37be
00000180: 9efd e23d 15dd eebd 37df e83d 974b 303e
00000190: c872 a03c 64e9 c5bc c077 8a3d e985 23be
000001a0: 4096 053e 8fed d7bd b96a dcbd 2e74 103d
000001b0: d14b 96bc 0792 5abd 0bbe 5b3d 3719 a6bd
000001c0: 4fb9 92bd c416 023d a09b afbd e57c a23d
000001d0: 6769 5d3d 0535 c3bc 536a 3c3e 3d5f afbd
000001e0: 44d3 1fbe 27fc 79bd 071c 59bc 2a58 613d
000001f0: 80a0 8f3c 7830 10be cdab 52bd dd52 56bd
00000200: fcb5 5cbd 7a70 e0bd 32b0 a8bd 0f95 643e
00000210: 227b 92be 348d 38be 4ba1 173d 0a4c c53e
00000220: 760d 32be b4de 423e edd3 82be 89fe c3bd
00000230: c0f7 f63d a68f 173e c5a1 913e 8e1d 8f3e
00000240: 11a2 d6bd 7aed 7b3c b1c0 d2bd 6763 f73c
00000250: 230b 31be def3 8a3d f982 bb3c 60d3 003e
00000260: ebdb 1c3e f0f1 98be b543 ad3e 5b1d 783e
00000270: 1b50 abbd 527c 683d 8c91 a53c b41e ed3d
00000280: e24c 95bd 9a58 4f3e 8556 39be 6447 b4bd
00000290: 07de e5ba e688 b3bd d299 3abd 5fd6 773e
000002a0: 5a60 2d3e cefb ec3c af9c dcbd a02e 66be
000002b0: 0430 1cbe a959 adbd 9d61 923e 1993 7abd
000002c0: 94af 4abe cfd7 693e dfe1 4d3e 3842 463d
000002d0: 560b 85bd bd88 b83e a29a 273c cacb ac3d
000002e0: 1b1b d73d d581 bcbd 4fcc 903e bc14 103b
000002f0: c391 bfbd 8128 3b3e 0a87 3cbe c4a1 fdbd
00000300: 082a d13e bf92 93be 50b1 9c3d 4718 943e
00000310: f017 9cbe 2ec9 a03c b408 82be dc92 a33e
00000320: 437b d1bc ffe4 b93d 31c5 363d 0a52 e53d
00000330: 3446 d43d 5107 053e 8579 f13c 2a2f e03d
00000340: ae13 70be a610 ca3c c981 65be 5069 24be
00000350: 0bcd 9abe 5250 f83d cb3b aa3e 2ea8 aabd
00000360: 49cc 7d3e 2ed3 27bf de05 d33e 4400 c23e
00000370: 704a 5dbe ef6b 053e 3489 393d e3c4 68be
00000380: 1a64 c2bd 2fa2 c73e d206 a3be 129e 96be
00000390: 1e70 9dbd 823d c0be 4b33 92bb 8439 a03b
000003a0: 52ad 733e 3b0e 52be ecf4 cbbe c475 b1be
000003b0: e964 69bd 0338 cbbb a229 0a3f 69b7 2abe
000003c0: 7a53 d8be 275e e33d fae1 f13d 1e81 9a3e
000003d0: 2c02 20be b1ce 893e 1418 e6bd e257 be3e
000003e0: 67d8 483e ac07 8a3d 0c8f e03e ac00 503d
000003f0: 8810 093e 53b0 8c3d be79 07be c38b 1bbd

lstm.bias_ih_l0 f4 [256]
0.075066626 -0.021041831 0.0153431175 0.14615381 0.15441199 0.021579072 -0.071112655 0.13237922
-0.021603808 -0.19510728 0.043692216 -0.21719399 0.085663356 -0.09213453 0.056348983 -0.065163806
-0.14362368 0.05424855 0.04806221 0.027472747 -0.023411373 0.05652497 0.14068638 -0.11277024
-0.0063163224 0.08998566 0.0476647 -0.11138127 -0.1467814 -0.07061601 -0.10146353 -0.35021946
-0.074132405 -0.04887289 -0.025704205 -0.05428331 0.070126995 -0.08985292 -0.14509645 0.1586459
-0.059795763 -0.11954262 0.056356147 -0.0007772636 -0.07483952 -0.1583315 -0.009317314 -0.006764057
-0.01649304 -0.043507982 0.09522682 -0.110730775 -0.121779256 -0.04431975 0.12752678 0.019613959
-0.06317237 -0.12853834 0.11183369 -0.23126972 0.115562946 -0.0437833 0.14865793 -0.16227177
0.07227405 0.051319633 0.080330394 0.13983695 -0.040118083 -0.010971606 -0.028065339 -0.020894792
-0.120153755 0.02171052 -0.18239208 -0.18281852 0.05419996 -0.082721725 -0.077295765 0.10032057
-0.05172461 0.04640021 0.013425898 0.05217114 0.026926702 0.07884979 0.030227087 0.04392324
-0.037893966 0.04965978 0.16523778 0.13958915 0.08430686 -0.10982437 -0.09019852 -0.25492457
-0.05803563 0.0045805597 -0.00968321 0.15771762 -0.16373578 0.02238982 -0.21720098 0.0925999
0.13594083 -0.12469407 -0.026869224 -0.03546997 -0.19609314 0.034548238 0.0187571 -0.09699977
0.13514052 0.17593668 -0.03944247 -0.08331732 -0.041059103 -0.032272562 0.081486054 -0.19694506
-0.12641117 -0.11273591 -0.047353003 -0.058644537 -0.01049871 -0.067475244 0.051096763 -0.1429269
0.048667848 -0.09192831 -0.012020127 -0.08473372 -0.0044765915 -0.06568967 0.0031823479 0.074942596
0.05640696 0.0027535511 -0.015451539 -0.010136898 -0.08919293 0.036022186 0.002301817 -0.11035616
0.098612 0.084791526 -0.0890164 -0.06250243 0.08742148 0.0765877 -0.06861972 0.06205419
0.10609789 0.018009903 0.024869267 0.093959965 0.06471192 0.014434901 0.11475957 0.009547953
-0.06802456 0.11717273 0.06761726 -0.09567434 -0.04062844 -0.056599043 0.010973974 0.09533342
0.0091523165 0.029713739 -0.012402298 -0.012373534 0.021862905 0.005412009 0.05351212 -0.039041918
0.016991593 0.07419998 -0.015174471 -0.057372782 -0.007967846 -0.021632519 0.060500085 -0.035584334
0.0072734393 -0.0047385613 0.023417626 -0.0928649 -0.015698763 -0.07118814 0.09144698 0.038783524
0.033031818 -0.040211804 0.062800676 0.111033306 -0.04817287 -0.1599843 -0.07899668 -0.038121566
-0.15540639 -0.14839181 -0.08779641 -0.16825409 0.006841041 -0.03966276 -0.091158874 0.045471206
-0.0061862706 -0.101576336 -0.05128939 0.0005630442 -0.07240228 0.04198996 -0.050574217 -0.008929564
-0.12979144 0.09439548 -0.0011180504 -0.08534592 -0.03163804 -0.08066739 -0.022337327 -0.18799862
-0.042469535 0.11531742 -0.0034173713 -0.074507736 -0.11120743 0.016756006 -0.14536978 0.23862736
-0.05031681 0.016101474 -0.08126974 -0.015380275 0.009280199 -0.053282127 -0.20611794 -0.18216833
0.04918441 0.075271256 0.033176698 -0.15613717 0.0001955338 0.0898105 -0.07760894 -0.13068
0.009444116 -0.00081424613 0.011277153 -0.06721115 -0.009059311 -0.11500748 0.028433505 -0.1285636
00000000: 88bc 993d eb5f acbc b361 7b3c 58a9 153e
00000010: 2d1e 1e3e 98c6 b03c 83a3 91bd 6b8e 073e
00000020: 78fa b0bc 34ca 47be 9cf6 323d 1a68 5ebe
00000030: 4570 af3d 07b1 bcbd 31ce 663d 9a74 85bd
00000040: 1612 13be ba33 5e3d e1dc 443d 870e e13c
00000050: 35c9 bfbc ba86 673d 1710 103e 15f4 e6bd
00000060: 27f9 cebb 674a b83d 0f3c 433d dd1b e4bd
00000070: dd4d 16be 209f 90bd 1ccc cfbd f74f b3be
00000080: bbd2 97bd f12e 48bd a091 d2bc 2d58 5ebd
00000090: be9e 8f3d cf04 b8bd 2a94 14be 1274 223e
000000a0: 67ec 74bd c3d2 f4bd b4d5 663d 47c1 4bba
000000b0: 7645 99bd a721 22be a6a7 18bc 06a5 ddbb
000000c0: 691c 87bc 6d35 32bd 4706 c33d d1c6 e2bd
000000d0: 6767 f9bd a088 35bd 6196 023e 74ad a03c
000000e0: 8460 81bd 8e9f 03be 1009 e53d f8d1 6cbe
000000f0: 44ac ec3d 1e56 33bd c939 183e 922a 26be
00000100: 6b04 943d 8934 523d 4384 a43d 6b31 0f3e
00000110: dc52 24bd 40c2 33bc 48e9 e5bc 8e2b abbc
00000120: 2c13 f6bd 43da b13c fdc4 3abe c734 3bbe
00000130: c700 5e3d 026a a9bd 3e4d 9ebd df74 cd3d
00000140: 2fdd 53bd 260e 3e3d 4cf8 5b3c 68b1 553d
00000150: 6395 dc3c 007c a13d cc9e f73c dbe8 333d
00000160: b436 1bbd 0e68 4b3d 1834 293e 75f0 0e3e
00000170: 13a9 ac3d 99eb e0bd 00ba b8bd 7985 82be
00000180: c5b6 6dbd 8518 963b 54a6 1ebc ba80 213e
00000190: 5aaa 27be db6a b73c ef69 5ebe 04a5 bd3d
000001a0: 1334 0b3e 9b5f ffbd d91c dcbc f648 11bd
000001b0: a4cc 48be 7482 0d3d 7da8 993c d1a7 c6bd
000001c0: 4762 0a3e bf28 343e 6d8e 21bd 45a2 aabd
000001d0: 972d 28bd 3c30 04bd 29e2 a63d f7ab 49be
000001e0: ee71 01be 16e2 e6bd 39f5 41bd 4135 70bd
000001f0: c802 2cbc 7630 8abd d74a 513d 6e5b 12be
00000200: f057 473d e944 bcbd 11f0 44bc df88 adbd
00000210: 5fb0 92bb 4e88 86bd f08e 503b 817b 993d
00000220: fc0a 673d ec74 343b 7428 7dbc 3b15 26bc
00000230: c8aa b6bd 008c 133d 15da 163b 6902 e2bd
00000240: 17f5 c93d 2ea7 ad3d 3b4e b6bd 4601 80bd
00000250: 080a b33d 03da 9c3d 7f88 8cbd 892c 7e3d
00000260: da49 d93d 8189 933c a2ba cb3c 156e c03d
00000270: af87 843d 5d80 6c3c 1107 eb3d 046f 1c3c
00000280: 7650 8bbd 42f8 ef3d eb7a 8a3d e9f0 c3bd
00000290: 026a 26bd 66d4 67bd 2fcc 333c 2b3e c33d
000002a0: 99f3 153c 3a6a f33c 0233 4bbc 5dba 4abc
000002b0: d619 b33c 3957 b13b 862f 5b3d 6bea 1fbd
000002c0: f431 8b3c 29f6 973d 589e 78bc b9ff 6abd
000002d0: 918b 02bc ae36 b1bc f0ce 773d e1c0 11bd
000002e0: 0856 ee3b ef45 9bbb 52d6 bf3c f42f bebd
000002f0: b19a 80bc 16cb 91bd 8e48 bb3d 79db 1e3d
00000300: 5f4c 073d 22b5 24bd a49d 803d 6e65 e33d
00000310: ea50 45bd edd2 23be 03c9 a1bd 5c25 1cbd
00000320: da22 1fbe 06f4 17be 9bce b3bd cd4a 2cbe
00000330: d02a e03b 6b75 22bd 81b1 babd 0440 3a3d
00000340: 33b6 cabb 4107 d0bd d314 52bd 4299 133a
00000350: a647 94bd aafd 2b3d e926 4fbd 4e4d 12bc
00000360: 0ce8 04be 6b52 c13d 8c8b 92ba d7c9 aebd
00000370: e496 01bd f234 a5bd c5fc b6bc b682 40be
00000380: 89f4 2dbd 8a2b ec3d faf5 5fbb 8397 98bd
00000390: b9c0 e3bd e443 893c d1db 14be bb5a 743e
000003a0: 0019 4ebd 3de7 833c c070 a6bd 8dfd 7bbc
000003b0: fa0b 183c 5c3e 5abd 9510 53be 568a 3abe
000003c0: 9875 493d d127 9a3d 4ae4 073d 6ce2 1fbe
000003d0: 3408 4d39 91ee b73d 70f1 9ebd fad0 05be
000003e0: 7ebb 1a3c 2273 55ba cfc3 383c 00a6 89bd
000003f0: 816d 14bc 0b89 ebbd 62ed e83c 2da6 03be

lstm.bias_hh_l0 f4 [256]
0.1407034 -0.03310878 0.0327487 0.038022153 0.027150862 -0.03171458 -0.10324572 0.07596489
-0.2548271 -0.22720595 -0.09262233 -0.10074229 -0.11199257 -0.06046285 0.05699548 0.0560891
0.045480385 0.07055489 0.13675007 -0.07738434 -0.02534691 0.012822404 -0.014069249 0.0025933017
-0.0006101837 0.05613355 0.12014844 -0.050158277 -0.061733544 -0.14195395 -0.035885885 -0.15886329
-0.12537906 -0.062358044 0.12039865 -0.08653098 -0.020165473 0.0037308356 -0.20533308 0.23754728
-0.13704136 0.070164286 -0.02888883 -0.12030753 0.008659361 -0.1585463 -0.09732456 -0.11620375
0.008894926 0.03551901 -0.045368217 -0.08586299 -0.16650006 0.1569139 0.09848089 -0.18302573
-0.15153188 -0.01073262 -0.10587489 -0.17639093 0.04528691 0.03167629 0.103866264 -0.042920988
0.13684951 0.17209856 -0.03317891 0.18753433 -0.11201309 -0.0824152 -0.082702495 0.021707144
-0.13944663 -0.05611312 0.047603287 -0.17511086 0.1975509 -0.14421204 0.05115662 0.0699622
-0.11859342 -0.039719287 0.20688291 0.1795431 -0.110923134 0.18505058 -0.04308857 0.016688984
0.07145635 -0.02066975 0.08493109 0.109986715 -0.018444605 -0.09843456 -0.007991614 -0.040478453
0.14822982 0.018992813 0.019943006 0.1250256 0.01925344 0.08919717 -0.090708 0.010520982
-0.060428318 -0.013106004 0.13442387 0.085921876 -0.08368388 -0.04485451 0.09242695 0.09989404
-0.0462169 -0.040158026 0.14500861 -0.16678515 0.12980302 -0.05311886 -0.01731759 -0.1277022
-0.0049833995 -0.12541947 -0.007417954 0.03975192 0.08483324 0.067405455 0.01562984 -0.14152381
0.0034413328 0.033657998 -0.08182195 0.010632241 0.076622985 0.05886504 -0.06636954 -0.025183769
-0.057034332 -0.018543327 -0.044074204 0.06946533 0.10400411 -0.013215411 -0.043729417 0.055876132
-0.12034155 -0.10653363 -0.02000063 0.058389213 -0.059545882 -0.055396732 0.026998224 -0.039607093
-0.024330178 0.026712025 0.09006768 -0.025077738 -0.10936686 -0.05015759 -0.06593129 -0.054590903
-0.061533198 -0.010603692 -0.10231235 0.07949364 0.0073620006 -0.092464514 -0.01678998 -0.11469636
0.06795616 -0.03823546 -0.0806156 -0.06707887 0.01096996 -0.00905552 -0.025100602 0.0018177215
-0.10315407 -0.037892662 0.005111194 0.072303146 -0.030213349 0.013867643 0.022122638 0.016959626
-0.005621375 -0.024520913 -0.06218722 0.05160056 0.08381235 0.07350792 0.017386144 -0.073596366
0.21497859 -0.12198054 0.027179433 0.07257246 0.019273113 -0.17458019 -0.09947804 0.13053864
-0.14088415 -0.20373566 -0.12120452 -0.10964127 -0.03674528 -0.11475726 0.029999446 0.058078535
0.08589137 0.03503769 -0.07379674 0.06787829 -0.103317626 0.0007288626 0.027244316 0.043977685
-0.10432652 0.17597005 -0.11666256 0.07694015 -0.121125706 -0.09150179 -0.07444825 -0.3321951
-0.15291682 0.09657234 0.0821855 -0.029274765 -0.17416549 -0.0708196 -0.17945081 0.085757844
-0.036724694 0.0277262 -0.12369476 -0.052946135 -0.06132329 -0.0057703163 -0.015708912 -0.018546233
-0.07201485 -0.09551902 -0.015921673 -0.23817283 -0.14011669 0.036385585 0.044128023 -0.041735344
-0.2095836 -0.1114825 0.13419709 -0.17897786 -0.065024644 -0.074503385 0.05441944 -0.119145006
00000000: 8d14 103e 129d 07bd 8023 063d 1ebd 1b3d
00000010: 7c6b de3c 26e7 01bd 7e72 d3bd 7b93 9b3d
00000020: b378 82be ada8 68be c7b0 bdbd f951 cebd
00000030: 5c5c e5bd e5a7 77bd 1874 693d afbd 653d
00000040: a449 3a3d 157f 903d 3608 0c3e ae7b 9ebd
00000050: 53a4 cfbc 0f15 523c b582 66bc 62f4 293b
00000060: bcf4 1fba 4bec 653d 6310 f63d c472 4dbd
00000070: 50dc 7cbd 605c 11be 14fd 12bd 0fad 22be
00000080: 5e63 00be 266b 7fbd 9193 f63d 2837 b1bd
00000090: 1032 a5bc 0981 743b d642 52be 983f 733e
000000a0: 9254 0cbe 4bb2 8f3d 45a8 ecbc cb63 f6bd
000000b0: fedf 0d3c f659 22be 1952 c7bd 3bfc edbd
000000c0: 06bc 113c 627c 113d 06d4 39bd efd8 afbd
000000d0: fe7e 2abe 0aae 203e 59b0 c93d 196b 3bbe
000000e0: 2c2b 1bbe dfd7 2fbc efd4 d8bd d39f 34be
000000f0: c47e 393d ffbe 013d d6b7 d43d ebcd 2fbd
00000100: 4722 0c3e 9b3a 303e 9ce6 07bd 0009 403e
00000110: 1e67 e5bd 4dc9 a8bd ed5f a9bd 2ed3 b13c
00000120: 19cb 0ebe dfd6 65bd aafb 423d 4350 33be
00000130: c84a 4a3e 52ac 13be 9b89 513d 5848 8f3d
00000140: 1be1 f2bd b1b0 22bd 1dd9 533e 25da 373e
00000150: ab2b e3bd e67d 3d3e a47d 30bd 56b7 883c
00000160: b557 923d 9c53 a9bc 5af0 ad3d b740 e13d
00000170: 2419 97bc 0f98 c9bd 42ef 02bc bccc 25bd
00000180: 8fc9 173e d196 9b3c 845f a33c b606 003e
00000190: 64b9 9d3c 02ad b63d 1ec5 b9bd 3260 2c3c
000001a0: af83 77bd 91ba 56bc 69a6 093e cff7 af3d
000001b0: 7462 abbd 5db9 37bd 574a bd3d 3f95 cc3d
000001c0: ef4d 3dbd be7c 24bd 237d 143e bac9 2abe
000001d0: 15eb 043e 2993 59bd 9edd 8dbc 5ec4 02be
000001e0: c94b a3bb f66d 00be 4f12 f3bb e9d2 223d
000001f0: 0dbd ad3d df0b 8a3d 260a 803c 9eeb 10be
00000200: fc87 613b f8dc 093d 4492 a7bd da32 2e3c
00000210: 83ec 9c3d 781c 713d c1ec 87bd 314e cebc
00000220: d59c 69bd 2de8 97bc 2787 34bd d743 8e3d
00000230: 1b00 d53d 7485 58bc 9e1d 33bd 5fde 643d
00000240: a175 f6bd 4e2e dabd 5cd8 a3bc 8729 6f3d
00000250: 62e6 73bd afe7 62bd 612b dd3c 0c3b 22bd
00000260: 1550 c7bc 2dd3 da3c 6775 b83d d46f cdbc
00000270: bbfb dfbd 0c72 4dbd fc06 87bd b69a 5fbd
00000280: 3c0a 7cbd 1cbb 2dbc 2389 d1bd 90cd a23d
00000290: f03c f13b 095e bdbd 248b 89bc ede5 eabd
000002a0: 992c 8b3d c99c 1cbd cb19 a5bd a660 89bd
000002b0: 59bb 333c 9b5d 14bc c79f cdbc 9d40 ee3a
000002c0: 7142 d3bd 5635 1bbd ce7b a73b ac13 943d
000002d0: fc81 f7bc 1c35 633c 893a b53c eaee 8a3c
000002e0: 8333 b8bb 15e0 c8bc 07b8 7ebd 1c5b 533d
000002f0: cfa5 ab3d 528b 963d 636d 8e3c b1b9 96bd
00000300: 5923 5c3e efd0 f9bd 67a7 de3c dfa0 943d
00000310: a6e2 9d3c 26c5 32be 25bb cbbd ecab 053e
00000320: ef43 10be 15a0 50be 133a f8bd 9a8b e0bd
00000330: 3882 16bd db05 ebbd 66c1 f53c c2e3 6d3d
00000340: d1e7 af3d ae83 0f3d bf22 97bd c603 8b3d
00000350: 3198 d3bd 2411 3f3a 792f df3c f221 343d
00000360: 24a9 d5bd 7e31 343e c8ec eebd cc92 9d3d
00000370: c110 f8bd 4a65 bbbd 5378 98bd 7a15 aabe
00000380: 3a96 1cbe b8c7 c53d df50 a83d a2d1 efbc
00000390: 7058 32be de09 91bd f4c1 37be cfa1 af3d
000003a0: a26c 16bd 0e22 e33c ae53 fdbd 0cde 58bd
000003b0: 212e 7bbd ec14 bdbb faaf 80bc 45ee 97bc
000003c0: 867c 93bd 7a9f c3bd 2b6e 82bc 94e3 73be
000003d0: c07a 0fbe 0d09 153d 96bf 343d aef2 2abd
000003e0: 159d 56be f050 e4bd f66a 093e f945 37be
000003f0: a42b 85bd 3b95 98bd ebe6 5e3d 4c02 f4bd

lstm.weight_ih_l1 f4 [256, 64]
0.102345146 0.030284004 -0.38426536 -0.02507822 -0.106625825 0.022330439 -0.092053965 -0.045754276
-0.114664555 0.088332735 -0.19423445 0.046346653 -0.014330649 -0.12568907 -0.12418632 -0.028254127
0.091055155 0.38083413 0.0867371 0.12580304 -0.117751226 0.16517088 -0.020632014 -0.1535369
0.10575101 0.014430334 0.043838512 -0.052863732 0.12227865 -0.122708686 0.20783101 -0.13486846
-0.3682837 0.19938217 0.2927095 0.20935944 0.0026837715 -0.35924226 0.123650976 0.0135169765
0.19847125 0.07365506 -0.12743254 -0.3221257 0.118593074 -0.13259731 0.046813253 0.057429988
0.04093777 0.02061946 0.044655133 0.087585695 0.011564806 0.04281086 0.17690372 -0.021808403
-0.04958217 0.11500744 0.016284497 0.26730245 0.14551951 -0.15029214 0.28425553 0.070025764
-0.32052454 0.016447462 -0.08099657 0.012888076 0.28948653 -0.18437858 0.12810928 0.1080345
-0.08988025 -0.16023903 -0.1473076 -0.1946604 0.012434406 0.16082484 -0.06402059 0.13341323
-0.00013003155 -0.021226546 0.28882778 -0.14723007 0.3057165 -0.070604995 -0.21506244 0.12877396
0.06563258 0.31772834 0.10471231 0.089141086 0.117839076 -0.037555378 -0.13521689 0.1720108
-0.15609981 0.052629083 -0.10833256 0.06559959 0.043942627 -0.0122684855 0.13398719 -0.010064558
-0.03982069 0.08408945 -0.20342551 -0.059870046 -0.03974007 -0.030865375 0.024961121 -0.07436753
0.12837379 -0.14505965 -0.114050455 -0.2215062 -0.0028419294 -0.012595924 0.013233159 0.03079181
0.024295531 0.07269099 -0.28340897 -0.00013715499 0.04009649 -0.16400772 0.23954093 0.01945451
-0.18535411 -0.28721073 -0.06580978 -0.2216956 0.16233784 0.07696527 -0.061603397 0.26986068
-0.108097054 -0.0048708715 -0.063820794 -0.087970436 0.120672315 0.082976215 0.17998935 -0.27900055
-0.15970492 0.084202066 0.06342065 0.25532737 0.18017317 0.2694975 -0.035803583 0.16096798
-0.013391719 0.2062091 0.03513267 0.21570553 -0.17671156 -0.016831007 0.10699879 0.005733656
-0.17097008 0.047918417 -0.31096822 -0.2757592 -0.24710204 0.17114499 -0.14859188 0.052025225
0.13094002 -0.12719011 -0.101506084 -0.21531379 -0.04163594 -0.11734743 0.09808485 -0.3391521
-0.019153582 0.31910193 0.32950246 -0.11082783 -0.10501469 -0.10531831 0.03123615 -0.026132548
0.028015 -0.13430423 -0.17921351 0.038810454 0.011347331 0.20220514 0.08505146 -0.22252065
0.05266329 0.079567105 0.045581274 0.23504247 0.07363843 0.01774514 0.008906486 0.028616535
-0.0851895 -0.044093072 0.1390129 0.21226144 0.027948802 -0.18290788 0.027153237 0.06270993
0.13535586 -0.053468518 -0.016394783 0.07012621 -0.0146649275 -0.166831 0.05296936 0.07954499
-0.1596962 -0.042949755 -0.13100657 0.08133006 0.07338269 -0.035049368 0.01476679 -0.04577594
0.16306156 -0.073116265 0.01152469 0.124827914 -0.013416678 0.029025327 -0.009417717 0.038286958
-0.039248712 0.105706565 -0.028263636 -0.046358146 0.11835661 0.10760804 0.11840074 -0.11340623
0.11298104 0.040439717 0.022522066 -0.13177665 0.06789791 0.08675704 0.055006973 -0.050307173
-0.07200347 -0.0010111359 -0.07706114 0.01849119 -0.04597374 -0.040423676 -0.004801619 0.035343662
00000000: 559a d13d 2916 f83c 6ebe c4be d770 cdbc
00000010: a45e dabd 53ee b63c ca86 bcbd d668 3bbd
00000020: 40d5 eabd cbe7 b43d 65e5 46be fdd5 3d3d
00000030: 19cb 6abc a3b4 00be 6655 febd 3375 e7bc
00000040: 207b ba3d b1fc c23e 38a3 b13d 83d2 003e
00000050: 8e27 f1bd 8e22 293e 7804 a9bc c738 1dbe
00000060: fc93 d83d 356d 6c3c 0390 333d a487 58bd
00000070: 3b6d fa3d b14e fbbd a7d1 543e f51a 0abe
00000080: ae8f bcbe d72a 4c3e 05de 953e 5262 563e
00000090: 37e2 2f3b 9aee b7be b93c fd3d 4f76 5d3c
000000a0: 0c3c 4b3e 77d8 963d ad7d 02be a9ed a4be
000000b0: ede0 f23d 97c7 07be 41bf 3f3d b53b 6b3d
000000c0: 5dae 273d 24ea a83c 4de8 363d 2160 b33d
000000d0: 507a 3d3c 715a 2f3d 4026 353e 89a7 b2bc
000000e0: ac16 4bbd 0589 eb3d 1167 853c dedb 883e
000000f0: 1103 153e 2fe6 19be f189 913e ab69 8f3d
00000100: cb1b a4be d4bc 863c 88e1 a5bd 8228 533c
00000110: 9437 943e bdcd 3cbe 142f 033e 3141 dd3d
00000120: 2313 b8bd b315 24be ced7 16be 0e55 47be
00000130: aeb9 4b3c 44af 243e 3a1d 83bd 7a9d 083e
00000140: 1459 08b9 4be3 adbc 3ce1 933e 7bc3 16be
00000150: e086 9c3e 5a99 90bd 5439 5cbe 52dd 033e
00000160: 606a 863d 4aad a23e 6873 d63d 9a8f b63d
00000170: 9d55 f13d abd3 19bd 4c76 0abe 9923 303e
00000180: a1d8 1fbe 9891 573d 76dd ddbd 1459 863d
00000190: 2ffd 333d c201 49bc f033 093e d1e5 24bc
000001a0: 051b 23bd 1737 ac3d c74e 50be 4b3a 75bd
000001b0: 7cc6 22bd 62d9 fcbc 447b cc3c 014e 98bd
000001c0: 6b74 033e 848a 14be 4993 e9bd 85d2 62be
000001d0: aa3f 3abb 225f 4ebc e4cf 583c 1b3f fc3c
000001e0: 6c07 c73c 04df 943d fb1a 91be 43d1 0fb9
000001f0: 383c 243d a4f1 27be 384a 753e 115f 9f3c
00000200: 78cd 3dbe 490d 93be 47c7 86bd 2c04 63be
00000210: e43b 263e f89f 9d3d d853 7cbd 2e2b 8a3e
00000220: fd61 ddbd d59b 9fbb 7ab4 82bd d829 b4bd
00000230: 0c23 f73d 6fef a93d 214f 383e 29d9 8ebe
00000240: b089 23be 2272 ac3d b0e2 813d 45ba 823e
00000250: 517f 383e 94fb 893e c7a6 12bd cad4 243e
00000260: f168 5bbc 7a28 533e 46e7 0f3d e9e1 5c3e
00000270: e0f3 34be 2ee1 89bc 2e22 db3d 65e1 bb3b
00000280: c812 2fbe 1a46 443d 3a37 9fbe 4f30 8dbe
00000290: 5108 7dbe a240 2f3e 7828 18be 6718 553d
000002a0: 2415 063e 203e 02be 6ce2 cfbd 387b 5cbe
000002b0: 738a 2abd d953 f0bd b6e0 c83d 58a5 adbe
000002c0: f9e7 9cbc 5461 a33e 8cb4 a83e b4f9 e2bd
000002d0: f111 d7bd 20b1 d7bd f4e2 ff3c ed13 d6bc
000002e0: b77f e53c 0c87 09be bf83 37be b6f7 1e3d
000002f0: 28ea 393c dd0e 4f3e 762f ae3d 74dc 63be
00000300: 76b5 573d 14f4 a23d 6eb3 3a3d f9ae 703e
00000310: bfcf 963d 415e 913c 83ec 113c 396d ea3c
00000320: d577 aebd f09a 34bd 6659 0e3e 105b 593e
00000330: e3f4 e43c 344c 3bbe 7770 de3c 106e 803d
00000340: ba9a 0a3e ce01 5bbd 5a4e 86bc 559e 8f3d
00000350: 2a45 70bc bfd5 2abe 66f6 583d 7ce8 a23d
00000360: 6787 23be 15ec 2fbd 9626 06be 6090 a63d
00000370: aa49 963d ed8f 0fbd 68f0 713c 8d7f 3bbd
00000380: 9cf9 263e fbbd 95bd 0ed2 3c3c c7a5 ff3d
00000390: a0d1 5bbc 86c6 ed3c c54c 1abc c9d2 1c3d
000003a0: 42c3 20bd af7c d83d 2489 e7bc 0ae2 3dbd
000003b0: f364 f23d 9b61 dc3d 167c f23d 8741 e8bd
000003c0: 9a62 e73d 1ea4 253d 3280 b83c 75f0 06be
000003d0: 0f0e 8b3d adad b13d fe4e 613d e50e 4ebd
000003e0: 8e76 93bd 1788 84ba 3bd2 9dbd d67a 973c
000003f0: f64e 3cbd 4c93 25bd e656 9dbb 84c4 103d

lstm.weight_hh_l1 f4 [256, 64]
-0.2838465 -0.12906452 -0.19240507 -0.063028425 -0.27114758 0.15916164 -0.016739013 -0.1918214
-0.062722325 0.11919543 -0.014163156 -0.48186937 0.14931509 0.024538372 -0.23451002 -0.09623405
0.19944322 0.0063062515 0.025530472 0.02817115 0.0591914 -0.07903028 -0.021222433 -0.36895472
0.3467284 0.08688444 0.20258453 0.12199617 0.07356523 -0.11630211 -0.032515284 -0.08514094
-0.044226658 -0.15804408 0.46732315 0.235945 0.048011065 0.01592476 -0.018479856 0.026835065
0.1794712 0.28087163 -0.033997733 0.14599359 -0.19593789 -0.012725589 -0.05258719 -0.18149556
-0.2821176 -0.224946 0.09401444 -0.19501905 -0.29018363 -0.026497044 -0.0029662387 -0.040666178
0.14220025 0.045717668 0.010048325 0.028555358 -0.17923293 0.15694986 0.14287387 -0.009974517
-0.24963343 -0.12247797 -0.052371345 0.07795021 -0.0028939364 0.18835716 -0.023479115 -0.10469457
-0.22960204 -0.022289068 0.01847967 -0.19743691 0.12644458 0.011515881 -0.15330346 -0.20799868
0.040206056 0.1629153 -0.16922928 -0.22593284 -0.037903942 -0.12584181 -0.0649559 0.3901981
-0.05622173 0.05772191 -0.08661837 0.1986987 0.17112452 -0.011257331 0.18939953 0.08706459
-0.21217658 -0.07877656 0.0010654978 -0.084859125 0.2786411 0.113154605 -0.07940997 -0.17002475
-0.029156083 0.03505627 -0.028934777 0.03846198 -0.07384202 -0.055579085 -0.14113693 -0.0104695
-0.036986765 -0.003204753 0.34169382 -0.24826808 0.38450032 -0.28733224 0.011110023 0.020013442
-0.089325845 0.027242161 -0.010668494 0.15264404 -0.019139647 0.03292133 0.06983164 -0.24060573
-0.16482605 0.076062396 -0.03519517 0.28219035 0.13681695 -0.11748783 0.17157196 -0.26774096
-0.01406925 -0.24400607 0.069965795 -0.20427798 0.017518349 0.009980225 0.068384714 -0.19968745
-0.270974 0.048564427 0.11499577 -0.0083629135 0.20265159 -0.019926094 0.033282835 0.051611546
-0.28005198 -0.14192867 0.075297125 -0.2199102 -0.073501214 -0.019574534 -0.25336197 0.014775566
0.062311713 -0.046348855 0.25224182 0.15823671 -0.09795104 0.044343874 0.12684408 -0.1423096
0.1407133 0.14399138 0.26687956 -0.28072876 -0.009696687 0.034709144 0.06269737 -0.10773365
0.09787217 0.11531698 -0.06223561 -0.15561669 0.19046538 0.003665999 -0.06509546 -0.21033496
0.08339237 0.19171321 -0.16253017 -0.053205553 0.1564392 -0.0029015027 -0.024448957 0.1483531
0.048458204 0.014334587 0.015068969 0.15684213 -0.037405428 -0.16201863 0.09842336 -0.025347702
-0.093205534 0.11358295 -0.02711215 -0.015441195 -0.16401935 -0.111406706 -0.2867058 -0.21274506
0.08462541 0.1359092 0.0122483205 0.10956451 0.025672741 0.23982264 0.14595488 -0.16311382
-0.10579797 0.05515841 0.15854286 -0.066330105 -0.14256279 -0.044160385 0.014780828 0.01738534
0.060505394 -0.17069146 -0.015537573 0.33785832 -0.084203176 -0.020656135 0.019999906 -0.087684214
0.058527265 -0.11675522 -0.014807962 -0.047681686 -0.036245704 0.051483467 -0.10040001 -0.17995486
0.071359485 0.10742883 -0.1450689 -0.089679986 -0.21943511 0.08473667 0.09822083 -0.19007379
0.15336628 0.12393435 -0.012808015 -0.04378829 -0.023267703 0.1005894 0.026486509 -0.06871429
00000000: 5454 91be 7d29 04be d605 45be 0c15 81bd
00000010: dbd3 8abe 45fb 223e 4120 89bc d46c 44be
00000020: 9074 80bd bc1c f43d 950c 68bc 95b7 f6be
00000030: 0ee6 183e b204 c93c 6523 70be 5c16 c5bd
00000040: d83a 4c3e aca4 ce3b 4825 d13c 2fc7 e63c
00000050: ae72 723d a1da a1bd abda adbc a2e7 bcbe
00000060: 6386 b13e 78f0 b13d 5272 4f3e 21d9 f93d
00000070: 5ea9 963d cd2f eebd bf2e 05bd 605e aebd
00000080: 0327 35bd 4fd6 21be fb44 ef3e 919b 713e
00000090: 40a7 443d a474 823c 1163 97bc 36d5 db3c
000000a0: 4cc7 373e 68ce 8f3e 3541 0bbd 587f 153e
000000b0: f1a3 48be fd7e 50bc aa65 57bd f9d9 39be
000000c0: b871 90be 3f58 66be a58a c03d 13b3 47be
000000d0: f392 94be 5410 d9bc 3a65 42bb 9491 26bd
000000e0: f19c 113e 7342 3b3d bba1 243c edec e93c
000000f0: d688 37be 77b7 203e 874d 123e 286c 23bc
00000100: e89f 7fbe bbd5 fabd 5683 56bd 5ca4 9f3d
00000110: 32a8 3dbb b3e0 403e 4657 c0bc 1b6a d6bd
00000120: cc1c 6bbe 9097 b6bc ad62 973c e72c 4abe
00000130: b07a 013e 1bad 3c3c 95fb 1cbe 9bfd 54be
00000140: 1baf 243d 45d3 263e 714a 2dbe f05a 67be
00000150: 2a41 1bbd addc 00be 9907 85bd 0cc8 c73e
00000160: c248 66bd cf6d 6c3d f964 b1bd ac77 4b3e
00000170: 443b 2f3e ab70 38bc f3f1 413e eb4e b23d
00000180: d144 59be 9b55 a1bd 2ca8 8b3a 9fca adbd
00000190: 0caa 8e3e 9abd e73d b2a1 a2bd f81a 2ebe
000001a0: bdd8 eebc 2a97 0f3d a008 edbc 4f8a 1d3d
000001b0: 7c3a 97bd e5a6 63bd 3386 10be 4488 2bbc
000001c0: 6f7f 17bd d506 52bb 7ef2 ae3e fd39 7ebe
000001d0: 3add c43e 361d 93be d006 363c 3bf3 a33c
000001e0: 78f0 b6bd f42a df3c e8ca 2ebc b84e 1c3e
000001f0: c0ca 9cbc 84d8 063d e403 8f3d 5961 76be
00000200: 29c8 28be 9ac6 9b3d d028 10bd 417b 903e
00000210: be19 0c3e 769d f0bd 8fb0 2f3e 5815 89be
00000220: b682 66bc badc 79be 3a4a 8f3d 3f2e 51be
00000230: a482 8f3c 1984 233c 490d 8c3d de7a 4cbe
00000240: 1bbd 8abe 7eeb 463d e782 eb3d 9a04 09bc
00000250: e683 4f3e 0c3c a3bc 9553 083d a166 533d
00000260: f962 8fbe c055 11be 6135 9a3d 2430 61be
00000270: ce87 96bd c65a a0bc a9b8 81be 3715 723c
00000280: 913a 7f3d 4cd8 3dbd d725 813e ce08 223e
00000290: 8e9a c8bd eca1 353d 6ae3 013e 9cb9 11be
000002a0: 2617 103e 7a72 133e 70a4 883e aebb 8fbe
000002b0: dade 1ebc 2d2b 0e3d 7b67 803d 76a3 dcbd
000002c0: 3471 c83d 4f2b ec3d c4ea 7ebd fb59 1fbe
000002d0: 5b09 433e 4241 703b c550 85bd 0c62 57be
000002e0: 9ec9 aa3d 7850 443e 4f6e 26be 11ee 59bd
000002f0: 9931 203e 2327 3ebb 2e49 c8bc e0e9 173e
00000300: 1c7c 463d 9edb 6a3c d6e3 763c 399b 203e
00000310: 6f36 19bd 36e8 25be 3092 c93d fca5 cfbc
00000320: 8be2 bebd 2d9e e83d 4d1a debc 11fd 7cbc
00000330: b0f4 27be 3329 e4bd 1acb 92be d7d9 59be
00000340: 1650 ad3d c82b 0b3e 2ead 483c 5c63 e03d
00000350: a44f d23c 1194 753e 3275 153e 4f07 27be
00000360: 9bac d8bd c9ed 613d 0f59 223e 14d8 87bd
00000370: fbfb 11be 85e1 34bd 492b 723c b36b 8e3c
00000380: 81d4 773d bec9 2ebe 4e91 7ebc c4fb ac3e
00000390: b772 acbd 0e37 a9bc d8d6 a33c c893 b3bd
000003a0: 49ba 6f3d 5c1d efbd 189d 72bc df4d 43bd
000003b0: 6076 14bd 54e0 523d 859e cdbd 1646 38be
000003c0: ec24 923d a503 dc3d f18c 14be 24aa b7bd
000003d0: 99b3 60be 6b8a ad3d 0128 c93d b4a2 42be
000003e0: 0d0c 1d3e 4bd1 fd3d b5d8 51bc 5a5b 33bd
000003f0: e99b bebc d101 ce3d 3cfa d83c 14ba 8cbd

lstm.bias_ih_l1 f4 [256]
0.09599801 0.07976171 -0.11756138 -0.14480577 -0.15160938 -0.16196747 -0.061956875 0.02875968
0.071175516 0.0044273287 0.05251625 0.113889776 -0.09633202 -0.02328883 -0.011585966 -0.05660592
-0.09904451 -0.054284837 -0.0031523928 -0.21108705 -0.0020449762 0.06620882 -0.008616225 -0.040532343
0.07525741 -0.016441522 -0.13443536 -0.14449033 0.02635871 -0.14492609 -0.034154445 -0.005311921
-0.035757408 0.008392523 -0.09435434 -0.023829738 0.020244636 -0.054587226 -0.06572395 -0.17975347
0.054886516 -0.030903295 0.03401012 0.017188512 0.018302018 -0.07674726 -0.20713387 -0.054132465
-0.0506139 -0.10666242 -0.08460948 0.024050178 -0.01621 -0.017547095 -0.27007353 0.0842316
-0.16705205 -0.021632832 -0.03985658 -0.19309701 -0.05192238 -0.07702834 -0.09239974 -0.0480112
-0.10996322 0.24969852 -0.079499535 -0.1279314 -0.1664368 -0.005909974 0.005319243 -0.03323025
-0.29111293 -0.1036193 -0.1049034 0.011408199 -0.18539998 -0.14367436 -0.0518095 -0.13480888
0.062127065 -0.116239324 -0.18454233 -0.3709384 -0.1743482 -0.13312021 -0.039096106 0.0064815697
-0.08583817 0.036186505 -0.14214659 0.012310877 -0.10837773 0.09151365 0.108940035 -0.25341678
-0.115177095 -0.055750996 -0.026704142 -0.11710793 -0.124065034 0.031427175 -0.09776013 -0.09361761
-0.15629175 -0.053977102 -0.075206935 0.08891932 -0.19945315 -0.043830357 0.03368598 -0.090868615
-0.04543989 0.03713693 -0.010738124 -0.05683262 0.111033425 0.020918582 -0.13471648 -0.116683595
-0.19334248 -0.04300489 -0.033214077 -0.14667998 -0.00591199 -0.07537051 0.11189331 0.02311881
-0.062337548 -0.09177089 -0.033026513 0.011385613 -0.03955665 0.1062527 0.039143547 0.08473338
0.13322774 -0.08961133 -0.1037753 0.1169004 0.009745473 0.008001969 -0.005664627 -0.0013396777
-0.046187475 0.056811962 0.0025942014 -0.03083522 0.017068876 0.037838716 -0.09251767 -0.020379942
0.007875301 -0.035894725 -0.06504482 0.14141926 -0.063678525 -0.03870684 0.11573886 0.046798807
-0.09983647 -0.03075363 -0.088439226 0.027080316 0.05957952 -0.04747067 -0.1373838 -0.050500516
-0.10504697 0.03998664 -0.09432137 0.15118706 0.07980106 0.034742024 0.03850404 0.0800089
0.0147703905 -0.11602345 0.0556239 0.044799935 -0.06319938 0.041108057 0.07088228 0.02214731
0.03486742 0.002085498 0.075424336 0.059623804 0.069898106 0.026859676 -0.028577916 -0.04026273
0.019917453 0.066130705 -0.08461843 -0.017490314 -0.15797171 -0.07277107 0.0010216242 0.011486926
-0.0072041266 -0.09828311 0.09867146 0.16329217 -0.0976895 -0.066506535 -0.04367426 -0.13242859
-0.0072866688 -0.059182182 -0.049260218 -0.23253891 0.015924433 -0.03980958 -0.0953115 -0.19071077
-0.13843074 -0.034534033 0.013189622 0.020324234 0.0035737767 -0.21617295 0.049257338 0.051762387
-0.11253723 0.062302787 0.05679349 0.1701797 0.0583264 -0.16091278 0.06674936 -0.053418204
-0.053676248 -0.14936654 0.0857023 -0.065912746 -0.14214778 -0.060283 -0.063688144 -0.13347927
-0.05176301 -0.068640485 -0.10395159 0.0452923 -0.066526316 -0.19199398 -0.21054634 0.025030464
-0.16880395 -0.15516344 -0.03683255 -0.13112324 -0.0735154 -0.003996869 -0.07315664 -0.05211093
00000000: 9b9a c43d 1b5a a33d 05c4 f0bd f747 14be
00000010: 7d3f 1bbe cdda 25be 7ec6 7dbd 6c99 eb3c
00000020: 78c4 913d 2013 913b 481b 573d 0b3f e93d
00000030: b949 c5bd 37c8 bebc 10d3 3dbc 9cdb 67bd
00000040: d9d7 cabd c759 5ebd 6098 4ebb 3427 58be
00000050: 0205 06bb 7d98 873d 112b 0dbc 3e05 26bd
00000060: 8f20 9a3d 5fb0 86bc 6ca9 09be 46f5 13be
00000070: 39ee d73c 8167 14be 88e5 0bbd 9f0f aebb
00000080: 5c76 12bd cb80 093c d93c c1bd 9536 c3bc
00000090: 14d8 a53c db96 5fbd 479a 86bd 4b11 38be
000000a0: afd0 603d e828 fdbc 324e 0b3d ecce 8c3c
000000b0: 1dee 953c ab2d 9dbd e71a 54be 01ba 5dbd
000000c0: 8550 4fbd d471 dabd bc47 adbd e104 c53c
000000d0: d5ca 84bc edbe 8fbc 1447 8abe 9e81 ac3d
000000e0: b10f 2bbe 5637 b1bc a740 23bd 39bb 45be
000000f0: 90ac 54bd 09c1 9dbd 133c bdbd 64a7 44bd
00000100: 6634 e1bd f8b0 7f3e a7d0 a2bd 7300 03be
00000110: 696e 2abe 75a8 c1bb 0b4d ae3b 711c 08bd
00000120: c10c 95be 5b36 d4bd 98d7 d6bd 74e9 3a3c
00000130: 7ed9 3dbe 5f1f 13be 3336 54bd 570b 0abe
00000140: f378 7e3d e20e eebd aaf8 3cbe a3eb bdbe
00000150: 5688 32be aa50 08be 3d23 20bd 5963 d43b
00000160: eccb afbd 4d38 143d e08e 11be 90b3 493c
00000170: 25f5 ddbd 826b bb3d f41b df3d d8bf 81be
00000180: f8e1 ebbd 285b 64bd a5c2 dabc 48d6 efbd
00000190: cf15 febd c8b9 003d 7736 c8bd 97ba bfbd
000001a0: f20a 20be 1817 5dbd 1806 9abd 551b b63d
000001b0: 723d 4cbe 7687 33bd 4ffa 093d 5319 babd
000001c0: 2e1f 3abd e51c 183d f5ee 2fbc 52c9 68bd
000001d0: 7e65 e33d 725d ab3c 1ef3 09be cff7 eebd
000001e0: 92fb 45be e525 30bd 7c0b 08bd 4733 16be
000001f0: 5eb9 c1bb db5b 9abd 5228 e53d a963 bd3c
00000200: a855 7fbd 60f2 bbbd cf46 07bd b98a 3a3c
00000210: 2706 22bd 049b d93d fc54 203d b288 ad3d
00000220: da6c 083e 2586 b7bd 2588 d4bd 7a69 ef3d
00000230: 7aab 1f3c b11a 033c 569e b9bb 2098 afba
00000240: 142f 3dbd a9b3 683d 7a03 2a3b 259a fcbc
00000250: 07d4 8b3c c5fc 1a3d e779 bdbd d6f3 a6bc
00000260: 6807 013c 5906 13bd 3836 85bd 36d0 103e
00000270: e369 82bd 108b 1ebd 7f08 ed3d 1bb0 3f3d
00000280: 1077 ccbd 09ef fbbc a01f b5bd 8ad7 dd3c
00000290: a809 743d 9b70 42bd 57ae 0cbe a1d9 4ebd
000002a0: de22 d7bd 08c9 233d 902b c1bd c8d0 1a3e
000002b0: bd6e a33d a74d 0e3d 6ab6 1d3d b5db a33d
000002c0: 82ff 713c b49d edbd e3d5 633d 2380 373d
000002d0: ad6e 81bd ec60 283d bb2a 913d 476e b53c
000002e0: 24d1 0e3d daac 083b 1378 9a3d 1738 743d
000002f0: bd26 8f3d d308 dc3c 3c1c eabc 88ea 24bd
00000300: ed29 a33c 896f 873d 6d4c adbd d947 8fbc
00000310: 56c3 21be 0009 95bd 05e8 853a a933 3c3c
00000320: 9810 ecbb a848 c9bd 4314 ca3d 1036 273e
00000330: 6f11 c8bd 9434 88bd c8e3 32bd 5c9b 07be
00000340: 02c5 eebb 0469 72bd 15c5 49bd ae1e 6ebe
00000350: f573 823c 5f0f 23bd ad32 c3bd af49 43be
00000360: cac0 0dbe 8f73 0dbd 4919 583c 027f a63c
00000370: 0636 6a3b 715c 5dbe 10c2 493d cc04 543d
00000380: eb79 e6bd 3531 7f3d 4aa0 683d 9643 2e3e
00000390: aae7 6e3d 52c6 24be e3b3 883d 0ccd 5abd
000003a0: a0db 5bbd 8bf3 18be b084 af3d 43fd 86bd
000003b0: 308f 11be 4feb 76bd ee6e 82bd caae 08be
000003c0: 7305 54bd 6293 8cbd 92e4 d4bd 6b84 393d
000003d0: f33e 88bd 129a 44be 7699 57be b00c cd3c
000003e0: f1da 2cbe 2ae3 1ebe badd 16bd 2c45 06be
000003f0: 3e8f 96bd 2bf8 82bb 26d3 95bd 4572 55bd

lstm.bias_hh_l1 f4 [256]
-0.015371563 0.12091562 -0.15953062 -0.10397151 -0.10351378 0.042416666 -0.04349567 0.062655896
-0.033472344 0.05733193 0.08669578 0.09222779 -0.14044203 -0.047431756 -0.08361595 -0.07577002
0.043958217 0.0057806885 -0.03288838 -0.17800124 -0.0064589456 0.071013115 -0.15347734 -0.023805156
-0.0021921075 -0.08544262 -0.18314007 0.02966861 -0.16012566 -0.13719603 0.102074444 -0.08097544
-0.020791678 0.06566615 -0.05861285 0.008389788 -0.13265423 -0.078465216 -0.103576906 -0.15230463
0.015228316 -0.08298739 0.040624533 0.014262509 -0.12556115 -0.100834556 -0.030655043 -0.15911688
-0.23914959 -0.001967689 -0.15584543 0.16394208 0.007051485 -0.14996143 -0.25518993 -0.0502885
-0.09173942 -0.07170135 -0.13003631 -0.06540597 -0.14685997 -0.17884938 0.057939373 0.07557623
-0.16288601 0.34448862 -0.053475503 0.088423684 0.039114337 -0.035156205 -0.16834946 -0.054046933
-0.24965332 0.021906102 -0.08963934 -0.21344218 -0.020157846 -0.14003597 -0.17174338 -0.0008419816
0.06776227 -0.03879768 -0.17854272 -0.2549287 -0.049668834 -0.13372956 -0.09786905 -0.048427727
-0.13328755 -0.009893601 -0.0751516 -0.09341589 -0.1194474 -0.046271686 -0.06301986 -0.20250015
0.12983117 -0.10701365 0.018100046 -0.20644934 0.09971671 -0.03407094 -0.054789066 0.036305383
0.06350991 -0.18600918 -0.09234099 0.019009093 -0.12074943 0.019737089 0.034696713 -0.0908384
-0.10503956 -0.11697899 -0.011853091 -0.120474085 0.06265726 -0.14867753 -0.15595265 -0.04208702
-0.10089872 -0.18296506 -0.0045762765 0.010114241 -0.01837829 0.05026288 -0.13285935 0.047026496
0.059011254 0.09645622 0.019098321 -0.07500499 -0.032955434 -0.0674291 -0.124128245 0.012907709
-0.08702732 0.1398211 0.040177096 -0.048138224 0.084599406 0.01771418 0.018823102 -0.0033020643
0.12523931 -0.121734865 0.01674928 0.012745725 -0.099231794 -0.069883965 0.020246487 -0.036215246
0.11822745 0.093695566 -0.024708416 -0.08809 0.12504159 0.021893226 0.0975363 -0.13958085
-0.038081452 0.02920332 0.0115465345 -0.1801428 0.06305006 0.086097814 0.07131771 -0.07213433
0.01631072 -0.014742351 -0.08776168 0.0784281 -0.07026623 -0.09855061 0.050791744 -0.06336585
-0.03698242 -0.12182027 -0.10518933 0.03844441 -0.0068586236 -0.07502643 -0.066324905 0.0499705
-0.027159372 -0.111452475 0.11118053 0.015077818 -0.04512669 0.0070220525 0.13713507 -0.11946868
-0.010794608 0.112318106 -0.25313798 -0.054765906 -0.1716407 -0.14772327 -0.05473861 0.0054537253
0.076414235 -0.14607301 0.12926099 0.22534376 -0.012806751 -0.19594021 -0.14687116 0.061837073
-0.14225408 -0.025817122 -0.2152124 -0.18077895 -0.14429845 -7.505421e-05 -0.14478388 -0.15113476
-0.05557543 -0.0746706 0.0116960155 -0.10767988 -0.12400639 -0.07937107 -0.07491847 0.029214079
0.04965597 0.07164444 -0.08576872 0.026930122 -0.013856384 -0.15626179 0.027861755 -0.09117187
-0.05042799 -0.21336311 -0.14506994 -0.076422125 -0.14102556 -0.061584663 -0.09787246 0.07503081
-0.15344493 -0.09916121 -0.055332545 0.10529814 0.015798308 -0.054213177 -0.29959252 0.1152352
-0.13798419 0.009753504 -0.13413832 -0.10786725 -0.13015279 -0.052979596 -0.1350452 -0.068710305
00000000: 02d9 7bbc 9ca2 f73d ff5b 23be 04ef d4bd
00000010: 08ff d3bd 19bd 2d3d 8428 32bd bc51 803d
00000020: 4c1a 09bd e3d4 6a3d 8f8d b13d ece1 bc3d
00000030: 09d0 0fbe cd47 42bd d73e abbd 502d 9bbd
00000040: 880d 343d ee6b bd3b f7b5 06bd f545 36be
00000050: 90a5 d3bb 536f 913d 2a29 1dbe 0803 c3bc
00000060: 76a9 0fbb 8afc aebd 1289 3bbe 960b f33c
00000070: fbf7 23be 1e7d 0cbe 680c d13d 74d6 a5bd
00000080: 4f53 aabc f97b 863d 0714 70bd 5275 093c
00000090: 83d6 07be 5fb2 a0bd 2120 d4bd bff5 1bbe
000000a0: 3080 793c 4bf5 a9bd e965 263d 4cad 693c
000000b0: 1a93 00be 5982 cebd 4920 fbbc 89ef 22be
000000c0: a1e3 74be 58f4 00bb f295 1fbe 6fe0 273e
000000d0: 2510 e73b 7d8f 19be 41a8 82be 50fb 4dbd
000000e0: e1e1 bbbd 28d8 92bd 3d28 05be 91f3 85bd
000000f0: 7662 16be 4b24 37be d651 6d3d b6c7 9a3d
00000100: 97cb 26be d060 b03e 2109 5bbd 7a17 b53d
00000110: 5b36 203d f4ff 0fbd cd63 2cbe 5160 5dbd
00000120: 1fa5 7fbe 6d74 b33c d594 b7bd 9690 5abe
00000130: 1122 a5bc 9765 0fbe 7fdd 2fbe 6eb8 5cba
00000140: f2c6 8a3d 51ea 1ebd e7d3 36be 0486 82be
00000150: 8c71 4bbd 67f0 08be 926f c8bd 275c 46bd
00000160: 887c 08be c518 22bc 15e9 99bd d550 bfbd
00000170: d7a0 f4bd 6187 3dbd 8e10 81bd 335c 4fbe
00000180: 76f2 043e f929 dbbd 8c46 943c 7567 53be
00000190: 4638 cc3d f88d 0bbd 806a 60bd f4b4 143d
000001a0: 7c11 823d 3179 3ebe 461d bdbd f5b8 9b3c
000001b0: 7a4b f7bd adaf a13c 241e 0e3d 7c09 babd
000001c0: fb1e d7bd ae92 efbd 7833 42bc 1ebb f6bd
000001d0: 7352 803d ec3e 18be 0db2 1fbe 7063 2cbd
000001e0: fda3 cebd 315b 3bbe 97f4 95bb 34b6 253c
000001f0: 118e 96bc 73e0 4d3d 480c 08be db9e 403d
00000200: c9b5 713d d78a c53d 1574 9c3c 379c 99bd
00000210: 47fc 06bd 4518 8abd f336 febd db7a 533c
00000220: 613b b2bd 432d 0f3e bd90 243d 962c 45bd
00000230: 7442 ad3d 541d 913c e832 9a3c 7267 58bb
00000240: bc3e 003e 2150 f9bd c935 893c 72d3 503c
00000250: 0a3a cbbd 531f 8fbd f6db a53c 7056 14bd
00000260: 3c21 f23d 76e3 bf3d 4e69 cabc 8868 b4bd
00000270: e70a 003e 6c59 b33c 1dc1 c73d 48ee 0ebe
00000280: 4cfb 1bbd cd3b ef3c ad2d 3d3c 5b77 38be
00000290: 6420 813d 0d54 b03d 050f 923d 2abb 93bd
000002a0: 0f9e 853c e789 71bc 65bc b3bd e99e a03d
000002b0: bee7 8fbd e7d4 c9bd 010b 503d f4c5 81bd
000002c0: e17a 17bd e87c f9bd 816d d7bd e377 1d3d
000002d0: 4ebe e0bb 75a7 99bd 5ad5 87bd dead 4c3d
000002e0: 557d debc 3241 e4bd 9eb2 e33d f408 773c
000002f0: c4d6 38bd 3f19 e63b 236d 0c3e ffab f4bd
00000300: dedb 30bc 0907 e63d 4d9b 81be 3752 60bd
00000310: 94c2 2fbe c544 17be 9835 60bd 2ab5 b23b
00000320: 117f 9c3d 2a94 15be fe5c 043e 84c0 663e
00000330: 68d3 51bc 8da4 48be 6565 16be df48 7d3d
00000340: 0eab 11be 6e7e d3bc a460 5cbe 1e1e 39be
00000350: f9c2 13be 6c66 9db8 3a42 14be 12c3 1abe
00000360: 10a3 63bd e6ec 98bd a5a0 3f3c 4587 dcbd
00000370: 10f7 fdbd 4d8d a2bd db6e 99bd 5d52 ef3c
00000380: 0f64 4b3d 52ba 923d 83a7 afbd 8f9c dc3c
00000390: e305 63bc 1703 20be 563e e43c 51b8 babd
000003a0: 948d 4ebd dc7b 5abe 378d 14be 3483 9cbd
000003b0: 0169 10be 3340 7cbd 5b71 c8bd c1a9 993d
000003c0: ab20 1dbe 0815 cbbd 61a4 62bd 8da6 d73d
000003d0: 746b 813c a30e 5ebd 3164 99be 6f00 ec3d
000003e0: ba4b 0dbe 29cd 1f3c 8e5b 09be 81e9 dcbd
000003f0: c646 05be 2201 59bd 4a49 0abe fdb7 8cbd
