models_uni/ffnn_uni_model_cpu.pth (torch, 44375 bytes, 5 tensors)

fc1.weight f4 [64, 99]
000000 79 89 cb 3d f3 36 07 3d 22 cd 0d be ef f0 94 bd
       0.0993833 0.033011388 -0.13847783 -0.07272517
000010 97 25 26 be 79 8d 92 bd 30 c5 b5 3d 2b 1d 90 3c
       -0.16225277 -0.0715589 0.08875501 0.017592033
000020 8d 54 e2 3d 88 dc 07 be f6 1b 40 3e 69 12 91 bd
       0.11051283 -0.1326772 0.18760666 -0.070835896
000030 77 6c 52 3d 74 ce c6 3c fc 79 aa 3c aa 73 76 3d
       0.05137297 0.024268366 0.02081012 0.0601689
000040 85 40 0c bc 86 d2 28 bd c1 5f 80 bd 3b de f0 3d
       -0.0085603045 -0.041216396 -0.062682636 0.11761137
000050 bc 52 89 bd 2f de 35 3d 5b a6 6b 3d f6 e1 5d bd
       -0.067052335 0.044401344 0.057531696 -0.05417057
000060 86 0c a4 3d 30 2a b3 bd a7 58 a2 3c b9 cc ef 3d
       0.08010201 -0.08748281 0.019817663 0.117089696
000070 6f 88 c2 3d 3b 24 9e 3d 80 b3 18 3e 55 f8 c8 3c
       0.09498679 0.07721754 0.14912224 0.024532476
000080 80 21 ae bd 00 d7 fb bc 48 70 4b bb 3e 7b 0f 3e
       -0.08502483 -0.030742168 -0.0031042267 0.14011857
000090 c9 ff fc bd 8a 96 dd 3d c9 f5 b4 bd 97 54 82 3d
       -0.12353475 0.10819729 -0.08835942 0.063637905
0000a0 77 6f 48 3d 62 17 4a 3d 1f 18 2d 3e 00 f4 24 3d
       0.048934426 0.049338706 0.16903733 0.04027176
0000b0 ab d9 67 bd 3b 60 39 bc 09 0a 4e 3e 33 bb ea 3d
       -0.05660407 -0.011314447 0.20121016 0.11461487
0000c0 f4 f6 94 3d d9 58 36 3c a9 6f 48 3d 14 17 0b bb
       0.07273665 0.011129581 0.048934612 -0.0021223472
0000d0 41 fa 98 3b dc b0 28 bd c4 ac 3e 3d 8f fc 0d be
       0.0046685045 -0.04118429 0.04655148 -0.13865875
0000e0 05 6d 5c bd 1b b5 5b be 40 f3 f9 3b 32 7f 34 be
       -0.053814907 -0.21455805 0.0076278746 -0.17626646
0000f0 ee 21 1f 3d ea ee 33 be 56 ad d8 3d 5b f5 0a bd
       0.038850717 -0.17571607 0.10579936 -0.033925395
000100 e5 66 5c 3d 14 13 34 3d de 0b e4 39 7e 75 e9 bd
       0.053809065 0.043963507 0.0004349639 -0.11399363
000110 34 fb 0a bc be cb 25 bd a8 4c 56 be 18 ae 02 3d
       -0.008482743 -0.040477507 -0.2092768 0.03190431
000120 ef b0 06 3e 03 0f d1 3d de 2b ed bd 88 ac 62 3c
       0.13153432 0.102079414 -0.115806326 0.01383508
000130 0a da e5 3d 3c 6e 09 bd 66 bd e0 3d 6f 05 95 3c
       0.11223228 -0.033552393 0.10973625 0.018191068
000140 bd b4 d5 3d 86 b2 13 be 6f 6a 35 be 18 82 1a 3e
       0.10434864 -0.1442357 -0.17716382 0.1508869
000150 9e d4 68 bd 9b a1 ea 3c d4 6a 1f 3d 6a c9 32 3e
       -0.056843393 0.028641513 0.03892024 0.17459646
000160 ea 8b 90 bd 23 6a 87 3e c8 30 24 3e 33 06 e7 bd
       -0.070579365 0.26448163 0.16034234 -0.11280479
000170 71 e0 1e 3d 05 8f 16 bd 1e 4c b7 bd 19 ed ae 3d
       0.038788263 -0.036757488 -0.08950065 0.085413165
000180 4c 52 31 bd 0f 7a e1 3d 67 dd 4c 3e fe f2 88 3d
       -0.043291375 0.11009609 0.20006333 0.06686972
000190 b8 9d 83 bd ec 9f 18 be f9 6f ea bd 98 6b 0c bd
       -0.06426567 -0.14904755 -0.11447138 -0.034282297
0001a0 58 fe d1 3d 94 f9 f1 bd 9d 2b e8 3c 1f 02 07 3e
       0.1025359 -0.118151814 0.028341109 0.13184403
0001b0 ba ea ba 3d 7a b8 e6 bc 91 f3 83 bd 53 1f b7 3d
       0.09126802 -0.028164137 -0.06442941 0.089415215
0001c0 ce ea 12 3e fd 47 f6 3c 23 5d 08 3e e0 75 0a 3d
       0.14347383 0.030063624 0.13316779 0.03380382
0001d0 00 d3 f3 39 c4 3d 22 3e d2 94 d2 3d 38 3f f5 bc
       0.0004650578 0.15843874 0.102822915 -0.029937372
0001e0 88 a9 d3 bb 6b 86 3a 3d d4 be 80 bc fb 58 79 3d
       -0.0064594187 0.045538347 -0.015715994 0.060875874
0001f0 2d e2 2b 3e 00 aa 67 3e 57 72 c4 3c e2 d7 71 bd
       0.16785498 0.22623444 0.023980303 -0.059043773
000200 18 78 41 bd 8f 4e b3 bc b8 72 90 3d e7 f4 98 3c
       -0.04723367 -0.021888046 0.07053131 0.018671466
000210 67 c3 d9 3b 02 de 05 3d aa 9c 17 3d ab 1c 46 be
       0.006645608 0.032682426 0.03701464 -0.19346873
000220 3b 48 24 bd 62 a9 af bd b3 46 e4 bd 7b 4c 78 3d
       -0.040107947 -0.08577229 -0.11146297 0.060619812
000230 82 18 10 be 44 ad 84 3d c4 1a e7 3a db c2 18 3c
       -0.14071849 0.0647836 0.0017631878 0.009323801
000240 4b 20 b8 3c d8 95 07 be 22 6c b3 3d 74 f3 c7 bc
       0.022476336 -0.13240755 0.08760859 -0.02440808
000250 72 11 b2 3d b4 ad 96 bc c8 f3 84 bd bb 16 e0 bc
       0.08694734 -0.018393375 -0.0649181 -0.027354589
000260 44 9d b7 bc 5c 7b 5e be c8 7a 4c be 4d e7 cf bd
       -0.022413857 -0.21726745 -0.19968712 -0.10151539
000270 ad a1 bb bd a1 96 92 3d 25 43 34 3d 6c 8c 14 3e
       -0.091616966 0.071576364 0.044009347 0.14506692
000280 48 86 e1 ba 28 1a 7d 3d c0 a9 30 bc 35 20 21 be
       -0.0017206157 0.061792523 -0.010782659 -0.15734942
000290 54 c1 6e 3d 1f 63 ca ba 7f f1 06 3d 33 e3 6f 3c
       0.05828984 -0.0015440917 0.032945152 0.014641571
0002a0 01 8b 34 3e f1 c4 56 bd 82 dd 57 bd 56 e3 e6 3d
       0.17631151 -0.05243391 -0.05270148 0.1127383
0002b0 f8 57 96 bc 6b 0d d4 3d fc 09 07 3e 13 aa 50 be
       -0.018352494 0.10354122 0.13187402 -0.20377378
0002c0 3c a7 50 3e 6f 6f d2 bb 81 18 fc 3b ab 34 d8 bd
       0.20376295 -0.0064219753 0.007693351 -0.105569206
0002d0 2c f4 70 3c 4a 82 f9 3d db 2e b1 3b 12 8b 3a 3d
       0.014706653 0.12183054 0.005407197 0.045542784
0002e0 f2 3c 89 3d da df 84 be 15 de 67 be 3f 8d d8 be
       0.067010775 -0.25952035 -0.22643311 -0.42295262
0002f0 2c f8 af be f9 07 70 be 23 67 51 3d 7a 1d ad be
       -0.34369028 -0.23440541 0.05112375 -0.3381155
000300 b1 df c7 be 05 44 3c be 94 cd 4e be 90 ef fe be
       -0.3903785 -0.18385322 -0.2019561 -0.49792147
000310 43 0c 2b bf ca dc 23 bf ae 60 e6 bb f8 6b 5e be
       -0.66815585 -0.6400877 -0.007030568 -0.21720874
000320 bb fe 6d be ab cc d6 3c b8 3d 07 be 39 f1 01 bd
       -0.23241703 0.02622064 -0.13207138 -0.03172419
000330 13 7f 88 3d ec 0b ed bc 9b 32 cd bb f7 fe c4 bb
       0.066648625 -0.028936349 -0.006262136 -0.0060118395
000340 ce 74 25 bd 94 86 8f bc 24 58 57 3b c5 a1 82 3d
       -0.040394597 -0.017520227 0.0032858932 0.06378511
000350 99 f1 84 bd 9c 6f f5 bc 1d ca bf b9 d7 15 db bd
       -0.064913936 -0.029960446 -0.00036580945 -0.10697525
000360 28 5f 60 bd 8c 0b f2 3d 9a f7 5b bd 35 0d d0 3d
       -0.054778248 0.11818609 -0.053702928 0.10158769
000370 19 32 7b bd 72 a4 10 bd 0b 3a fc 3d e0 63 26 3d
       -0.061327074 -0.035313077 0.12315758 0.040622592
000380 64 f7 1f bd c1 3f bf 3d 07 bd 1b bd ef 8c 5d 3d
       -0.03905429 0.09338332 -0.038022067 0.054089483
000390 a0 f0 e6 3d 52 ea 48 be 07 e7 e2 bd ef d8 00 bd
       0.11276364 -0.19620636 -0.11079221 -0.031456884
0003a0 f4 c1 68 bd 6d 68 01 be 63 69 07 be 9a 79 13 be
       -0.056825593 -0.12637492 -0.13223796 -0.14401856
0003b0 ca 6a fb bc 85 e7 e1 3c a6 ad 2e bb 0c 92 da bd
       -0.03069057 0.027576217 -0.0026653796 -0.106723875
0003c0 d3 22 ac bc 2b 9c 6c bd dd 75 09 be 9e 14 fc bc
       -0.0210127 -0.05776612 -0.13423868 -0.03077155
0003d0 1f 65 86 3d b7 d2 c1 bc 46 06 b1 bc 80 8c 0d bd
       0.06562256 -0.023660047 -0.021609437 -0.03455782
0003e0 5c ad f2 bd a2 3d 82 bd d2 ca c1 bd 32 fc 07 bf
       -0.11849472 -0.06359412 -0.09462513 -0.53119195
0003f0 96 ee ef be d3 96 ea be 2b 22 ac bd 77 23 24 be
       -0.46861714 -0.45818195 -0.084049545 -0.16029154

fc1.bias f4 [64]
000000 e8 87 56 be a6 74 0b 3e 16 af 35 3d 41 e6 6f bd
       -0.20950282 0.13618717 0.044356428 -0.058569197
000010 ff 0d 34 be 66 ea e8 bd 4a 7d 1c bd 4b da d1 bd
       -0.17583464 -0.11372833 -0.038205422 -0.10246714
000020 af 5b 4d 3e 8e 5d c2 bd 2e 02 13 bc 11 4c e4 3c
       0.20054506 -0.094905004 -0.008972688 0.027868303
000030 ef aa fb bc 16 ed 5a be 0c 44 1c be 06 dc db bd
       -0.030721156 -0.21379504 -0.15260333 -0.107353255
000040 77 2a 5f 3c 7c 51 7b bc 62 64 34 be 95 06 db bd
       0.013620964 -0.015339252 -0.17616418 -0.10694615
000050 6c b6 de bc 14 c0 cd bd 14 ca b1 bd 43 7d 5c bd
       -0.027186595 -0.100464016 -0.086811215 -0.053830396
000060 08 5e d9 bd b8 ff 17 be ec f8 f0 bd 14 da 28 be
       -0.10613638 -0.14843643 -0.11766228 -0.1648944
000070 b9 01 51 bd e4 70 75 3d a8 20 6b bd 81 a1 6a bc
       -0.051027033 0.059922114 -0.05740419 -0.014320732
000080 9d 83 04 be 45 a7 9f 3d 98 9e 0e bd 09 ea 33 bb
       -0.12940831 0.07795576 -0.034819216 -0.0027452728
000090 ff fd 59 bd 3f 92 64 bd 39 9d 52 bd d3 02 10 be
       -0.053220745 -0.055803534 -0.05141947 -0.14063577
0000a0 fb e5 c0 bd 03 ab f4 bd 37 67 a4 bc 77 38 28 be
       -0.09418865 -0.119466804 -0.020068748 -0.1642779
0000b0 4c dd e9 bd 8d e2 c8 ba 01 9f 7c 3d 26 a5 13 bd
       -0.11419162 -0.0015326306 0.061675075 -0.03604617
0000c0 4a a9 c9 3d 5b 89 ab 3d 95 76 a6 3e f7 2f c3 bd
       0.098467425 0.08375808 0.32512346 -0.09530633
0000d0 b4 60 26 be 0d 64 55 bd 0c 7c 12 3e 10 71 fa bd
       -0.16247827 -0.05209737 0.14305133 -0.12228596
0000e0 49 13 59 bd 60 d6 d5 3d 51 1b be bd b3 29 d0 bd
       -0.052996907 0.104412794 -0.09282554 -0.101642035
0000f0 8f 0c 15 be 76 67 33 be 31 7d 16 3e 43 e8 e8 bc
       -0.14555572 -0.17519936 0.14696194 -0.028431064

fc2.weight f4 [64, 64]
000000 3f c2 0c 3a db 37 18 be ce 05 af bd 4d 1e 07 3d
       0.0005369521 -0.14865057 -0.08546029 0.03298788
000010 5d dd 74 be da 8e d0 bd 0f 23 89 3d 6f 7b 30 3e
       -0.23912568 -0.10183497 0.0669614 0.17234586
000020 b3 40 ca bd e3 86 27 3e 68 63 9e be 72 6b 13 bd
       -0.09875622 0.16360049 -0.30935216 -0.03599114
000030 3e 94 92 be d4 82 4c be c5 5a e1 bd 99 49 12 be
       -0.28628725 -0.19971782 -0.11003641 -0.14285888
000040 1d 70 b0 be d8 6d 46 bd a9 91 87 bc f1 81 8c 3d
       -0.34460536 -0.0484446 -0.016548948 0.06860722
000050 e3 4f 8b be 2b a0 bb bd f7 2b aa bc 14 16 89 3e
       -0.27209386 -0.09161409 -0.020772917 0.26774657
000060 f4 07 c8 bb b7 5b 43 3e 65 25 c6 3d 8a 1a 2c 3e
       -0.0061044637 0.19077955 0.09675101 0.16806999
000070 51 a3 35 3d 33 03 8b 3d 5c aa e3 3d 9a 90 7e 3d
       0.044345204 0.067877196 0.11116478 0.06214962
000080 bc 6a 0e be dc ae 8d bd 63 65 fc bd f2 87 fb 3d
       -0.13907903 -0.069181174 -0.123240255 0.12281789
000090 55 d5 84 3e 80 07 08 bd 3b b5 d9 bc de 62 dd be
       0.2594401 -0.033210278 -0.026575675 -0.43239492
0000a0 1b 81 32 bd 3d 57 8b be 63 98 e9 3d 16 c1 85 3e
       -0.043580156 -0.27214995 0.114060186 0.26123875
0000b0 fc 7a e8 3d 79 09 f9 bd b0 9e 12 be 13 76 a2 3d
       0.113515824 -0.1216001 -0.14318347 0.07932677
0000c0 6a 97 6b be c0 f4 d1 3d 0b be 8f be aa f5 33 bc
       -0.23006979 0.102517605 -0.2807468 -0.010983864
0000d0 73 08 ed 3d e8 6c 19 3e aa 45 87 bd fb a0 0f 3e
       0.11573877 0.1498295 -0.06605084 0.14026253
0000e0 c9 2e f3 3d 5f 51 95 be 6c af 52 bc 5c a0 9f 3d
       0.11874158 -0.29163644 -0.012859207 0.07794258
0000f0 2f 67 e4 3d 7d f2 d3 3d 0f eb 80 be 04 77 15 be
       0.11152493 0.10348985 -0.25179335 -0.14596182
000100 60 b8 ec 3b 8d a9 f9 bd 5c 82 5b 3c 28 59 e4 bc
       0.0072241277 -0.12190542 0.013397779 -0.027874544
000110 6a 8e b4 bd d0 2f 85 3e 20 71 df 3d d1 c3 8e bd
       -0.08816226 0.2601304 0.10910249 -0.06970943
000120 1a 08 80 bd c7 af ab bd a1 6a 93 be 10 46 c2 bd
       -0.06251545 -0.08383136 -0.2879229 -0.094860196
000130 d2 65 36 be ae 0d e3 3d a4 4e 25 3e 78 72 c9 bd
       -0.17812279 0.110865936 0.1614328 -0.09836286
000140 45 14 9e bd fa c4 23 3e 1e 55 27 3e 93 02 86 3e
       -0.0771871 0.1599311 0.16341063 0.2617384
000150 81 8d 05 be 6c b2 0b 3e 2f ed 5d 3e 85 46 82 be
       -0.1304226 0.13642281 0.2167251 -0.25444427
000160 21 37 5d 3d df 2b 84 be 13 5a 0d be 4a f5 34 3d
       0.054007653 -0.2581472 -0.13803892 0.04417924
000170 14 dc 92 be 43 25 c1 3b 45 3e e7 bd 7c 47 cb be
       -0.2868353 0.0058943345 -0.11291174 -0.39702976
000180 c4 ac 9d 3e 00 ea b5 bd 45 01 ca 3d 5b df 31 be
       0.30795872 -0.088825226 0.098635234 -0.1737036
000190 f2 a0 0c 3d aa 20 4e bd 41 fe 69 be 80 20 51 be
       0.034333177 -0.05032412 -0.22850896 -0.20422554
0001a0 5d a7 7f be 91 e0 05 3e f8 f6 6d 3d 00 9b 4b 3d
       -0.24966188 0.13073947 0.058096856 0.049708366
0001b0 e6 54 38 3e 40 b8 3f 3d 38 7c 1c be d1 77 44 be
       0.18001136 0.046806574 -0.1528176 -0.19186331
0001c0 f6 c5 20 be 27 f1 54 be c6 d4 96 be a6 bd cc 3d
       -0.15700516 -0.20795117 -0.29459208 0.0999711
0001d0 58 7e 1c 3e 24 34 05 be f1 08 00 be 93 87 7d be
       0.15282571 -0.13008171 -0.12503411 -0.24758749
0001e0 06 19 35 3d 28 29 2a 3d 28 d0 4f be be 86 85 3c
       0.044213317 0.041543156 -0.20294249 0.016299602
0001f0 ad cb 83 3d ec 17 96 be 76 6d 49 bd 83 37 a1 be
       0.064353324 -0.29315126 -0.049176656 -0.31487665
000200 89 8c 17 be 60 ce 6a be d4 4c 99 3e 10 97 65 be
       -0.14799704 -0.22930288 0.29941428 -0.22420907
000210 e6 5b e3 3b be bd 24 3e 51 63 a8 3e 75 ed c3 3d
       0.0069384454 0.16088006 0.32888272 0.09566776
000220 3c 9a 90 bd 83 1b 92 3e bd f5 c3 bd 30 62 26 3e
       -0.07060668 0.28536615 -0.09568355 0.16248393
000230 cd 5a b4 be 1b b1 0a bc 33 12 99 bd 92 3f a2 3d
       -0.35225525 -0.008465077 -0.07474174 0.07922281
000240 52 f6 4e 3e 7b 7a d1 3d 67 5a 14 bc 6d 17 9b bc
       0.20211151 0.102284394 -0.009054757 -0.018932069
000250 c3 79 2f 3c e6 f7 22 3d 1c f7 99 3d 86 95 0e be
       0.010710183 0.039787196 0.075178355 -0.13924226
000260 10 14 72 3c ea 3b 13 bf 0a 4b 5f 3d 1c 17 29 bb
       0.014775291 -0.57513297 0.054514922 -0.0025801128
000270 54 db 7f 3e 77 41 64 bd d6 73 67 be 47 f3 40 3d
       0.24986011 -0.055726495 -0.22602782 0.047107007
000280 9d 2d 52 be 51 e0 0d 3e d3 3b 71 bd 4b 13 fa bd
       -0.20525213 0.13855101 -0.058894943 -0.12210711
000290 cd c9 9f 3d f8 0a 8e bd 0b 0d 20 bd 76 93 b1 bd
       0.07802162 -0.06935686 -0.03907494 -0.08670704
0002a0 4a bb 7a 3e 95 71 01 3e 59 ba c5 bd ea b2 13 be
       0.24485508 0.12640984 -0.096546836 -0.14423719
0002b0 77 4f ca 3d 5e 82 dc bb 1d a9 97 bd d5 5d 09 3e
       0.09878438 -0.006729408 -0.07405303 0.134147
0002c0 48 35 19 be 4a e8 e7 3c b0 2c 6f be 6d 87 67 be
       -0.14961731 0.028309006 -0.2335689 -0.22610255
0002d0 06 32 83 be 2d 54 be bc b4 8a 2c bb 98 6e f6 bd
       -0.25624102 -0.023233498 -0.002632779 -0.12032813
0002e0 0e cf b6 3d f0 84 62 be 86 55 1c 3e 05 c9 8c bc
       0.08926211 -0.22121024 0.15267 -0.017185697
0002f0 ea c9 e7 bd cb f5 60 3e 23 3d db be 0c 34 39 3d
       -0.11317809 0.21968763 -0.4282008 0.04521565
000300 46 0c c3 3d 76 98 ca be de 26 b3 be d7 5e ce 3d
       0.09523825 -0.39569443 -0.3499059 0.10076683
000310 83 f1 8e be 27 46 8a be 10 91 30 3e 9d 2d 2a 3e
       -0.27918634 -0.27006647 0.17242837 0.16618963
000320 d6 36 16 bd 89 d4 bb 3d 8b ca 23 be 0c 90 89 bd
       -0.03667339 0.09171397 -0.15995233 -0.06716928
000330 e4 d1 61 be b1 b9 e8 bd 2e 6c 61 bd 67 b3 38 be
       -0.22052723 -0.11363543 -0.05503481 -0.18037187
000340 8d 19 a1 be 2b fb 82 bd 08 5d d4 bc 30 7e 0c be
       -0.31464806 -0.06395563 -0.025923267 -0.13720012
000350 99 16 a3 be b9 a1 b4 bd 6d 4f 92 bd f6 30 4f 3e
       -0.31853178 -0.08819909 -0.071440555 0.20233521
000360 bb d6 96 3c 63 48 56 3e f0 3e d2 3d a1 dc 23 3e
       0.018412938 0.20926051 0.102659106 0.16002132
000370 5b 81 9a 3d de b1 e3 3c 4c b3 64 3e 46 92 7d 3d
       0.07544204 0.027794775 0.22334021 0.061907075
000380 46 58 bb be 3e 6b 95 be 93 52 68 be c4 74 76 3e
       -0.36590785 -0.29183382 -0.2268775 0.2406798
000390 ce d4 e9 3d 4c 94 62 bc fb 7d af 3b ca 26 86 be
       0.114175424 -0.013829302 0.005355594 -0.2620147
0003a0 b1 8b b6 be 4d 63 0c bf e5 10 a3 bc 57 5d f1 3d
       -0.3565345 -0.5483902 -0.019905517 0.11785381
0003b0 24 7c 61 ba fa e5 c1 3d 69 c7 7b be 11 7b 23 3e
       -0.0008601567 0.09467693 -0.24587788 0.15964915
0003c0 a3 2d 3b be df 60 6c 3e 99 57 a1 be 92 80 a9 3d
       -0.18279128 0.23083828 -0.31512144 0.08276476
0003d0 08 c6 0d be 96 dd d6 3d 9c fc 18 3e da 16 16 3e
       -0.13845074 0.10491483 0.14940113 0.14657155
0003e0 1d 41 61 3e e6 46 78 be a5 d3 d7 bc 29 f5 23 3e
       0.21997495 -0.24245796 -0.026346037 0.1601149
0003f0 23 d8 f8 3d a6 91 84 3e 72 fe 42 be 0a 6c da 3d
       0.121506 0.2589237 -0.19042376 0.10665138

fc2.bias f4 [64]
000000 86 c2 08 bc c8 01 31 be 44 80 67 bc a5 9a 90 3c
       -0.008347159 -0.17285836 -0.014129702 0.017651865
000010 0d 60 b7 3d 4e 03 75 bc 38 15 63 bd 13 d3 a0 3d
       0.08953867 -0.014954401 -0.055440158 0.07852759
000020 8e 08 6c 3e 93 04 c4 3b 43 b7 5e 3d f0 52 07 be
       0.23050138 0.0059819906 0.05437399 -0.13215232
000030 50 c2 37 be d4 3c 0a 3e 78 b0 57 bd a7 85 a0 3b
       -0.17945218 0.13499767 -0.052658528 0.004898745
000040 d0 20 85 bc f4 91 94 3c 58 b1 0c 3e e0 44 3f bd
       -0.016250998 0.018136002 0.13739526 -0.046696544
000050 52 a2 0f 3e 33 b7 c3 3d ce 4d 7f 3c 78 b2 eb bd
       0.14026764 0.09556427 0.015582515 -0.115086496
000060 c1 78 4d bd 68 88 2d be 3b b3 e2 bd a3 29 62 bc
       -0.050163988 -0.16946566 -0.11069342 -0.013803872
000070 3f 35 f3 bd 22 b3 21 3e 52 c0 f7 3d cc 37 98 3d
       -0.1187539 0.1579099 0.12097229 0.074325174
000080 56 b5 20 3c 12 34 54 3d a4 a1 91 be 1e a3 5f bd
       0.009808859 0.05180747 -0.28443635 -0.05459892
000090 26 a3 aa 3d fb d4 52 be 18 58 1c be 9a 0c 48 bd
       0.08331899 -0.20589058 -0.1526798 -0.048840143
0000a0 75 6b 71 bd 93 bc 61 bd a9 7f 12 bd 63 c2 80 3c
       -0.05894037 -0.05511148 -0.035766277 0.01571769
0000b0 c7 bb 26 3e 0e d3 08 3e dd 58 b4 3c 70 5d 86 3d
       0.16282569 0.13361761 0.02201503 0.065607905
0000c0 9d a6 56 3e 44 8b 28 bd 57 26 51 bc 7b a4 d8 3d
       0.20961995 -0.04114844 -0.012765489 0.10578247
0000d0 60 cc 1e be d3 59 0d be cb 4e 97 3c 50 d9 5b bc
       -0.1550765 -0.13803796 0.018470189 -0.013418511
0000e0 7e 56 62 bb 50 cb 99 bc 4c 65 d9 bc 69 95 87 3c
       -0.0034536417 -0.018773705 -0.02653756 0.016550737
0000f0 94 32 04 be af 5b 1f bd 67 9b 8a 3c 1e 25 36 3e
       -0.12909919 -0.038905796 0.016919805 0.17787597

fc3.weight f4 [1, 64]
000000 13 58 9c 3d b8 02 7a be 96 fa bc 3d ca b5 01 3e
       0.07633986 -0.244151 0.09227483 0.12667003
000010 4b 0d a9 3c 27 55 95 bc e0 7d f3 bc 3b 2a 67 3d
       0.020636221 -0.01822908 -0.029723108 0.05643676
000020 80 ac e6 3d ac 41 08 be cf 2f 08 3c 62 cc 59 bd
       0.112633705 -0.13306302 0.00831218 -0.05317343
000030 34 c4 a8 bd 75 bc 91 be 4b 91 49 3e 5f 86 31 3e
       -0.08240548 -0.28464094 0.19684331 0.17336415
000040 83 8e a9 3c 1d 0f d5 3e 36 c5 94 3d 0f ac 63 3e
       0.020697838 0.41613093 0.072641775 0.22233604
000050 6a ba 84 3d e7 6c 20 3e 29 e3 96 bd c8 6a 32 bd
       0.06480868 0.15666543 -0.07367546 -0.043558866
000060 06 7d 13 bd 65 d7 52 3c 56 0b eb bd a8 ae e2 3c
       -0.036007904 0.012868737 -0.114767715 0.027671173
000070 bd 88 61 bd 31 38 f2 3d f1 ce 7f 3d 9a fe 1f be
       -0.055062044 0.11827124 0.062453214 -0.15624467
000080 5e 55 ba bd e1 46 21 3e c8 be 70 be 76 cc 68 3e
       -0.09098314 0.15749694 -0.23510277 0.22734246
000090 da 85 eb bd 16 0b 8c be 03 14 0f 3d 2a f2 4c 3e
       -0.115001395 -0.27352208 0.034931194 0.20014253
0000a0 17 3e fe bd 20 d9 b9 3d 12 b7 c6 3e 33 f9 e9 3b
       -0.124141864 0.090746164 0.38811547 0.0071403026
0000b0 e5 f3 cc bd 94 2e 71 bd 41 df a4 3d 49 78 be 3d
       -0.10007457 -0.05888231 0.08050395 0.09300286
0000c0 84 3c 1e 3e a4 86 b3 3d 9b 16 b9 3c 2f cd 7b bd
       0.15452772 0.08765915 0.022593787 -0.061474975
0000d0 55 3e 9e 3c 17 cf e5 bc e2 3a 76 be 3a 0f 2c 3e
       0.019316832 -0.02805285 -0.240459 0.16802683
0000e0 86 e2 b7 bd b2 f1 81 3e 41 ae 8d 3d df c8 7d 3d
       -0.08978753 0.2537971 0.06918002 0.061959144
0000f0 86 9a 8e ba 26 17 21 3e 90 ce 12 be 3d 9b bb 3d
       -0.0010879792 0.15731487 -0.1433661 0.09160469
