models_uni/ffnn_uni_model_memory.pth (torch, 44375 bytes, 5 tensors)

fc1.weight f4 [64, 99]
00000000: 6e19 163d 3b08 5fbd 4799 703c a772 05bb
00000010: 4b68 06bd 085f 3dbb 8680 adbd 8017 5fbd
00000020: 1820 fe3d 9141 ffbd adba 84bd db30 d33d
00000030: f00c fe3d 0a31 bc3d 079a bc3c bacc efbb
00000040: c615 9e3d cb86 df3d 783c 4ebe dabd a7bd
00000050: 2988 5a3c 114f 913d 84cc 0bbe 2336 3f3e
00000060: 8a30 7fbd a236 0fbd 4857 053e b6db 79be
00000070: 05ab c43d 48f2 4d3e d67b 023d 3139 143e
00000080: 7970 cc3c 703a 153e 153b e2bc e703 50be
00000090: 4b84 4ebe 3a16 13be c41c 783c 4b43 afbe
000000a0: 4381 97be 3d26 c53b 5c32 753d ae6a 87bd
000000b0: 56fc 533e 5ad2 2f3d b1ce 343d 42f3 de3d
000000c0: 75f4 de3b e7ba 2f3e 1303 103d 1028 913a
000000d0: 9823 67be b878 843d 1324 88bd 22c0 083e
000000e0: 2519 bf3d 5674 a7bd 03ce 2a3d 7fab a83d
000000f0: a2c9 babc d1ff 2f3c 89e9 85bd 5280 213e
00000100: 1953 7a3c 8c32 04be f743 b3bd 909b 31be
00000110: e2a4 3f3e 06e4 64be d5ee 0abd ed4c 133c
00000120: 247b 02be e9c2 393d e473 debd 3771 a0bc
00000130: 4f46 b73e 207e abbd 95f7 20bd b68a 013e
00000140: 0d28 073e adb7 b0bb a4a5 4b3e 906e 20be
00000150: 4864 bb3d d3c5 0bbe 8721 8ebe 01ec 0bbd
00000160: 9cbc 7fbe 28ce f83d aede aebe 0774 133e
00000170: ea51 a8bc 8e60 223d 4179 91bd e8d0 333d
00000180: f258 d7be b2a8 5c3e 59e9 77be 1801 0ebe
00000190: 6650 8bbd 6d26 293e 1a00 043c 0e0d 263e
000001a0: 2814 4f3d 7584 e03c ed07 713e cffe 1d3e
000001b0: fc52 c6bd 3dfd f9bd f2c9 20bd fade 37be
000001c0: 2951 1cbe 6b60 1a3d de58 4a3e 004c 4a3e
000001d0: ac58 0abe 0a24 2d3c f91b 9f3c 0293 fb3c
000001e0: a330 5fbe abdc 3dbd 10e8 223e a439 9d3d
000001f0: a5eb 533c c2fe 2b3e c835 943d 3b49 38be
00000200: 337e 4f3b 3484 43be baf6 fa3c 2328 94bd
00000210: 1e01 093e 1332 6fbe 65e9 7e3e 68cf 813e
00000220: d336 e7bd 393e 30be 0344 01be fb75 dfbe
00000230: 8677 993d e422 3d3e 9953 093e 52f7 f13d
00000240: 9d2d c7bd 7bc7 7fbd c1e7 bebe 9581 d2bc
00000250: 8c09 543c 63c0 133e 3194 46be 7a17 023e
00000260: fd46 6d3b 0073 923d eebc 403d bcf7 80be
00000270: cc32 b8bd d1b9 a23d ad30 2c3e 4a80 013d
00000280: 6e87 d03b b585 023e bd4d 4abc a388 bc3b
00000290: ad60 31be b56e 23be 6695 dbbd ab5e 9fbd
000002a0: c387 22bd 0ea7 19bc 423a 193e 8ace d33d
000002b0: 5215 37be 0ba8 da3d 3567 3bbe d462 033e
000002c0: bef4 b03d 29c1 773c 00ca 5dbc 801f ad3e
000002d0: 8cea 73be e162 24be 1edf 1bbe 3359 023c
000002e0: a102 0fbd b5b5 a5bd fb39 1a3e 48a4 a83d
000002f0: 2b7a cabc efbc 60ba 4e7b e0bd e5f1 873d
00000300: d796 a2bd 1922 3e3c bc2b 963d cdeb 97bd
00000310: 89e5 aebd ce7e 633d 9af8 e4bd 796f 28be
00000320: 97e7 963d 274a c63d 9883 0f3d 224e 4d3e
00000330: 29f5 ab3d 7383 6f3d e295 623d c725 913d
00000340: 31d3 ce3b fa1d 8abd efb1 a03d d5ff d93c
00000350: 5e30 e43d ab5e 543e 490c c33d 93bc fbbd
00000360: 5bdf 65be 9e2e e1bc b457 0e3d bf0b c43d
00000370: b0c6 ddbd bbdd 2abd d7ec 423d ded9 39bd
00000380: e937 21bd 8042 18be 2aac 6b3d 868f a73d
00000390: 5058 bf3b 1be1 f23d ddef a23c 7d79 2e3e
000003a0: 2015 ebbd 5770 c83d a2a9 663e 995f a13d
000003b0: 6989 963d bcc5 85bc 8751 4f3d afc5 c3bc
000003c0: d633 03be 5955 c7bc 66d9 3bbe c31c 33be
000003d0: 7abf 133b c080 7ebd f392 4cbd d7ad 8d3d
000003e0: 9c7c b93d 9e4a a23d 1d0d 82be 77d0 e33d
000003f0: 6204 c5bd 52d1 16be f4ab 39bd 54c8 b5ba
0.036645345 -0.05445121 0.014684982 -0.0020362528 -0.032814305 -0.0028895754 -0.084717795 -0.05446577
0.12408465 -0.12463678 -0.06480918 0.10312053 0.124048114 0.09189041 0.023022665 -0.0073181065
0.07718997 0.109143816 -0.20140254 -0.08190508 0.013338127 0.07095159 -0.13652235 0.18672995
-0.06230215 -0.03496421 0.13021576 -0.2440022 0.09602932 0.20111954 0.03185638 0.14474942
0.024955975 0.14573073 -0.027616063 -0.20313989 -0.20167653 -0.14363948 0.015143577 -0.34231028
-0.29590806 0.0060165212 0.05986248 -0.066121444 0.20701727 0.042925216 0.04414243 0.108862415
0.006804044 0.17161141 0.03515918 0.0011074562 -0.22572172 0.06468338 -0.066475056 0.13354543
0.09330968 -0.08176486 0.041700374 0.08235835 -0.022801224 0.010742144 -0.06538684 0.15771607
0.015278601 -0.12909907 -0.08753198 -0.17344499 0.18715242 -0.22352609 -0.033919174 0.0089905085
-0.12742287 0.045351896 -0.10861948 -0.019585235 0.3579583 -0.08373666 -0.039298613 0.1265057
0.13198872 -0.0053929896 0.19887406 -0.15667176 0.091499865 -0.13649683 -0.27759954 -0.034160618
-0.24974293 0.12148696 -0.34154266 0.1439973 -0.020546872 0.039642863 -0.071032055 0.0439004
-0.42060047 0.21548727 -0.24210109 -0.13867605 -0.06802444 0.16518565 0.008056665 0.16215917
0.050556332 0.02740691 0.2353818 0.15429233 -0.09683797 -0.122065045 -0.03925509 -0.17956153
-0.15265335 0.037689608 0.19760463 0.19755554 -0.13510388 0.010567674 0.019422518 0.030709747
-0.21795897 -0.046353023 0.15908837 0.0767701 0.0129346 0.16796401 0.072368205 -0.17996685
0.0031660914 -0.190934 0.030635227 -0.07234218 0.13379332 -0.23358946 0.2489372 0.2535355
-0.11289754 -0.17211236 -0.126236 -0.436447 0.074935004 0.18470341 0.13410796 0.11814751
-0.09725497 -0.0624461 -0.3728619 -0.025696555 0.012941729 0.14428858 -0.19392468 0.12704268
0.0036205642 0.07150841 0.047055177 -0.25189006 -0.08994064 0.07945598 0.16815443 0.031616487
0.0063638007 0.12746318 -0.012347636 0.005753593 -0.17322035 -0.159602 -0.10721855 -0.07781728
-0.039680254 -0.009378208 0.1496363 0.103421286 -0.17879227 0.10676583 -0.18301089 0.12830669
0.08640431 0.015121737 -0.01353693 0.33813095 -0.23819941 -0.16053344 -0.15221831 0.007955837
-0.034914616 -0.080912985 0.1506118 0.08234459 -0.024716457 -0.0008573075 -0.109610185 0.066379346
-0.07938927 0.011604809 0.073325604 -0.07418022 -0.08539874 0.055540852 -0.111802295 -0.16448773
0.07368391 0.09682112 0.035037607 0.20049337 0.0839637 0.05847497 0.05531872 0.070872836
0.006311797 -0.06743999 0.07846438 0.026611248 0.11142038 0.20739238 0.095238276 -0.12291827
-0.22448485 -0.02748805 0.03475161 0.09572553 -0.10828912 -0.041715365 0.04758915 -0.04537379
-0.03935996 -0.14869118 0.057537235 0.08181672 0.005839385 0.11859342 0.019889766 0.17038532
-0.11478639 0.09787052 0.22525647 0.07879562 0.07350428 -0.016329639 0.05061486 -0.023897974
-0.12812743 -0.02433269 -0.1834465 -0.1749144 0.002254455 -0.062134504 -0.04994483 0.06917923
0.090569705 0.07924388 -0.2540063 0.11123746 -0.096199766 -0.14728287 -0.045330003 -0.0013868907

fc1.bias f4 [64]
00000000: 7680 6bbc 7348 d1bd 9ee3 36be ec7e 95bd
00000010: 8847 89bb 6908 61be 0996 893c 52fa 3dbd
00000020: 54c1 9fbd 8b03 473d 7ea1 18bd 28e7 053d
00000030: 8854 91bd 002b 6d3b 19f3 9fbd 0ee4 a3bd
00000040: 4706 eb3d 9e7e 47bd d95b 7f3c db31 e2bd
00000050: b0f8 cdbc 49b4 c3bd 4616 c8bd 4d81 8dbd
00000060: 0276 d9bd 04ce 4abd 70e1 f9bc a0c9 99bd
00000070: e9bf 83bc b313 86bc 3484 0d3d e019 2c3d
00000080: dfc7 89bd 40f6 03be ccc8 d8bd e01b 02be
00000090: 2034 f43d ea11 7dbe 1a3f d13d b09e 5dbc
000000a0: b5b2 66bd c48f 953d c4a9 efbd 2303 67bd
000000b0: b45f 7d3c b791 1e39 ecdc 7a3d ec78 c0bd
000000c0: c70a 6a3e a404 c33c 5683 90bd a476 cdbc
000000d0: 7554 f6bd 8f34 093e 91dd 5f3d 05b1 01be
000000e0: 7d56 aa3d 2fa7 e1bd 8a5c 7cbd aedb 06bd
000000f0: 327a 1abe edbf 7b3c 47e0 5b3d b238 2fbe
-0.014373889 -0.10218897 -0.17860267 -0.07299599 -0.0041894354 -0.21975864 0.016795175 -0.046381302
-0.07800546 0.048587363 -0.037263386 0.03269115 -0.07096201 0.003618896 -0.07810039 -0.08002482
0.11475807 -0.048704736 0.015585863 -0.110446654 -0.025142998 -0.09555871 -0.09769873 -0.06909428
-0.10618211 -0.049512878 -0.030503005 -0.0750916 -0.01608272 -0.016366815 0.034549907 0.042016864
-0.067275755 -0.12886906 -0.10585174 -0.12705946 0.119240046 -0.24713865 0.10217114 -0.013526604
-0.056322772 0.07302812 -0.11702302 -0.056399476 0.015464712 0.00015122337 0.061245844 -0.09398064
0.22855674 0.023805924 -0.070563 -0.025080986 -0.12027828 0.13398956 0.05465466 -0.12665184
0.083172776 -0.11018216 -0.06161169 -0.032924347 -0.15085676 0.015365583 0.053680684 -0.17111471

fc2.weight f4 [64, 64]
00000000: 8576 50bd 7669 963d bc09 acb9 cb81 593d
00000010: b69b d8bd 20d3 ecbd 5c06 d1bd f8fd df3c
00000020: b48e e63d 746e 54bd 30df f6bd d48f e6bd
00000030: 08f3 b3bc 9019 743c 5be4 16be 46f5 a3bd
00000040: 2c27 45bd e0f3 5b3c d08e 09bd e867 28bd
00000050: aa96 f53d b89f 6abd 4a26 e33d e81a c23d
00000060: 00e2 61bb f64b fb3d e09e a33d bab3 9dbd
00000070: 2822 2bbd 8045 303c 9a36 b5bd de82 f0bd
00000080: f1e7 253d 104f 24bd f8de 75bd 587d 6dbd
00000090: 8204 f9bd 874e ab3c 3993 a03c ca57 c83d
000000a0: cca5 843d d2cc 87bd e000 a1bd b0a9 443c
000000b0: 3c6e 49bd cbf1 9abd 4009 36bb aea3 cabd
000000c0: cac8 0bbe 50dd 413c 3887 ddbc f039 7e3c
000000d0: 2c93 1bbc f880 63bd f089 f13c c0e3 9cbc
000000e0: d486 4dbd 622f f33d b0f3 0a3c c23a a73d
000000f0: 80e4 8f3b dabe bbbd c8ee 5e3d e5ed 63bd
00000100: ebac 7e3c 9549 47bd 5205 553d c3e2 90bd
00000110: dca6 1d3e 51e7 d7bd 1727 663b 9151 10bd
00000120: 36cd 61bc bb85 7fbc d3a3 463d 0d4c b9bb
00000130: 6790 a53c edd2 ebbd 8d3d 303b 7e8b e73d
00000140: 2ca7 443d 55d6 d9bc d943 07bc b0c0 84bc
00000150: b771 90bd 8683 bf3d 369b 86bd 5bbd 46be
00000160: 3052 be3c 28c3 15be 4595 583a cd1d 9f3c
00000170: 97ac 12be 6cd0 733d 53d9 463d 40c1 91bd
00000180: 896f 48be e101 a7bd f68e e6bd 7dab ba3d
00000190: e61f 12bd 74a9 26bd 7fa0 c8bc 0283 94bd
000001a0: 58e3 c53c 34f8 fcbc 81a4 2c3b 9ee1 8f3d
000001b0: eac1 0d3d dbff 783d a1dc 0ebc 6531 973d
000001c0: 5ae4 b33d 9526 d0bd 7443 48bd d6eb 70bd
000001d0: eb13 89bd 5f2f 7d3d a66c a4bc 5628 883d
000001e0: f9cb 07be 5c4e aebc 08cf 14bd 9cb5 03bd
000001f0: 894a 693d 4d9c b43d eb30 dfbd 98f5 46bd
00000200: 5682 8ebe 6751 6c3d 1e6e 9fbd ec44 80bd
00000210: 6a51 89bd d5b0 f43d ec3a 213e 9789 40be
00000220: b5ad 21be 320d 60be 5689 d63d 269b a63c
00000230: 5c47 6b3e e5a5 43be 0985 063e 4d60 953d
00000240: 613b 6abd 2540 1d3d f84a 33bd 5c63 1e3d
00000250: b5b0 84be cea3 acbc 6408 70bd 4748 33bc
00000260: 3068 44bd c270 84be ca2f 9b3b c6f4 1cbd
00000270: 18f0 babd 8d95 12be cd41 90bd c2e8 58be
00000280: bdb1 14be 7a20 853d f4d6 043e 8b5d 053e
00000290: cdf1 553c 6127 733d ac33 98be 0016 1dbc
000002a0: 7a60 743b b2a2 ccbd 20d2 83be 1c6e c4bd
000002b0: 411b 87be 7192 8cbe 69fd d3bd 2792 95be
000002c0: 901e 72bd 3e78 70bd 123f c4bd 99f8 f63d
000002d0: d832 a83d 1bd2 8f3b ec25 1e3e 63d7 9dbd
000002e0: 0fc4 4a3d 1d05 a7bd 91ed ddbd 07f4 e4bc
000002f0: 5d71 213d 7f72 8fbe 57e2 32be fdf7 ecbd
00000300: f47a a7bd 25a4 cabc cd12 b83c f32f f2bd
00000310: b174 2cbd 5ed7 e0bd f864 f3bd 2ce1 f2bc
00000320: 9007 183e 1194 89be 90a7 9fbd 9742 bebc
00000330: 8f03 71be c417 1b3e fa44 b8bc 4a8a 2dbe
00000340: e429 373e 454e 84bd 169d 37be f239 01bd
00000350: 345a 7f3d 2958 75be 6b79 553b 405b b5bd
00000360: c30c ac3d e450 a3bd 2765 063e d902 38be
00000370: 3460 18be 3112 fb3c d8fe 893d c189 683d
00000380: 5011 43be 69e2 da3d 8648 883e a3bb c3bd
00000390: 4e2c 12be bec8 bbbe 71ce 6f3e a55d 893d
000003a0: be3a 8abc 02b8 4abe aa8f abbd 29ec 28bd
000003b0: f4c2 66bd ba69 cfbd 7f3c 4abd dc95 79be
000003c0: c775 30be 3ccf 26be 6a2b b9bd 7427 8fbd
000003d0: ce97 57be 450a adbe dc5e d83c 3aa6 993d
000003e0: 9f0f 9abe 7b2c 0ebe e359 9a3e 97fe d0bd
000003f0: 125c c8bd c133 0e3e 439c 4ebd d815 80be
-0.05089428 0.07344334 -0.0003281365 0.053102296 -0.105765745 -0.115637064 -0.10206291 0.027342781
0.11257687 -0.05186315 -0.120542884 -0.11257902 -0.021966472 0.014898673 -0.14735548 -0.080057666
-0.04813306 0.013424844 -0.033583462 -0.041114718 0.119916275 -0.057281226 0.110912874 0.09477788
-0.0034466982 0.12270348 0.079892874 -0.07700296 -0.04178062 0.010758758 -0.08848305 -0.11743711
0.0405044 -0.040114462 -0.060027093 -0.057980865 -0.12159063 0.020911468 0.019601451 0.097823694
0.06476936 -0.06630863 -0.07861495 0.012003347 -0.049177393 -0.075656496 -0.002777651 -0.09894501
-0.13650814 0.01183255 -0.027042016 0.015516743 -0.009495538 -0.055542916 0.029484719 -0.019151568
-0.05017741 0.11874272 0.008480951 0.08165504 0.004391253 -0.091672614 0.05442694 -0.055646796
0.015544157 -0.048654158 0.052007027 -0.07074501 0.15395683 -0.10542167 0.0035118514 -0.035234038
-0.013781836 -0.015595849 0.04849608 -0.005654818 0.020210458 -0.1151484 0.0026892156 0.11305903
0.04801099 -0.02659146 -0.008255922 -0.016205162 -0.070529394 0.09351258 -0.06572573 -0.19408171
0.02323255 -0.14625227 0.0008261989 0.01942339 -0.1432365 0.05952494 0.0485471 -0.07116938
-0.19573797 -0.08154655 -0.112577364 0.0911474 -0.035674952 -0.040688947 -0.024490593 -0.0725155
0.024156258 -0.030880071 0.002634317 0.07025455 0.03460876 0.060790878 -0.008719594 0.07382468
0.08783789 -0.10163609 -0.048892453 -0.05881866 -0.06693252 0.061812755 -0.020071339 0.066483185
-0.13261403 -0.021277599 -0.036330253 -0.032155618 0.056955848 0.088188745 -0.10898002 -0.04857406
-0.27833813 0.05769482 -0.07784675 -0.06263146 -0.067049816 0.119477905 0.15745133 -0.18802486
-0.1578892 -0.21880034 0.104754135 0.020337652 0.2297644 -0.19106252 0.13136686 0.072937585
-0.057185534 0.03839125 -0.043772668 0.038668975 -0.25916067 -0.021074202 -0.058601752 -0.010942525
-0.047950923 -0.25867277 0.0047359215 -0.03831937 -0.091278255 -0.14314862 -0.070438005 -0.2118254
-0.14520927 0.06500335 0.12972623 0.13023965 0.013058138 0.059363727 -0.29726923 -0.009587765
0.003728895 -0.09991969 -0.2574625 -0.09591314 -0.2638798 -0.27455476 -0.103510685 -0.29213068
-0.059111178 -0.058708422 -0.09582342 0.12059135 0.08212823 0.00438906 0.15444154 -0.077070974
0.049503382 -0.08155272 -0.10836328 -0.027948393 0.039414752 -0.2801704 -0.17469154 -0.115707375
-0.08177748 -0.024736473 0.022469902 -0.11825552 -0.042103473 -0.10978578 -0.11884493 -0.029648386
0.14846635 -0.26870778 -0.07795632 -0.023225112 -0.23536514 0.15145785 -0.022493828 -0.16947284
0.17887074 -0.06460241 -0.17931017 -0.0315494 0.062341884 -0.23959412 0.0032573591 -0.08855295
0.084008716 -0.07974413 0.13124524 -0.17969836 -0.14880449 0.030648323 0.06738061 0.056771997
-0.19049573 0.106877156 0.2661783 -0.09557273 -0.14274713 -0.36676592 0.23418595 0.067073144
-0.016873714 -0.19796756 -0.08377011 -0.041240845 -0.056338266 -0.101275876 -0.0493741 -0.24373573
-0.17232428 -0.16289991 -0.09041484 -0.06989947 -0.21054003 -0.33796898 0.02641242 0.07502408
-0.30090043 -0.13884155 0.30146703 -0.10204809 -0.09783186 0.1388693 -0.05044199 -0.25016665

fc2.bias f4 [64]
00000000: 7568 d3bd fefa fdbd d649 51bd 02d5 383c
00000010: 1ac6 12bd 32b9 a03d b97e 26be bbd8 d13b
00000020: b858 92bc f2db c33c 804c 01be a72c 06be
00000030: 5f6f 1bbd 98fb 83bd 3669 32be 0ba8 87bd
00000040: cf49 0fbe e68c 7abd 8091 fe3c 9ad5 313d
00000050: 03d9 063c 1ea6 5d3c 2a81 193d 7cd8 28be
00000060: aef0 aebd 5078 743c 7b34 1dbd 4605 c0bd
00000070: 87f6 8a3d bb8e 403d d950 13bc bab7 153d
00000080: 57a4 3abc eec4 debd d0e0 a33d 7d5b adbd
00000090: 2036 a83b c50b d2bd dda6 ccbd 3571 b7bd
000000a0: a040 59bd bc47 a83d 152f d6bc 1264 623d
000000b0: b1a8 d63c 636b 59bd f458 12be cc52 3cbd
000000c0: adf2 ac3d 8a5b 3bbd 4b13 743c 83c6 dabd
000000d0: c5fd 8abd d4a8 2dbd 74bb 873d 05a5 d7bd
000000e0: 3056 b23d af8a 0fbe 6055 bbbc fddc ee3c
000000f0: 7a55 9b3d 81af 5abd 9095 94bd 1c66 f0bd
-0.10322658 -0.124013886 -0.051095806 0.011281254 -0.035833456 0.07847823 -0.16259278 0.00640401
-0.01786457 0.023908589 -0.12626839 -0.13102971 -0.03794801 -0.06444472 -0.17422947 -0.066238485
-0.13993 -0.061169527 0.03107524 0.043416597 0.008230451 0.013528375 0.037476696 -0.16488832
-0.08542 0.014921263 -0.038380127 -0.09376006 0.067853026 0.04701112 -0.008991444 0.03655217
-0.011391721 -0.10877405 0.08001864 -0.08464716 0.0051334053 -0.10256151 -0.09992764 -0.089571394
-0.053040147 0.08216807 -0.026145497 0.055271216 0.026203485 -0.053080928 -0.14291745 -0.0459774
0.08444724 -0.045741595 0.014897178 -0.10682394 -0.06786684 -0.042397335 0.06627551 -0.10529522
0.08707845 -0.14017747 -0.022867858 0.02915811 0.07584663 -0.05339003 -0.07255089 -0.11738226

fc3.weight f4 [1, 64]
00000000: 4bc5 3abd 1c60 923d b468 193d bcd2 0c3e
00000010: f130 c8bb 8e44 373e 686d 03bd 27dc e7ba
00000020: 62a1 d63c 1a29 753e e2d9 3d3c d1b0 15be
00000030: d293 663e 68a0 e8bd 578d ce3c 7d34 d73c
00000040: a531 c03d c84a b6bc a079 0cbd bd1c ccbd
00000050: 6a16 2b3e 24f7 183e af09 81bd 1add 92be
00000060: 0973 b7bd 7b0d 313e c20a b2bb bfc8 a73c
00000070: 5234 73bd 8874 d93d 929b c63d f126 b5bb
00000080: 7bd5 afbc fe88 87bd d524 06be ce7f 9d3d
00000090: eaef 5abb 6f4a 2e3e 1124 b03d 0a88 02bc
000000a0: 5bee cc3c cc03 a5bd cb25 a93c c0dc 5f3d
000000b0: f2fc 90bd a434 e9bc bb8a c03b 4952 6dbb
000000c0: 4e60 e53d 09b4 113e 3033 f53d ff21 0d3c
000000d0: 072a e1bc 9e3c 3abc 0940 bd3d 898e 71bc
000000e0: e064 84bd 4a4c 813d 2200 483e a7ef 853e
000000f0: 2de0 b8bd 8c29 0c3b 8dc6 eb3b ed0c 72bc
-0.04559831 0.07147238 0.03745337 0.13752264 -0.00610935 0.17897245 -0.03208676 -0.0017689512
0.0262 0.2394146 0.011587592 -0.14618231 0.22517326 -0.1135872 0.02521388 0.026270146
0.09384469 -0.022252455 -0.03429568 -0.09966419 0.16707769 0.14938027 -0.06300675 -0.28684312
-0.08957488 0.17290299 -0.0054334113 0.020481465 -0.05937607 0.1061793 0.096976414 -0.005528324
-0.0214641 -0.06617926 -0.13099988 0.076903924 -0.003340716 0.17020582 0.08600629 -0.007967005
0.025016 -0.08057365 0.020647904 0.054653883 -0.070794955 -0.028467484 0.005875913 -0.0036212376
0.11200009 0.14228834 0.11972654 0.008614062 -0.02748586 -0.011366991 0.09240729 -0.014743456
-0.06464553 0.06313379 0.195313 0.26159403 -0.09027133 0.0021387069 0.0071953 -0.01477359
