models_uni/ffnn_uni_model_disk write.pth (torch, 44375 bytes, 5 tensors)

fc1.weight f4 [64, 99]
-0.046821896 -0.15652435 -0.36023477 -0.1303826 -0.019148575 -0.08827569 -0.06276176 0.066941366
-0.07827128 -0.08734529 0.07438669 -0.14654496 -0.13406129 0.03446388 -0.031864975 -0.2414034
-0.06435935 -0.10701447 -0.19143169 -0.14039943 -0.13455129 5.298003e-05 -0.06076071 0.06279072
-0.08629073 0.04866726 -0.12459927 -0.11090081 -0.018407395 0.047159456 -0.21990177 -0.04348994
-0.012986884 0.035056394 -0.046385847 -0.111730814 0.11211289 -0.073965564 0.07615268 0.07566774
0.08480186 0.012743402 -0.08473577 0.06090569 0.05900699 0.015754988 -0.105409876 -0.0019567602
-0.03589159 -0.030588303 -0.07377813 -0.22699311 0.03630491 0.12172463 0.0045913756 0.1589509
0.036602594 -0.029643644 -0.06615842 0.1123617 0.044884175 -0.027993629 -0.046261452 -0.0572574
-0.060107112 -0.020384919 -0.121050194 -0.14738187 -0.026856778 -0.38584316 -0.10573131 0.07701473
-0.14482355 0.14016597 0.0013817262 -0.0243015 -0.13383737 -0.13063636 0.055847686 -0.26129156
0.037818465 -0.14785585 -0.22845356 -0.03150502 0.10710453 0.08517791 -0.09759856 -0.13000341
0.13449423 0.005306082 0.06999528 0.029371038 -0.069886565 -0.10472691 -0.05752427 -0.14506173
-0.21892652 -0.2998347 -0.29350284 0.10278259 0.11775833 0.19156007 0.15703057 0.13828231
0.106364556 0.21909173 0.12854157 -0.023421831 0.045714755 -0.04755133 0.109651536 -0.0040612123
-0.10922358 0.02466159 0.21347655 -0.059900958 0.0048339884 -0.064697035 0.09366646 -0.051821202
-0.109179206 -0.12118408 0.016933985 0.07826419 -0.07415422 0.06980295 0.009797572 -0.041171174
0.07034624 -0.013692399 -0.098647125 -0.13520421 -0.11572933 0.105142 -0.046022102 -0.073003225
0.081163 0.03239203 0.025788698 0.021082584 -0.34319082 0.11319735 -0.08996719 -0.034921754
-0.011327792 0.14648218 0.029659739 -0.022576788 0.09594152 0.11861374 -0.16066302 0.0033514444
-0.18370472 -0.08879274 0.051401343 0.060990702 -0.08650622 0.006190286 -0.03993211 0.04586308
-0.0634148 0.14042923 -0.112718105 0.11394913 -0.13172756 -0.21566641 0.11515762 -0.07803022
0.08730842 0.011248255 -0.05449147 0.02667655 -0.027552977 0.0072859535 -0.0029109954 -0.118923485
-0.06034689 -0.13866344 -0.114838 0.17711297 -0.15508606 0.093562365 0.060456 0.044076826
0.0046140226 -0.14314303 -0.008671492 -0.013030236 -0.20909469 0.08682403 -0.037792806 0.019316599
-0.11450345 -0.14589734 0.090860926 -0.24498837 -0.011046157 -0.67308754 -0.15931822 -0.35278913
-0.36644503 -0.2315642 0.089071475 -0.21532038 -0.24733843 -0.07530264 -0.17018232 -0.059189387
-0.13735738 -0.22197883 0.012300069 -0.18141803 0.052163076 -0.05416034 0.13147897 -0.23911476
-0.060833503 -0.34117243 -0.16357018 0.17240614 0.076917924 -0.05292898 -0.12564576 0.058517892
0.08520239 -0.14488508 -0.046151534 -0.013827441 -0.03731702 -0.041817356 -0.018586328 0.06423118
-0.16661409 0.023198513 0.004396651 -0.018971773 0.06469095 -0.11058525 -0.17571048 -0.090886466
0.08643278 -0.1896209 -0.2636118 -0.0074335984 -0.31172314 -0.13215886 -0.14176123 0.07435876
0.002328831 0.026978908 0.1534248 -0.061896995 -0.101530865 -0.26049012 -0.2268295 -0.048778784
00000000: 51c8 3fbd eb47 20be b170 b8be 0483 05be
00000010: 79dd 9cbc e3c9 b4bd 3d89 80bd 8e18 893d
00000020: b14c a0bd 16e2 b2bd 0d58 983d e20f 16be
00000030: 5d47 09be ff29 0d3d d984 02bd 7432 77be
00000040: d6ce 83bd 672a dbbd ab06 44be dec4 0fbe
00000050: d0c7 09be e036 5e38 39e0 78bd 6c98 803d
00000060: 32b9 b0bd 5257 473d e72d ffbd f71f e3bd
00000070: 1bcb 96bc 462a 413d ee2d 61be 8222 32bd
00000080: f1c6 54bc 4b97 0f3d 16ff 3dbd 20d3 e4bd
00000090: 719b e53d 427b 97bd f0f5 9b3d b0f7 9a3d
000000a0: 99ac ad3d b4c9 503c f389 adbd 3f78 793d
000000b0: 50b1 713d 9b10 813c 22e1 d7bd fd3c 00bb
000000c0: 0f03 13bd 5294 fabc fd18 97bd e270 68be
000000d0: 75b4 143d c34a f93d 4073 963b 06c4 223e
000000e0: 9aec 153d 3ad7 f2bc 117e 87bd e41d e63d
000000f0: 78d8 373d e552 e5bc a67c 3dbd bc86 6abd
00000100: e032 76bd 46fe a6bc 2ae9 f7bd 46eb 16be
00000110: bf02 dcbc 3c8d c5be a889 d8bd e6b9 9d3d
00000120: a04c 14be ab87 0f3e 0a1b b53a f013 c7bc
00000130: aa0c 09be 8ac5 05be 8bc0 643d 02c8 85be
00000140: 89e7 1a3d 8667 17be bbef 69be 680b 01bd
00000150: 9f59 db3d c271 ae3d c1e1 c7bd 9d1f 05be
00000160: dbb8 093e a4de ad3b af59 8f3d 889b f03c
00000170: b020 8fbd 107b d6bd 929e 6bbd 108b 14be
00000180: 462e 60be ef83 99be 0146 96be ae7f d23d
00000190: 482b f13d 5328 443e 9fcc 203e e199 0d3e
000001a0: a9d5 d93d 9559 603e 67a0 033e 24df bfbc
000001b0: 653f 3b3d 2fc5 42bd fc90 e03d eb13 85bb
000001c0: 9db0 dfbd 1a07 ca3c 9999 5a3e b55a 75bd
000001d0: 6f66 9e3b e17f 84bd 33d4 bf3d 7842 54bd
000001e0: 5999 dfbd 5c2f f8bd 24b9 8a3c fa48 a03d
000001f0: 2bde 97bd d9f4 8e3d ff85 203c 1ba3 28bd
00000200: b111 903d 1556 60bc 8107 cabd f972 0abe
00000210: 8003 edbd b054 d73d ac81 3cbd b782 95bd
00000220: c938 a63d 81ad 043d d242 d33c 62b5 ac3c
00000230: b5b6 afbe 03d4 e73d b840 b8bd 1d0a 0fbd
00000240: 3498 39bc 6dff 153e fbf8 f23c f5f2 b8bc
00000250: fd7c c43d c3eb f23d d984 24be e8a3 5b3b
00000260: 171d 3cbe f8d8 b5bd 378a 523d 63d1 793d
00000270: 2c2a b1bd e2d7 ca3b da8f 23bd edda 3b3d
00000280: 9edf 81bd aecc 0f3e c0d8 e6bd 295e e93d
00000290: 97e3 06be a8d7 5cbe c2d7 eb3d 4fce 9fbd
000002a0: c2ce b23d 9a4a 383c 7332 5fbd c888 da3c
000002b0: c8b6 e1bc 02bf ee3b 66c6 3ebb 288e f3bd
000002c0: 4d2e 77bd cafd 0dbe 2f30 ebbd 1a5d 353e
000002d0: e1ce 1ebe a09d bf3d b6a0 773d e789 343d
000002e0: 3a31 973b 1694 12be e012 0ebc c57c 55bc
000002f0: eb1c 56be ccd0 b13d a1cc 1abd d83d 9e3c
00000300: c980 eabd 1d66 15be 4b15 ba3d 3bde 7abe
00000310: f1fa 34bc 774f 2cbf 5124 23be c7a0 b4be
00000320: af9e bbbe 2a1f 6dbe 1b6b b63d f27c 5cbe
00000330: 4946 7dbe 4538 9abd 4644 2ebe 9270 72bd
00000340: 6aa7 0cbe 6b4e 63be 3b86 493c a6c5 39be
00000350: f3a8 553d 3cd7 5dbd 6ca2 063e 80da 74be
00000360: 8d2c 79bd 27ae aebe f17e 27be 3c8b 303e
00000370: 2587 9d3d 0fcc 58bd 48a9 00be 75b0 6f3d
00000380: 977e ae3d c15c 14be 6409 3dbd 7e8c 62bc
00000390: bbd9 18bd ad48 2bbd 5b42 98bc a38b 833d
000003a0: e29c 2abe cf0a be3c c811 903b b16a 9bbc
000003b0: b07c 843d 857a e2bd 73ed 33be af22 babd
000003c0: ab03 b13d fb2b 42be 20f8 86be 8b95 f3bb
000003d0: 2d9a 9fbe a754 07be db29 11be 6849 983d
000003e0: 4d9f 183b df02 dd3c 641b 1d3e b487 7dbd
000003f0: 6aef cfbd f65e 85be fe45 68be 43cc 47bd

fc1.bias f4 [64]
0.06416124 0.08070192 -0.02670243 -0.029319165 -0.05615098 -0.019456146 0.041925136 0.024935244
-0.021437373 0.056441687 0.006697647 0.011551302 -0.05345856 -0.022187667 -0.034343928 -0.11202535
-0.05255278 -0.061848424 0.013638804 -0.05022215 -0.16561544 -0.016985008 -0.15367079 -0.018058179
-0.12847808 -0.12690432 0.09134273 -0.042069126 -0.06262571 0.038755924 -0.080149874 -0.05650027
-0.1352918 -0.13837539 0.033642594 -0.07056341 -0.08655289 0.03599626 -0.031184029 -0.14149454
-0.06668049 -0.111098155 0.038718004 -0.06739511 -0.12202669 0.033891194 -0.023905504 -0.04746588
0.003812294 -0.0052812523 -0.048615444 -0.069531865 -0.04324148 -0.02104631 -0.11851043 -0.16871326
-0.12625535 0.018921541 -0.109517746 -0.055394147 -0.06690481 0.040345065 -0.031272843 -0.11500708
00000000: f866 833d 0c47 a53d 0ebf dabc bf2e f0bc
00000010: 92fe 65bd 7f62 9fbc b1b9 2b3d ff44 cc3c
00000020: 6e9d afbc 662f 673d ef77 db3b ac41 3d3c
00000030: 5df7 5abd e9c2 b5bc 38ac 0cbd 8c6d e5bd
00000040: 9541 57bd c654 7dbd 4a75 5f3c beb5 4dbd
00000050: 1897 29be 2524 8bbc e05b 1dbe bfee 93bc
00000060: c28f 03be 35f3 01be e611 bb3d ad50 2cbd
00000070: e941 80bd 88be 1e3d 9e25 a4bd d46c 67bd
00000080: ef89 0abe 47b2 0dbe d1cc 093d 8d83 90bd
00000090: a442 b1bd d070 133d a675 ffbc f2e3 10be
000000a0: c88f 88bd 6e87 e3bd c596 1e3d 7306 8abd
000000b0: 21e9 f9bd 7ed1 0a3d 7ad5 c3bc 956b 42bd
000000c0: aed7 793b 5b0e adbb fd20 47bd b966 8ebd
000000d0: fa1d 31bd 5069 acbc 99b5 f2bd 2bc3 2cbe
000000e0: 1549 01be 5901 9b3c d74a e0bd f9e4 62bd
000000f0: 6405 89bd de40 253d f417 00bd d588 ebbd

fc2.weight f4 [64, 64]
0.06734517 -0.058878604 0.093356684 0.1059925 -0.0959484 -0.193883 -0.052643087 0.030143077
-0.070973806 0.07746259 9.42808e-05 0.12403498 0.029189982 -0.18315761 0.13715948 -0.033426028
0.014168791 -0.06620278 0.048825227 -0.073387176 -0.10725473 -0.090462424 0.03657871 -0.19062538
-0.012583779 0.065571666 -0.088555075 0.021954142 -0.03218461 0.033707377 0.16469273 0.016072275
-0.05194098 0.043092687 0.1288417 -0.042524748 0.07264502 -0.022805955 -0.045445014 -0.08860928
0.062315125 -0.10461903 0.005358054 -0.19851583 0.16950653 0.09605394 0.07238538 -0.04389046
0.0011224146 -0.19764918 -0.12121368 -0.037968744 -0.020821078 -0.076334074 -0.014845497 0.0552115
-0.14913 -0.15185887 0.0685664 -0.26161823 0.18267773 -0.15181242 0.04877825 -0.079984464
0.1384702 0.12817234 -0.032634087 0.12560931 -0.092067964 0.030126348 0.118279405 0.034789942
0.046384603 0.13973343 7.203815e-05 0.036640253 -0.11228815 0.04780106 -0.2171835 0.039180513
0.077302 -0.060095727 0.08161838 -0.1324007 -0.008930562 0.030498644 -0.10278677 -0.024107117
-0.0855182 0.09887933 0.05237359 0.18338312 -0.15293323 -0.022006216 -0.09483122 0.07691369
0.052645456 -0.028176796 0.06147581 0.07758465 -0.04313563 -0.028025093 -0.26418322 0.11248659
0.078010745 -0.13277943 0.083911054 -0.013910652 0.22857934 0.032252304 0.1624502 -0.10938408
-0.10486758 -0.25812906 0.05450814 -0.12951487 0.006276095 0.13467503 0.093593515 0.029557427
-0.12588938 0.12903878 0.039912082 -0.023695806 0.15703043 0.04689349 0.04660247 0.011665125
0.0045295805 -0.0067418367 -0.022208467 -0.096442804 0.026237682 0.07505019 0.07849192 0.062163204
0.08953899 0.024029009 0.012848154 -0.054287557 0.04779683 0.08805502 0.09732185 -0.102344304
0.01503244 -0.072016895 -0.04424359 -0.026365504 -0.086090505 -0.0046948045 -0.028146237 -0.011073992
-0.0303431 -0.021253452 -0.043759957 0.0993882 -0.05483188 -0.03558803 0.002313435 -0.10043408
0.11402252 -0.040303603 0.04952559 -0.106305 0.07042825 0.05734597 0.026211604 0.11090334
-0.077390656 0.09924117 -0.09289638 -0.06267406 0.044494256 0.006098354 0.06004298 -0.111816615
-0.05217633 -0.02850993 -0.09860085 -0.11771187 -0.054089278 -0.076486744 -0.02626796 -0.11512329
-0.09794742 -0.0043502306 -0.109901324 0.12029381 -0.11675502 0.006495863 -0.003869176 0.01171799
0.046796113 -0.068579294 -0.08327683 0.14148793 -0.23056693 0.05137623 -0.027037155 -0.04566098
0.07494546 0.12330627 -0.10923854 -0.107734084 0.06271562 0.19617756 -0.1862555 -0.130503
0.007973526 0.08155915 0.062603645 -0.18146063 -0.11590884 -0.07690346 0.11432069 -0.2407307
-0.003908476 -0.018277446 -0.049154412 0.15991996 -0.014192255 0.123269275 -0.09008094 -0.09004095
-0.062070515 -0.075601496 0.042008344 -0.045131553 -0.061567046 -0.0077196574 -0.007380199 0.09793789
0.2501445 -0.10415855 0.045338206 -0.23540421 0.101037025 -0.08864284 0.14139165 -0.2088837
0.08158333 -0.17992021 -0.059331086 -0.07560063 0.07765852 -0.047246713 -0.024684364 -0.11225318
-0.09932964 0.11526625 -0.048903488 0.15832944 -0.017150657 0.030669456 0.038363725 -0.109495506
00000000: 44ec 893d b12a 71bd ca31 bf3d 9912 d93d
00000010: 9880 c4bd 4489 46be 47a0 57bd 9dee f63c
00000020: b75a 91bd b5a4 9e3d 9eb8 c538 0d06 fe3d
00000030: d41f ef3c ab8d 3bbe 8973 0c3e bbe9 08bd
00000040: 3724 683c 5395 87bd f6fc 473d 044c 96bd
00000050: 5ea8 dbbd 5d44 b9bd 8fd3 153d 4d33 43be
00000060: 322c 4ebc 704a 863d 5d5c b5bd 2cd9 b33c
00000070: 02d4 03bd bf10 0a3d 36a5 283e 01aa 833c
00000080: 11c0 54bd f581 303d 14ef 033e 6e2e 2ebd
00000090: eac6 943d 8ed3 babc 8d24 3abd c878 b5bd
000000a0: 253e 7f3d 8142 d6bd 9d92 af3b bc47 4bbe
000000b0: 1f93 2d3e eeb7 c43d c93e 943d 7cc6 33bd
000000c0: fc1d 933a 8c64 4abe e13e f8bd 1d85 1bbd
000000d0: f790 aabc 0a55 9cbd 873a 73bc 7425 623d
000000e0: 89b5 18be e480 1bbe 8a6c 8c3d d3f2 85be
000000f0: df0f 3b3e b774 1bbe b4cb 473d e5ce a3bd
00000100: 22cb 0d3e 9c3f 033e 52ab 05bd ba9f 003e
00000110: 218e bcbd 88cb f63c 793c f23d e67f 0e3d
00000120: c8fd 3d3d 4816 0f3e 3013 9738 1714 163d
00000130: 54f7 e5bd 0bcb 433d 5a65 5ebe bf7b 203d
00000140: 8350 9e3d f026 76bd 8a27 a73d 0d94 07be
00000150: 7e51 12bc 4bd8 f93c df81 d2bd 4a7c c5bc
00000160: 2b24 afbd 3f81 ca3d b185 563d c9c8 3b3e
00000170: 879a 1cbe 6146 b4bc df36 c2bd ed84 9d3d
00000180: c3a2 573d 06d3 e6bc 0fce 7b3d b3e4 9e3d
00000190: fdae 30bd e194 e5bc 0643 87be 5f5f e63d
000001a0: 19c4 9f3d 55f7 07be 8fd9 ab3d 81e9 63bc
000001b0: b410 6a3e fe1a 043d 5859 263e c304 e0bd
000001c0: d0c4 d6bd 7e29 84be ed43 5f3d 8c9f 04be
000001d0: b3a7 cd3b 40e8 093e f5ad bf3d 6b22 f23c
000001e0: 25e9 00be be22 043e da7a 233d b51d c2bc
000001f0: 96cc 203e 6313 403d 3be2 3e3d 151f 3f3c
00000200: e06c 943b a0ea dcbb 88ee b5bc ce83 c5bd
00000210: 68f0 d63c eab3 993d 5fc0 a03d d89e 7e3d
00000220: 3860 b73d 7cd8 c43c 1081 523c a15c 5ebd
00000230: 9cc6 433d 3156 b43d ae50 c73d e499 d1bd
00000240: a04a 763c 987d 93bd c438 35bd 78fc d7bc
00000250: 3850 b0bd e0d6 99bb f092 e6bc b06f 35bc
00000260: 1892 f8bc b81b aebc a43d 33bd 0a8c cb3d
00000270: 6597 60bd c1c4 11bd 009d 173b 62b0 cdbd
00000280: a484 e93d 6415 25bd 58db 4a3d 70b6 d9bd
00000290: b03c 903d 9ce3 6a3d b8b9 d63c 4a21 e33d
000002a0: fe7e 9ebd f43e cb3d 7540 bebd 425b 80bd
000002b0: 9c3f 363d b3d4 c73b a1ef 753d 1c00 e5bd
000002c0: d9b6 55bd a88d e9bc 3eef c9bd ec12 f1bd
000002d0: b88c 5dbd 15a5 9cbd e82f d7bc c2c5 ebbd
000002e0: a898 c8bd 618c 8ebb f213 e1bd 9a5c f63d
000002f0: 421d efbd 40db d43b 0092 7dbb d0fc 3f3c
00000300: 48ad 3f3d 4d73 8cbd 0b8d aabd 36e2 103e
00000310: bd19 6cbe e26f 523d 067d ddbc 0207 3bbd
00000320: 017d 993d ff87 fc3d 75b8 dfbd b0a3 dcbd
00000330: 0c71 803d c5e2 483e c3b9 3ebe 94a2 05be
00000340: 64a3 023c 7c08 a73d 5736 803d d1d0 39be
00000350: 9d61 edbd 907f 9dbd f720 ea3d 1c82 76be
00000360: ac12 80bb 95ba 95bc 2356 49bd 0fc2 233e
00000370: a286 68bc 9a74 fc3d 5b7c b8bd 6467 b8bd
00000380: a73d 7ebd f5d4 9abd f110 2c3d dddb 38bd
00000390: ba2d 7cbd 2ef5 fcbb 99d5 f1bb a993 c83d
000003a0: f112 803e 1451 d5bd 8eb4 393d cd0d 71be
000003b0: 80ec ce3d 618a b5bd f9c8 103e 9ce5 55be
000003c0: 2915 a73d 013d 38be 2705 73bd 81d4 9abd
000003d0: 6e0b 9f3d c585 41bd dd36 cabc ffe4 e5bd
000003e0: 576d cbbd b610 ec3d 064f 48bd 1d21 223e
000003f0: 897f 8cbc 833e fb3c 4823 1d3d 2e3f e0bd

fc2.bias f4 [64]
0.046928205 0.07934269 -0.10179077 0.095963 0.09791178 -0.09778324 -0.08234195 0.096983224
0.03903065 0.022549137 -0.041965377 -0.005223407 -0.094176784 -0.08332744 -0.09479215 -0.13434246
-0.088585615 0.11729208 -0.082532614 0.077982314 -0.04310541 0.0067660245 -0.0067952266 -0.1103373
-0.11922972 0.11520319 0.0072074183 -0.09393633 0.07651591 0.018613745 0.091515414 -0.056589544
-0.13917279 0.052762788 -0.1147939 -0.0017960042 -0.11342518 0.05552793 -0.080732524 0.07303366
-0.12515554 0.07807307 0.047275558 -0.11032172 0.03252621 -0.13794053 -0.10699855 0.00391435
0.0621549 -0.08126152 -0.11549097 0.083604805 -0.020736739 -0.06138139 0.07740564 0.0009596524
-0.11798826 0.087342575 -0.059702903 -0.03936688 0.032739524 -0.11637096 0.03687376 -0.043290213
00000000: ca37 403d 6c7e a23d ae77 d0bd 4088 c43d
00000010: f985 c83d 9442 c8bd e5a2 a8bd 249f c63d
00000020: 9ade 1f3d f8b8 b83c e3e3 2bbd 1d29 abbb
00000030: c2df c0bd 94a7 aabd 6322 c2bd 1291 09be
00000040: 606c b5bd d436 f03d dc06 a9bd 31b5 9f3d
00000050: 4c8f 30bd 87b5 dd3b 7eaa debb 86f8 e1bd
00000060: b62e f4bd a6ef eb3d 352c ec3b b161 c0bd
00000070: 60b4 9c3d da7b 983c 6f6c bb3d 70ca 67bd
00000080: 5083 0ebe cb1d 583d 1019 ebbd e767 ebba
00000090: 764b e8bd 4171 633d 1857 a5bd ac92 953d
000000a0: c628 00be c6e4 9f3d 04a4 413d 5bf0 e1bd
000000b0: 343a 053d 4840 0dbe 0e22 dbbd f343 803b
000000c0: 2396 7e3d 716c a6bd 8886 ecbd ff38 ab3d
000000d0: 18e0 a9bc 0d6b 7bbd d986 9e3d 2f91 7b3a
000000e0: d4a3 f1bd aae0 b23d 088b 74bd 2a3f 21bd
000000f0: e119 063d e653 eebd f108 173d 1451 31bd

fc3.weight f4 [1, 64]
-0.046277247 -0.111857675 -0.09319599 -0.100174904 -0.025884425 -0.03187231 0.12753999 -0.064485475
-0.017245304 0.18678914 -0.01334786 0.11709782 -0.054368716 0.05489034 -0.021746244 -0.0186352
-0.0074247504 -0.06347776 0.0068907924 0.08817321 -0.05391447 -0.046825845 -0.003511123 -0.08324032
-0.08885014 -0.1260166 0.021993728 -0.016863735 -0.045823958 -0.034113076 -0.09688 0.007946893
-0.09043441 -0.052170083 0.023630047 -0.00051527546 -0.085421935 -0.00911189 0.10672582 -0.014684262
0.04293817 -0.070810564 -0.033554804 0.024201306 0.014419621 -0.041244585 -0.01263828 -0.007833026
0.1848617 0.03375986 0.07453747 -0.053423874 -0.0020005354 0.0020422183 0.09567757 0.08865828
0.027703509 -0.034767155 0.06786573 0.008736766 0.08654231 0.0034066588 0.119799994 0.114281714
00000000: 368d 3dbd a315 e5bd 8add bebd 8028 cdbd
00000010: 930b d4bc 8a8c 02bd d899 023e f610 84bd
00000020: 0646 8dbc a745 3f3e fcb0 5abc fbd0 ef3d
00000030: bbb1 5ebd b1d4 603d 2e25 b2bc d9a8 98bc
00000040: 524b f3bb a100 82bd 28cc e13b 2894 b43d
00000050: 6bd5 5cbd 75cc 3fbd de1a 66bb e779 aabd
00000060: 10f7 b5bd 7f0a 01be 312c b43c d125 8abc
00000070: e7b1 3bbd 27ba 0bbd 0569 c6bd af33 023c
00000080: ad35 b9bd 4cb0 55bd cd93 c13c 8d13 07ba
00000090: b2f1 aebd 094a 15bc 1193 da3d 4296 70bc
000000a0: efdf 2f3d 2105 91bd c370 09bd d141 c63c
000000b0: 4640 6c3c 15f0 28bd ca10 4fbc 1856 00bc
000000c0: 634c 3d3e c747 0a3d 1aa7 983d fed2 5abd
000000d0: 6a1b 03bb bdd6 053b 9af2 c33d 7992 b53d
000000e0: 78f2 e23c 0168 0ebd 30fd 8a3d a724 0f3c
000000f0: 183d b13d 4042 5f3b b359 f53d 880c ea3d
