models_uni/ffnn_uni_model_network received.pth (torch, 44375 bytes, 5 tensors)

fc1.weight f4 [64, 99]
-0.06460385 0.08733576 -0.052585207 0.05955569 0.05380664 0.039345525 0.030346144 0.013378029
0.0039434037 0.04503497 -0.03189635 0.059556436 -0.03609181 0.0260874 0.060584914 -0.050327033
0.0038278268 -0.008726094 0.029100863 -0.058401853 -0.11524934 0.0076378915 0.077082545 -0.033273883
-0.07513195 0.0029086727 -0.13412413 -0.08347004 -0.01810105 -0.03412834 -0.10725941 -0.04965308
-0.11504288 -7.789123e-05 -0.1002983 -0.022936448 -0.006104587 0.050398525 0.05547562 0.028041722
0.03526339 -0.11586899 0.049677093 0.026689472 -0.10783767 0.00776289 -0.081701376 -0.011236809
-0.01436608 0.051642954 0.007689919 0.013919038 -0.0067806533 -0.009556118 0.0044618985 -0.09465861
0.0129771605 -0.0811153 -0.0006880207 -0.0041075465 0.06738784 0.07133069 -0.0995345 0.0044028684
0.049253475 0.03725937 0.019894913 -0.0742039 -0.011427079 -0.004057987 -0.09740466 -0.0039883214
-0.08699191 0.024459003 -0.06754027 -0.052771475 -0.10661542 -0.04625168 0.04439921 -0.057646446
0.057623595 -0.010683685 -0.039502718 0.035759147 -0.05872251 -0.035513043 -0.027433252 -0.032788772
-0.067000575 -0.020292826 0.04783434 -0.015175815 -0.0056772083 0.04370336 0.037620824 -0.0151384175
-0.033065747 -0.048334576 -0.042004522 0.07615602 0.059753925 -0.21602805 -0.113744654 0.006751864
-0.08969838 -0.23137422 -0.183814 -0.23322606 -0.33676612 -0.2990281 -0.019308904 0.043097664
-0.06471394 0.037142843 -0.09840777 0.13841377 -0.13421942 -0.1304088 -0.33168736 -0.25015613
-0.3110642 -0.07611364 -0.18789652 -0.4246895 0.06272769 -0.1503895 -0.30297428 -0.09562134
0.19650501 -0.0063104155 -0.10991869 0.17876835 -0.028792502 -0.1768132 0.11002605 -0.031169347
-0.36174312 0.04990695 0.19052516 -0.020101832 -0.08253041 -0.043895993 -0.22693554 -0.23859917
0.07271779 0.004178752 0.12901369 0.13620597 0.06361806 -0.045650747 -0.18839195 0.06625625
0.03798539 -0.24098662 -0.033445615 -0.1528164 -0.15575396 0.10848669 0.10000825 0.037361916
-0.05416351 0.04451068 0.0034896827 -0.043221217 0.03906777 0.11174068 0.0130409505 -0.15162726
0.10005719 -0.016066084 -0.12091235 -0.090579934 -0.31145537 0.0328609 -0.011246805 0.12505224
-0.025804639 0.08413521 -0.013689706 0.21865618 0.114892475 0.041075464 -0.24610981 -0.06878197
-0.052172035 0.018710064 -0.0962148 -0.14638238 0.01374408 -0.06269978 0.07812878 -0.1244713
-0.000543509 -0.10984143 0.022865294 0.0067728786 -0.13167158 0.03911753 0.09762422 0.007594178
0.12308644 0.06394436 -0.01208521 -0.061947774 0.021908037 -0.007112502 -0.012422543 -0.053589787
0.116795436 -0.057257645 -0.019781178 -0.09455236 -0.0023238307 0.13595769 -0.19597092 -0.015223929
-0.06967006 -0.30042258 0.12221333 0.022250716 -0.06189596 -0.03623854 0.10685038 -0.17301199
0.02086884 -0.05472298 0.033445477 -0.121241175 -0.048248075 0.050877105 -0.09928358 -0.087546594
0.10668961 -0.15819398 -0.016522057 -0.06415037 -0.09139022 0.010947509 -0.03882205 -0.10598978
0.070170574 -0.015833542 0.23121084 0.0057878597 -0.3014025 -0.2807195 -0.05443439 0.10975596
-0.12608258 -0.03026162 -0.026877545 -0.24567819 -0.008059266 0.0962058 -0.14751327 -0.058275767
00000000: 064f 84bd 17dd b23d 9663 57bd abf0 733d
00000010: 5a64 5c3d c628 213d 7a98 f83c 852f 5b3c
00000020: ab37 813b 9776 383d bfa5 02bd 73f1 733d
00000030: 01d5 13bd 3eb5 d53c e327 783d b823 4ebd
00000040: 47dc 7a3b e4f7 0ebc ef64 ee3c c836 6fbd
00000050: d907 ecbd 4747 fa3b 74dd 9d3d 324a 08bd
00000060: c8de 99bd 6e9f 3e3b d657 09be 57f2 aabd
00000070: a748 94bc 29ca 0bbd d2aa dbbd 0761 4bbd
00000080: 9a9b ebbd 8959 a3b8 3269 cdbd 38e5 bbbc
00000090: fd08 c8bb af6e 4e3d 673a 633d c1b7 e53c
000000a0: 5870 103d b94c edbd 357a 4b3d e1a3 da3c
000000b0: ffd9 dcbd d75f fe3b 0d53 a7bd 981a 38bc
000000c0: b55f 6bbc 9087 533d b7fb fb3b ad0c 643c
000000d0: 3e30 debb 4491 1cbc 1e35 923b 60dc c1bd
000000e0: 289e 543c c71f a6bd 4a5c 34ba 9998 86bb
000000f0: a302 8a3d d315 923d bed8 cbbd f045 903b
00000100: 03be 493d 489d 183d a8fa a23c 37f8 97bd
00000110: a538 3bbc ddf8 84bb 187c c7bd 77b0 82bb
00000120: d128 b2bd 3f5e c83c 8e52 8abd e726 58bd
00000130: 2f59 dabd 6772 3dbd f2db 353d ae1e 6cbd
00000140: b806 6c3d 9f0a 2fbc 9acd 21bd 2f78 123d
00000150: 0487 70bd 2076 11bd b3bb e0bc 854d 06bd
00000160: 9937 89bd 243d a6bc f1ed 433d fba3 78bc
00000170: e007 babb 4b02 333d 4b18 1a3d 2007 78bc
00000180: f36f 07bd 7afa 45bd ef0c 2cbd b0f7 9b3d
00000190: 88c0 743d 7536 5dbe f5f2 e8bd be3e dd3b
000001a0: c9b3 b7bd 5ded 6cbe bd39 3cbe d0d2 6ebe
000001b0: 9c6c acbe 361a 99be b52d 9ebc 2d87 303d
000001c0: be88 84bd 1823 183d 038a c9bd 57bc 0d3e
000001d0: d170 09be e289 05be edd2 a9be 7714 80be
000001e0: cf43 9fbe 78e1 9bbd f267 40be e770 d9be
000001f0: 6077 803d b5ff 19be 721f 9bbe 1fd5 c3bd
00000200: 9c38 493e 9ac7 cebb 0d1d e1bd 0d0f 373e
00000210: 41de ebbc 850e 35be 5655 e13d dc56 ffbc
00000220: 6536 b9be 3b6b 4c3d 0719 433e 99ac a4bc
00000230: b405 a9bd 49cc 33bd ca61 68be 5753 74be
00000240: 11ed 943d eaed 883b 2a1c 043e 9479 0b3e
00000250: 2f4a 823d 47fc 3abd d2e9 40be 5bb1 873d
00000260: 9196 1b3d 32c5 76be 45fe 08bd e77b 1cbe
00000270: f77d 1fbe 452e de3d 20d1 cc3d cf08 193d
00000280: 8fda 5dbd d550 363d 29b3 643b bb08 31bd
00000290: 8705 203d 4cd8 e43d b6a9 553c 2d44 1bbe
000002a0: c9ea cc3d 059d 83bc e5a0 f7bd f981 b9bd
000002b0: 1477 9fbe 2799 063d 8544 38bc b20d 003e
000002c0: 4064 d3bc 154f ac3d ca4a 60bc 68e7 5f3e
000002d0: bf4c eb3d bf3e 283d 3604 7cbe 90dd 8cbd
000002e0: 58b2 55bd d945 993c 440c c5bd 43e5 15be
000002f0: da2e 613c be68 80bd fb01 a03d cfea febd
00000300: 467a 0eba 8bf4 e0bd ff4f bb3c 06ef dd3b
00000310: ead4 06be b439 203d 35ef c73d 95d8 f83b
00000320: be14 fc3d 43f5 823d 0b01 46bc f3bc 7dbd
00000330: 7c78 b33c fe0f e9bb ec87 4bbc f780 5bbd
00000340: 7232 ef3d fe86 6abd 230c a2bc aba4 c1bd
00000350: 694b 18bb 7e38 0b3e 9aac 48be c96d 79bc
00000360: 2daf 8ebd fdd0 99be fb4a fa3d 2247 b63c
00000370: 9e86 7dbd dd6e 14bd 5fd4 da3d 0e2a 31be
00000380: 21f5 aa3c 3425 60bd 20fe 083d 4b4d f8bd
00000390: c69f 45bd 8364 503d 3155 cbbd a14b b3bd
000003a0: 1580 da3d 9afd 21be 4459 87bc 4561 83bd
000003b0: cc2a bbbd 2e5d 333c df03 1fbd 2b11 d9bd
000003c0: 97b5 8f3d 58b5 81bc 89c2 6c3e 16a8 bd3b
000003d0: 6e51 9abe 77ba 8fbe 98f6 5ebd bcc7 e03d
000003e0: cb1b 01be 38e7 f7bc 4c2e dcbc 1093 7bbe
000003f0: 030b 04bc 8c07 c53d b80d 17be 92b2 6ebd

fc1.bias f4 [64]
-0.10518035 -0.021118958 -0.031308603 -0.0425872 -0.0954148 -0.19141556 -0.10992492 -0.06093598
-0.027586611 0.0016235111 -0.12019792 -0.1385803 -0.074474685 0.029181262 -0.015757097 -0.028858006
-0.04503235 -0.11644836 -0.1378705 -0.08376447 0.015785078 -0.030607525 0.011950212 -0.05753177
-0.13228273 -0.0029784662 -0.047114454 -0.027030783 -0.13784704 -0.055010457 -0.075984515 -0.08959575
-0.077423684 -0.017712127 -0.06972672 0.047567695 -0.1211217 -0.077143006 -0.18852758 -0.045817062
0.017819092 -0.094620615 -0.035122734 0.0053105764 -0.032094937 -0.11201685 -0.028771019 0.02359689
-0.1189195 -0.04758343 0.0029876116 -0.13003612 -0.013115603 -0.13288786 -0.03263582 0.005096075
0.018491501 -0.041565344 -0.029076826 -0.12385103 -0.046904903 -0.12406858 -0.13845742 -0.17410551
00000000: cc68 d7bd aa01 adbc 733d 00bd ea6f 2ebd
00000010: d668 c3bd 7102 44be 5120 e1bd 0298 79bd
00000020: 51fd e1bc fecb d43a 542a f6bd ffe7 0dbe
00000030: 2f86 98bd 8b0d ef3c 0715 81bc a067 ecbc
00000040: d773 38bd 7a7c eebd ed2d 0dbe b58c abbd
00000050: b54f 813c a2bc fabc d2ca 433c 6fa6 6bbd
00000060: 2075 07be 5f32 43bb 16fb 40bd a96f ddbc
00000070: c627 0dbe a552 61bd c59d 9bbd fa7d b7bd
00000080: 4f90 9ebd 0619 91bc e2cc 8ebd 58d6 423d
00000090: a70e f8bd 27fd 9dbd 600d 41be acaa 3bbd
000000a0: 58f9 913c 74c8 c1bd dbdc 0fbd 5804 ae3b
000000b0: fb75 03bd 1769 e5bd 33b1 ebbc 444e c13c
000000c0: 118c f3bd d8e6 42bd cecb 433b 3028 05be
000000d0: d3e2 56bc c113 08be 23ad 05bd fafc a63b
000000e0: 7d7b 973c 6c40 2abd 8632 eebc 9ca5 fdbd
000000f0: 5b1f 40bd ab17 febd c8c7 0dbe b748 32be

fc2.weight f4 [64, 64]
0.037488952 -0.0032443702 -0.06545775 0.0292065 -0.11894861 0.040103912 -0.039022297 -0.08790943
0.008970231 -0.05125934 -0.049560383 -0.017697364 0.118921444 -0.10680711 -0.10683504 -0.10768594
0.015983492 -0.066713095 0.12241988 -0.06121607 0.04904902 -0.12146446 0.05025065 0.005273655
0.006575763 0.020027056 -0.055829763 -0.009905875 -0.118894175 -0.00715138 0.11279707 0.08047354
-0.03712605 -0.07988061 -0.07639326 -0.022758141 0.09769207 -0.09620598 0.035620824 -0.026481092
-0.015368804 -0.08696933 0.02772203 0.057197586 -0.09259206 -0.07146926 -0.0087681115 0.0048811734
-0.11264452 0.06692478 0.033686116 -0.04495929 -0.088919595 0.055786595 0.012005091 0.07757917
0.1125253 9.524822e-05 -0.08966273 -0.031072333 -0.035039216 -0.038307503 -0.036543503 -0.052715167
-0.024718568 0.0910178 0.056476288 0.022181846 -0.057442706 -0.045856275 0.22182252 0.025009904
0.18569677 0.0779905 0.10865841 0.041158054 0.07074812 -0.02262157 -0.043743007 0.07163773
0.08389704 0.040665008 -0.091690645 -0.20370674 0.07992707 0.014689924 -0.06448871 0.22878647
0.0010270339 -0.034977097 0.11410985 -0.06742586 -0.06417778 -0.04212931 0.07634847 0.0751146
0.07935366 -0.10571831 -0.05787723 0.043889172 -0.06234857 0.023117835 -0.037657205 0.02871055
-0.081271626 -0.09928847 0.3076884 -0.1083802 -0.04875384 0.11583661 0.11575019 0.13265793
0.05404761 0.04415754 0.11016404 0.028366238 0.25368947 0.12804191 0.17614791 0.07522957
-0.028708918 0.0745647 0.06796747 -0.21334592 -0.0054251943 -0.01825347 -0.015349567 0.02013284
-0.08296212 0.21742642 0.011121317 -0.0576037 -0.112470105 0.003335323 0.25625736 0.020039842
0.20694076 -0.02676691 -0.033680543 -0.1328789 0.17537203 -0.05081615 0.0873933 0.106811434
0.09225435 -0.08963406 -0.052179024 -0.12657088 -0.023046026 0.07371039 0.09092148 0.08903389
0.059578247 0.14190121 0.10358613 0.020912698 0.09270831 0.1392714 -0.12958424 0.07923606
0.05727823 0.03575347 -0.055502556 -0.07413162 0.06639838 -0.10624041 0.12585546 0.080578856
0.0113923885 -0.18242683 0.2089794 -0.010666416 -0.0032266197 0.23974821 0.22844633 0.12982613
0.0131727345 0.050684452 0.016906157 -0.09644881 0.18634787 0.1059139 0.12711543 0.017920867
-0.0056471303 0.04596158 0.07930624 0.09103852 -0.07033658 -0.15483972 0.07598407 0.014662132
0.0662943 -0.08710445 0.003380474 0.13460481 0.18135126 -0.13735382 0.017582305 0.06428818
0.03149282 0.045480594 -0.110641286 -0.17850523 -0.118423626 0.0938751 -0.08657244 -0.051088918
-0.0013408588 -0.12716977 0.028261283 -0.22953446 -0.15115762 0.051582552 -0.046181962 -0.11423218
-0.055603873 0.0052307644 -0.012880842 -0.075273454 -0.13185601 0.006467626 -0.02654776 0.0593277
0.09474499 -0.10682672 0.13625896 0.15486994 0.102773905 -0.13526425 0.057812817 0.038642555
-0.14560102 -0.06388126 -0.118882135 0.005725707 0.09267926 -0.04246495 0.0075558117 -0.10511812
0.0993411 0.03419433 0.07697873 0.0021916926 0.03323069 0.012982429 0.06882149 -0.21519595
-0.0065076803 0.0264712 -0.1458785 -0.2258405 -0.040587142 0.05531073 -0.12756142 0.034006167
00000000: 048e 193d 809f 54bb b60e 86bd 7842 ef3c
00000010: 549b f3bd 0044 243d d8d5 1fbd dc09 b4bd
00000020: e0f7 123c 50f5 51bd d4ff 4abd 10fa 90bc
00000030: 168d f33d b0bd dabd 54cc dabd 728a dcbd
00000040: d0ef 823c e0a0 88bd 46b7 fa3d b4bd 7abd
00000050: a0e7 483d 5cc2 f8bd a0d3 4d3d a0ce ac3b
00000060: 8079 d73b c80f a43c c0ad 64bd 404c 22bc
00000070: ca7e f3bd 2056 eabb 2602 e73d 50cf a43d
00000080: 7c11 18bd 7298 a3bd 1274 9cbd 486f babc
00000090: c812 c83d a407 c5bd 24e7 113d e0ee d8bc
000000a0: 70cd 7bbc fa1c b2bd 5019 e33c 0448 6a3d
000000b0: e8a0 bdbd 7a5e 92bd 20a8 0fbc 40f2 9f3b
000000c0: 2cb2 e6bd dc0f 893d 74fa 093d 3c27 38bd
000000d0: 7a1b b6bd 7c80 643d 00b1 443c d4e1 9e3d
000000e0: aa73 e63d 00c0 c738 18a1 b7bd 688b febc
000000f0: 4885 0fbd 54e8 1cbd a4ae 15bd dceb 57bd
00000100: 987e cabc 8a67 ba3d ae53 673d b4b6 b53c
00000110: 0b49 6bbd cad3 3bbd 7125 633e 92e1 cc3c
00000120: 4b27 3e3e 7cb9 9f3d 4d88 de3d 5995 283d
00000130: 64e4 903d df50 b9bc de2b 33bd cdb6 923d
00000140: 36d2 ab3d 5a90 263d 4ec8 bbbd 8098 50be
00000150: ceb0 a33d 02ae 703c a812 84bd 0047 6a3e
00000160: 8a9d 863a 2544 0fbd 6db2 e93d 9216 8abd
00000170: a46f 83bd c98f 2cbd 965c 9c3d afd5 993d
00000180: 2c84 a23d d782 d8bd ad10 6dbd 22c5 333d
00000190: 3761 7fbd 9d61 bd3c 713e 1abd 6332 eb3c
000001a0: bd71 a6bd c157 cbbd 5589 9d3e 70f6 ddbd
000001b0: 1bb2 47bd bf3b ed3d 700e ed3d 7bd7 073e
000001c0: 0761 5d3d 89de 343d af9d e13d 5060 e83c
000001d0: 96e3 813e 6b1d 033e 1e60 343e f611 9a3d
000001e0: f72e ebbc 61b5 983d 8732 8b3d 5a77 5abe
000001f0: d4c5 b1bb 4d88 95bc c07c 7bbc a0ed a43c
00000200: 0be8 a9bd 08a5 5e3e 2f36 363c dbf1 6bbd
00000210: ba56 e6bd 6f95 5a3b 2a34 833e 982a a43c
00000220: 47e8 533e 4746 dbbc 9cf4 09bd 6811 08be
00000230: ba94 333e 9824 50bd 42fb b23d f4bf da3d
00000240: d9ef bc3d 1092 b7bd acb9 55bd cc9b 01be
00000250: 05cb bcbc 79f5 963d 0a35 ba3d 6657 b63d
00000260: 5208 743d 8d4e 113e f724 d43d 1b51 ab3c
00000270: dbdd bd3d 299d 0e3e bbb1 04be 8446 a23d
00000280: 949c 6a3d 3b72 123d a656 63bd 52d2 97bd
00000290: e0fb 873d 9294 d9bd 41e0 003e 8706 a53d
000002a0: 24a7 3a3c 19ce 3abe b2fe 553e 31c2 2ebc
000002b0: b275 53bb 8e80 753e d6ed 693e 24f1 043e
000002c0: 74d2 573c 809a 4f3d c87e 8a3c f486 c5bd
000002d0: fad1 3e3e 63e9 d83d 8c2a 023e c8ce 923c
000002e0: 900b b9bb 3642 3c3d 4f6b a23d 6772 ba3d
000002f0: a00c 90bd 4e8e 1ebe 899d 9b3d 7039 703c
00000300: 4ec5 873d d163 b2bd f18a 5d3b d8d5 093e
00000310: 25b4 393e 7ba6 0cbe c408 903c 85a9 833d
00000320: 9dfe 003d dc49 3a3d e697 e2bd 13ca 36be
00000330: 1688 f2bd 9741 c03d e44c b1bd 9d42 51bd
00000340: c1bf afba cb38 02be 3584 e73c 150b 6bbe
00000350: 10c9 1abe 3a48 533d 4c29 3dbd 90f2 e9bd
00000360: e3c0 63bd d566 ab3b 2b0a 53bc f828 9abd
00000370: 4305 07be 61ee d33b b07a d9bc 9a01 733d
00000380: a909 c23d f8c7 dabd 7887 0b3e 3a96 1e3e
00000390: 207b d23d b682 0abe 22cd 6c3d a847 1e3d
000003a0: 6f18 15be 2ed4 82bd 7a78 f3bd b69e bb3b
000003b0: a0ce bd3d baef 2dbd be96 f73b 2b48 d7bd
000003c0: 5973 cb3d 5b0f 0c3d 06a7 9d3d 80a2 0f3b
000003d0: e71c 083d 41b4 543c 48f2 8c3d 545c 5cbe
000003e0: 613e d5bb 21da d83c 2c61 15be bb42 67be
000003f0: b43e 26bd 818d 623d 769f 02be 0d4a 0b3d

fc2.bias f4 [64]
-0.08726993 0.034617644 0.11267778 0.053757094 -0.11922883 0.074994594 -0.09885192 -0.10733712
-0.056413446 0.021884779 -0.12809806 0.07117167 -0.06478129 -0.116974235 -0.11595951 0.0053409906
-0.014834556 -0.09237474 -0.06349418 0.08233862 -0.021641351 -4.9493225e-05 0.033789106 -0.06369868
-0.12036626 0.046292357 0.015908739 -0.17566665 0.043858163 -0.035021327 0.007486008 -0.066718355
-0.06406777 0.087228455 -0.09421636 -0.044166192 -0.08790063 0.03668709 0.01673323 -0.014260576
0.12024567 -0.11454755 -0.0016264197 0.02990387 -0.012706676 0.07863506 0.063025706 -0.047110014
-0.0034310964 -0.06698206 -0.022372808 0.05972092 -0.08062862 -0.014406703 0.023519808 -0.07694271
-0.020565461 -0.11656484 0.061100554 -0.12271342 -0.10009826 0.08181415 0.09808011 -0.09787388
00000000: 94ba b2bd 3bcb 0d3d 9cc3 e63d 6630 5c3d
00000010: 3f2e f4bd c496 993d e072 cabd 90d3 dbbd
00000020: c911 67bd b547 b33c 232c 03be 74c2 913d
00000030: 0eac 84bd 3090 efbd 2e7c edbd 7a03 af3b
00000040: a30c 73bc f82e bdbd 3d09 82bd 27a1 a83d
00000050: 3449 b1bc f296 4fb8 7266 0a3d 7474 82bd
00000060: 9682 f6bd 0e9d 3d3d 0b53 823c f5e1 33be
00000070: 9ea4 333d 8672 0fbd 304d f53b a2a3 88bd
00000080: f735 83bd d5a4 b23d 82f4 c0bd 9ce7 34bd
00000090: 3f05 b4bd 3445 163d 2014 893c 31a5 69bc
000000a0: 5d43 f63d e897 eabd 972d d5ba f6f8 f43c
000000b0: a92f 50bc 6b0b a13d 9f13 813d 6ef6 40bd
000000c0: 3fdc 60bb e42d 89bd 2e47 b7bc ec9d 743d
000000d0: 9e20 a5bd 180a 6cbc 9dac c03c 2494 9dbd
000000e0: e678 a8bc 8cb9 eebd 9344 7a3d 2c51 fbbd
000000f0: 5100 cdbd 2d8e a73d 3ade c83d 1a72 c8bd

fc3.weight f4 [1, 64]
0.03824392 0.06873197 0.051461738 -0.09088922 0.010950978 -0.1193584 -0.032919675 -0.084125236
0.0018556955 -0.039215174 0.042158958 0.03740657 0.022791812 -0.04080914 -0.01178554 0.01284849
0.032731853 -0.07217398 0.005870207 0.09073943 0.041634757 -0.0078891395 -0.0392631 0.024679858
-0.10912393 -0.01556781 0.033330165 -0.049693134 -0.048261397 -0.018399063 0.0059704906 0.003001984
-0.024171818 0.059681054 0.03678322 0.065602526 -0.08543354 0.04815327 -0.0010151754 -0.05700368
0.06843019 -0.08628552 0.01189642 0.042630605 0.007180212 0.07859513 0.026086826 0.040187743
0.0018744798 -0.08186772 0.020133534 0.112043254 -0.02456444 0.0031632504 0.026932325 0.010999336
-0.0070750723 0.1163747 0.04235225 0.016336039 -0.012185898 0.058981225 0.058625832 -0.029730633
00000000: a8a5 1c3d 59c3 8c3d 8bc9 523d 2124 babd
00000010: bb6b 333c 2d72 f4bd c8d6 06bd da49 acbd
00000020: cf3a f33a 17a0 20bd dfae 2c3d a237 193d
00000030: e5b5 ba3c 7c27 27bd 2318 41bc 7982 523c
00000040: d611 063d f4cf 93bd de5a c03b 98d5 b93d
00000050: 3589 2a3d 7341 01bc 58d2 20bd 6a2d ca3c
00000060: 5e7c dfbd 2110 7fbc 3685 083d 078b 4bbd
00000070: bead 45bd a2b9 96bc 1ba4 c33b efbc 443b
00000080: fa03 c6bc 1f74 743d 00aa 163d 9e5a 863d
00000090: c8f7 aebd 5d3c 453d a20f 85ba b17c 69bd
000000a0: 2125 8c3d 76b6 b0bd 34e9 423c 6e9d 2e3d
000000b0: fc47 eb3b 7cf6 a03d 0ab4 d53c e79b 243d
000000c0: 1bb1 f53a 43aa a7bd 15ef a43c ef76 e53d
000000d0: 5d3b c9bc 894e 4f3b 2ea1 dc3c 8f36 343c
000000e0: 02d6 e7bb dc55 ee3d 8e79 2d3d 28d3 853c
000000f0: 5ca7 47bc 4c96 713d a421 703d a88d f3bc
