models_uni/lstm_uni_model_cpu.pth (torch, 204615 bytes, 9 tensors)

lstm.weight_ih_l0 f4 [256, 1]
0	0x3d02ec3d	0.031963576
1	0x3cdba8f3	0.02681396
2	0x3d53a257	0.05166849
3	0x3eeea5e5	0.46610942
4	0x3e0ac11b	0.13550226
5	0xbd60505a	-0.05476413
6	0x3cee5a07	0.029095663
7	0x3e892d05	0.2679216
8	0x3dc94443	0.09827473
9	0x3e51f9ce	0.20505449
10	0x3e0f8d71	0.140188
11	0x3cde2467	0.027116967
12	0x3dd38a86	0.103291556
13	0x3e24599d	0.1604981
14	0x3bfe7168	0.007764984
15	0xbd8f6403	-0.070014976
16	0x3b5e3bd1	0.0033910165
17	0x3dd8acaa	0.10579808
18	0x3e5f675a	0.21816769
19	0x3e076189	0.132208
20	0xbd2ef6eb	-0.042715948
21	0x3eab461e	0.33451933
22	0x3da56a77	0.08076947
23	0x3ecb5bb4	0.397184
24	0xbc3dda15	-0.011587639
25	0x3d9a6258	0.07538289
26	0x3dbc4db8	0.09194511
27	0x3e23b587	0.15987216
28	0x3e442d3c	0.1915788
29	0x3db0a0b8	0.08624405
30	0xbcf2b2eb	-0.02962633
31	0x3e218bc4	0.15775973
32	0x3e6ba23c	0.23011106
33	0x3e3a06b9	0.18166627
34	0x3e3a5d5e	0.1819968
35	0x3cfafc02	0.030637745
36	0xbc2e4394	-0.010636229
37	0x3ce241fb	0.027619353
38	0x3cf906d8	0.030398771
39	0x3e4542d3	0.19263773
40	0x3d5ac51f	0.053410646
41	0x3caae03e	0.02085888
42	0x3de7e99c	0.11323854
43	0x3b4f1683	0.0031599111
44	0x3df92f4a	0.12167223
45	0x3ee062e2	0.43825442
46	0x3e2149c8	0.15750802
47	0x3df8a24b	0.1214033
48	0x3d2a75c1	0.041616205
49	0x3e2443f5	0.16041549
50	0xbd80de6e	-0.06292425
51	0x3de1c3db	0.110236846
52	0x3d833750	0.064070344
53	0x3dbdedbb	0.09273859
54	0x3d14e7b8	0.036353797
55	0x3ddfb1d3	0.10922589
56	0x3d8270d8	0.063691795
57	0x3e8394e6	0.25699538
58	0x3c9d5c1c	0.01920896
59	0xbd8d393f	-0.068956845
60	0x3e604536	0.21901402
61	0x3e0e314d	0.13885994
62	0x3e5e78f6	0.2172583
63	0xb89e3f49	-7.545815e-05
64	0xb9c2741e	-0.00037089078
65	0x3d14504c	0.03620939
66	0xbd80f03b	-0.0629582
67	0x3e109a13	0.14121275
68	0xbc43bd84	-0.0119470395
69	0x3df0fccc	0.11766967
70	0x3b9717ce	0.004610992
71	0xbcb0936e	-0.021554675
72	0xbd8051a7	-0.06265574
73	0xbdda58a2	-0.106614366
74	0x3c0e1971	0.008673058
75	0xbcd3dab4	-0.025861122
76	0x3d85fa1f	0.065418474
77	0x3dacbac6	0.08434062
78	0x3c13bd94	0.009017367
79	0x3d03aa4b	0.032144826
80	0x3e13705b	0.14398329
81	0x3e05443f	0.13014315
82	0x3cc55450	0.024088055
83	0x3da9d30d	0.08292208
84	0xbe43336d	-0.19062586
85	0x3ceca730	0.028888315
86	0xbe1561dd	-0.14588113
87	0xbd107a68	-0.035272986
88	0xbdcdcab4	-0.10048428
89	0xbcb82e22	-0.022482935
90	0x3e0e1681	0.13875772
91	0xbd2eef10	-0.042708457
92	0x3ded026f	0.1157273
93	0xbd7cd0c9	-0.06172255
94	0x3c904788	0.017612234
95	0xbb6ef1c1	-0.0036460015
96	0xbe5349c2	-0.20633605
97	0xbcb85083	-0.022499328
98	0xbc6c38ef	-0.014417871
99	0x3d742266	0.059603117
100	0xbd57dd90	-0.052701533
101	0x3d90bfd4	0.07067838
102	0x3dbc63ae	0.091987
103	0x3d96cc6c	0.07363209
104	0x3d0c6e0f	0.034284648
105	0xbd5e55ab	-0.054280918
106	0x3e036092	0.12829807
107	0x3dba185e	0.09086679
108	0xbd2a542f	-0.04158419
109	0xbe023fed	-0.12719698
110	0xbe5e6374	-0.21717626
111	0xbdb31655	-0.08744494
112	0x3e22285c	0.15835708
113	0xbdddff24	-0.1083968
114	0x3daf24f4	0.0855197
115	0x3db566e2	0.08857514
116	0x3d46abf4	0.04850383
117	0xbd50096a	-0.050790228
118	0x3caa48f2	0.020786736
119	0x3c25dbf2	0.01012324
120	0x3d0c2a88	0.03422025
121	0xbd28c0c5	-0.041199464
122	0x3e083c7a	0.1330432
123	0x3d573184	0.052537456
124	0x3d935020	0.07193017
125	0x3c1b6ded	0.009486658
126	0x3e09a83b	0.13443081
127	0x3dd282b8	0.10278839
128	0x3e269166	0.16266403
129	0xbe4f7a2d	-0.2026145
130	0x3e774c78	0.24150264
131	0x3e6d78ee	0.23190662
132	0x3ddf32f0	0.108983874
133	0xbde41b0f	-0.111379735
134	0x3e7be1b5	0.24597819
135	0x3e6708c1	0.22561933
136	0xbe5901a2	-0.21192029
137	0xbe545de0	-0.20738935
138	0x3e5cd253	0.21564607
139	0xbe4214f5	-0.18953307
140	0x3dbe61df	0.09296011
141	0x3e5eca32	0.21756819
142	0xbdf6ac97	-0.12044638
143	0x3d33a594	0.04385908
144	0x3d8c1f8a	0.06841953
145	0xbd1f0edb	-0.038832527
146	0x3e851936	0.25995797
147	0x3e0cd238	0.13752067
148	0xbddf8fa1	-0.10916067
149	0x3e6e552b	0.23274677
150	0x3de4acdf	0.11165785
151	0x3e5eb2e5	0.2174793
152	0x3cfa6ddc	0.030569963
153	0x3e4ddbb7	0.20103346
154	0xbe3b2b5f	-0.18278264
155	0x3e4b1db7	0.19835554
156	0x3e6d1801	0.23153688
157	0xbe168813	-0.14700346
158	0x3e24310f	0.1603434
159	0xbe568974	-0.20950872
160	0x3e2a13d3	0.16609125
161	0x3dd434e3	0.1036165
162	0x3dd61310	0.10452855
163	0x3dc8a67a	0.09797378
164	0xbd58aaa0	-0.052897096
165	0xbd4e5cf8	-0.05038163
166	0xbdfe0fad	-0.12405334
167	0x3e4ece8c	0.20195979
168	0xbe486113	-0.19568281
169	0xbde5a33a	-0.112127736
170	0xbd350d54	-0.044202164
171	0xbe6178b5	-0.22018702
172	0x3e5e773c	0.21725172
173	0x3eaa25fb	0.33232102
174	0xbe691d3d	-0.2276506
175	0xbdf87c06	-0.121330306
176	0xbda18a8a	-0.07887752
177	0xbe2053ad	-0.1565692
178	0xbd07daf2	-0.033167787
179	0xbe08b3e6	-0.13349876
180	0xbdd008b8	-0.10157913
181	0x3de87170	0.113497615
182	0xbe4c7e93	-0.19970159
183	0xbe32de79	-0.17467679
184	0x3e22eb71	0.15910126
185	0xbe7dc30b	-0.24781434
186	0x3e6c7391	0.2309096
187	0x3deedb57	0.116629295
188	0x3e5c8542	0.21535209
189	0xbe18490a	-0.14871612
190	0x3e1afd44	0.15135676
191	0xbe237309	-0.15961851
192	0xbc9c9572	-0.01911423
193	0x3da32e75	0.07967845
194	0xbd36dab0	-0.04464215
195	0x3ecc70a2	0.39929682
196	0x3e0087f7	0.12551866
197	0x3d0921a6	0.033479355
198	0x3d4c4000	0.049865723
199	0x3dd63018	0.10458392
200	0x3ba67343	0.0050796582
201	0x3e4ab5d9	0.19795932
202	0x3e2760c4	0.16345507
203	0x3d242c4f	0.04008132
204	0x3c8b03ef	0.01696965
205	0x3dc8140b	0.09769448
206	0xbda80634	-0.08204308
207	0x3dfc807a	0.123291925
208	0x3d163f95	0.03668173
209	0x3e13b5d6	0.14424834
210	0x3e5f7f9d	0.21826024
211	0xbcaf3893	-0.021389281
212	0x3d28c8f7	0.04120728
213	0x3ecb6272	0.39723545
214	0xbdfa7aac	-0.12230429
215	0x3e20e4d0	0.15712285
216	0x3ca194af	0.019724218
217	0x3d035e7d	0.032072533
218	0xbc8fa751	-0.017535837
219	0x3e20b0d4	0.15692455
220	0x3e2572ee	0.16157123
221	0xbe01131a	-0.12604943
222	0xbb7822ae	-0.0037862468
223	0x3b96e5ea	0.0046050446
224	0xbbcf2cb4	-0.0063224677
225	0x3ce2a907	0.02766849
226	0xbd2aa0ad	-0.04165714
227	0x3e4539e9	0.19260372
228	0x3d266743	0.04062582
229	0x3dbb142b	0.09134706
230	0x3db8cb9a	0.09023209
231	0x3e181d75	0.14854987
232	0xbd630ad8	-0.055430263
233	0xbd894ef5	-0.06704513
234	0x3d4d3800	0.050102234
235	0x3e3a29d2	0.18180016
236	0x3e1b7c4f	0.15184139
237	0x3e21e80c	0.15811175
238	0xba429121	-0.00074221386
239	0xbd2d703e	-0.04234337
240	0x3d020df8	0.031751603
241	0x3d1dc6c2	0.03851963
242	0x3d81b3ab	0.06333097
243	0x3dc61a0f	0.09672939
244	0x3dae5577	0.08512395
245	0x3c10a900	0.008829355
246	0xbdc4fa47	-0.09618049
247	0x3e1cfcb1	0.15330769
248	0x3be0dc87	0.0068622264
249	0x3e7c0494	0.24611121
250	0x3e135ace	0.14390108
251	0x3cb46657	0.022021456
252	0x3d07a0db	0.033112388
253	0x3d26bff4	0.040710405
254	0x3e71ac87	0.2360097
255	0x3c99db66	0.018781375

lstm.weight_hh_l0 f4 [256, 64]
0	0x3c97f05f	0.018547235
1	0x3c81cfff	0.01584625
2	0xbdeb0493	-0.11475482
3	0x3cb528ba	0.022114147
4	0x3d6f6c43	0.058452856
5	0x3dc47acc	0.09593734
6	0xbddb6f42	-0.1071458
7	0xbd4f0499	-0.050541494
8	0xbda8b214	-0.08237091
9	0x3e0065f3	0.1253889
10	0xbd9b1cbc	-0.0757384
11	0xba810013	-0.0009841941
12	0x3d29b3ec	0.041431352
13	0xbd94fed2	-0.072751656
14	0x3d10ed65	0.035382647
15	0x3e1bdecc	0.15221709
16	0xbd989dae	-0.0745195
17	0x3dd7f27b	0.10544296
18	0x3d6346b5	0.055487353
19	0xbd86173a	-0.06547399
20	0x3b18959f	0.002328254
21	0xbc9245d7	-0.017855568
22	0x3d95d73e	0.07316445
23	0xbd9251be	-0.07144497
24	0xbc986021	-0.018600525
25	0x3da03911	0.078233846
26	0x3ddc5819	0.10758991
27	0x3dff7b9d	0.12474749
28	0xbdc6e33d	-0.09711311
29	0xbd6c52ad	-0.057696033
30	0x3df0ec5c	0.11763832
31	0xbd9e76ea	-0.07737525
32	0xbd7d552a	-0.061848797
33	0x3d6a70ca	0.05723647
34	0x3c42b8f1	0.011884914
35	0xbc900c8a	-0.017584104
36	0x3de322f2	0.1109065
37	0x3e41b722	0.18917516
38	0xbc2c963a	-0.010533864
39	0x3dabc037	0.083862714
40	0x3dd279bf	0.102771275
41	0x3ddc3c6f	0.10753714
42	0xbddf1ee3	-0.10894563
43	0x3dcc70ac	0.09982428
44	0xbdfcf64f	-0.12351667
45	0xbccce596	-0.025011819
46	0xbd15510e	-0.036454253
47	0xbdf07fcd	-0.11743126
48	0xbd4ba1d5	-0.049714882
49	0xbdd96fc6	-0.10617022
50	0x3dac6c32	0.08419074
51	0xbd95ce7a	-0.07314773
52	0xbddb1bba	-0.10698648
53	0x3d5c3fc3	0.053771745
54	0x3dcca434	0.09992257
55	0xbd5efee5	-0.054442305
56	0xbcd766de	-0.026294168
57	0x3db744a5	0.0894864
58	0x3d873bac	0.066031784
59	0x3d9547bd	0.072890736
60	0x3db4f6c5	0.0883613
61	0x3ddabf69	0.1068104
62	0xbdf5d068	-0.12002641
63	0x3df418cc	0.11918792
64	0xbca0298e	-0.019551065
65	0x3e6424c5	0.22279651
66	0xbe6675bd	-0.22505851
67	0xbc101dd6	-0.008796176
68	0x39eb0f25	0.00044833976
69	0xbd040a8b	-0.032236617
70	0xbe46f3f5	-0.19429
71	0xbe20fcfd	-0.15721507
72	0x3e5d8ebb	0.21636479
73	0xbdc09e6b	-0.09405216
74	0xbe0ab234	-0.13544542
75	0x3e156b3e	0.14591691
76	0xbe81c8c2	-0.2534848
77	0xbd57d287	-0.05269101
78	0x3e041331	0.12897946
79	0xbd26bdce	-0.040708356
80	0x3dd00182	0.101565376
81	0x3e3d9b85	0.18516357
82	0xbe3ae585	-0.18251617
83	0xbc884932	-0.016636465
84	0x3dfe5b90	0.12419808
85	0xbe0f1405	-0.1397248
86	0xbe738721	-0.23782016
87	0xbdafa5b5	-0.08576528
88	0x3d373f87	0.04473832
89	0x39a3dd82	0.0003125482
90	0x3d0a252f	0.033726867
91	0xbda187c5	-0.07887224
92	0xbe3a7933	-0.18210296
93	0x3d7ab65b	0.061209064
94	0x3ce1e3e4	0.027574487
95	0xbd26a5e8	-0.040685564
96	0xbe4b0c2d	-0.19828863
97	0x3d5fb594	0.054616526
98	0x3cb7bf25	0.022430012
99	0xbd9a63be	-0.075385556
100	0x3d511dd4	0.051053837
101	0x3dc4e81e	0.09614585
102	0x3dbec203	0.093143485
103	0xbd90dc07	-0.07073217
104	0x3d84f2e4	0.0649164
105	0x3d9f9c8f	0.07793533
106	0xbe27d40a	-0.1638948
107	0xbb81cf6b	-0.0039614937
108	0xbe35856d	-0.17726679
109	0xbe31231c	-0.1729855
110	0x3e94f884	0.29095852
111	0x3e19b62a	0.15010896
112	0xbe2ffec7	-0.17187034
113	0x3e455b63	0.19273143
114	0xbdafa0b5	-0.08575574
115	0xbe0babf7	-0.13639818
116	0x3dee861f	0.11646675
117	0xbd8fdcd0	-0.070245385
118	0x3e76330c	0.2404291
119	0x3ddfe93a	0.10933156
120	0xbe4c0d1b	-0.19926874
121	0x3cbfe244	0.023423322
122	0xbdc16cb8	-0.094445646
123	0x3baf26cf	0.0053452025
124	0x3ca8592a	0.02055033
125	0x3e3ca413	0.18421964
126	0x3d8a1df0	0.067439914
127	0x3c572f98	0.013133906
128	0xbda9e5fd	-0.0829582
129	0x3e40d4c1	0.18831159
130	0xbe6cc13c	-0.23120588
131	0xbd6293dd	-0.055316795
132	0xbc0d1f11	-0.008613364
133	0xbc0c1aa2	-0.008551272
134	0xbe61a193	-0.22034292
135	0x3ccb81e9	0.02484222
136	0x3e0afc41	0.1357279
137	0x3d798929	0.06092182
138	0xbe4588d1	-0.19290473
139	0xbd4e57e1	-0.050376777
140	0xbe8226a9	-0.2542012
141	0xbe3bc443	-0.18336587
142	0x3e0f8845	0.14016826
143	0xbd9da607	-0.07697683
144	0xbd0f2923	-0.03495134
145	0x3cc5d0e4	0.024147458
146	0xbe1fed0b	-0.15617768
147	0x3d98c66d	0.07459722
148	0x3bc9af6a	0.006154944
149	0xbe3a3f2a	-0.18188158
150	0xbd895e6f	-0.06707465
151	0xbe159b23	-0.14609961
152	0x3d97483d	0.07386825
153	0xbdd72b5d	-0.10506318
154	0x3e3a7d50	0.18211865
155	0xbd1aee2e	-0.037824802
156	0x3c980a5f	0.018559633
157	0x3e351855	0.17685063
158	0xbd72a0e6	-0.059235476
159	0x3c6abb4a	0.01432688
160	0xbe3b6d63	-0.18303446
161	0x3c8be9bf	0.017079232
162	0xbc72a02c	-0.014808696
163	0xbcdc68ab	-0.026905378
164	0xbddf4235	-0.109013
165	0xbd39627d	-0.04525994
166	0x3bde2f41	0.0067805354
167	0xbdaf4e7e	-0.08559893
168	0x3e540bde	0.20707652
169	0x3d21b103	0.039475452
170	0x3c8d2388	0.017228857
171	0x3dc8b58c	0.09800252
172	0xbd639d61	-0.05557001
173	0xbd8ac41d	-0.06775687
174	0x3e5b2246	0.21399793
175	0x3e049606	0.12947854
176	0xbcc10423	-0.023561543
177	0x3e3d2bf5	0.184738
178	0x3dbcbb32	0.09215392
179	0x3cf843ab	0.030305704
180	0x3d4c300f	0.04985052
181	0xbdc5f6a1	-0.09666181
182	0x3dcc1f9d	0.09966967
183	0x3d8e6c0b	0.06954201
184	0xbdac1c37	-0.08403819
185	0x3d956be6	0.072959706
186	0xbe3e2b96	-0.18571314
187	0xbb69bbeb	-0.0035664986
188	0xbc81e2b2	-0.015855167
189	0x3d864b66	0.0655735
190	0xbcc67d25	-0.024229595
191	0x3e13e4d0	0.14442754
192	0xbdeaa72f	-0.11457669
193	0x3c74fa9f	0.014952331
194	0xbd9bfb9a	-0.076163486
195	0xbc71b8ba	-0.014753515
196	0xbde13ba5	-0.109977044
197	0x3dcfd1b5	0.1014742
198	0x3dc44477	0.09583371
199	0x3c42512b	0.011860172
200	0x3dd8273c	0.10554358
201	0x3d8f944e	0.07010709
202	0x3d8d8b98	0.06911391
203	0xbc73c5bd	-0.014878687
204	0x3cbaa326	0.022782873
205	0x3de82fcb	0.11337241
206	0x3dc843e1	0.09778572
207	0x3dce2790	0.1006614
208	0x3b1bb9c5	0.002376185
209	0x3d1145ca	0.035466947
210	0x3df34385	0.11878113
211	0xbbf0f76c	-0.0073537137
212	0x3e571825	0.21005304
213	0xbbed25c4	-0.007237168
214	0xbdccf82d	-0.10008273
215	0xba614d3e	-0.0008594579
216	0x3e201be2	0.15635636
217	0x3e172a48	0.14762223
218	0xbd282c60	-0.041057944
219	0x3d99d308	0.07510954
220	0x3ded4701	0.115858085
221	0x3df3f83b	0.119125806
222	0xbcc0b667	-0.023524476
223	0x3d406afa	0.04697702
224	0xbd07fa17	-0.03319749
225	0x3d3e5bf7	0.046474423
226	0xbdaef8a0	-0.08543515
227	0xbd9349cb	-0.07191809
228	0xbd7e4d34	-0.062085345
229	0x3cdfe819	0.027332352
230	0xbd508785	-0.05091049
231	0x3d245fb2	0.040130325
232	0xbd990d5c	-0.07473251
233	0x3d2687e4	0.04065694
234	0xbe0c34e4	-0.13692051
235	0xbcd1eda3	-0.02562601
236	0x3d920925	0.071306504
237	0x3dc8b69e	0.098004565
238	0x3e1a1099	0.15045394
239	0x3dc3fe28	0.09569961
240	0xbe4b453f	-0.19850634
241	0x3c3d571a	0.011556411
242	0xbdd2bea0	-0.10290265
243	0x3c872b4a	0.016500134
244	0xbd54f65f	-0.05199277
245	0xbd8239aa	-0.06358655
246	0x3dc77226	0.09738569
247	0x3d6f4864	0.058418646
248	0xbdf52564	-0.11970022
249	0xbdc8d925	-0.09807042
250	0x3d2ddd22	0.042447217
251	0x3c57a030	0.01316075
252	0xbc83daf4	-0.016095616
253	0x3d4d9bdc	0.050197467
254	0x3cf8e550	0.030382782
255	0xbd296e84	-0.04136516

lstm.bias_ih_l0 f4 [256]
0	0xbd403466	-0.04692497
1	0xbc64771d	-0.013944414
2	0x3e0fe491	0.14052035
3	0xbca62638	-0.020281896
4	0xbc977200	-0.018486977
5	0xbe0c9862	-0.13730004
6	0x3d9d8d59	0.076929756
7	0xbdc5b3b2	-0.09653415
8	0x3e132c3f	0.14372347
9	0x3e894f07	0.26818106
10	0x3e02b510	0.12764382
11	0x3c8681ef	0.016419379
12	0x3e2c315c	0.16815704
13	0x3d623108	0.05522254
14	0xbdcaf957	-0.09910839
15	0xbd8623a6	-0.06549768
16	0x3d27f17c	0.04100178
17	0xbcfb463c	-0.030673139
18	0x3e478901	0.19485857
19	0xbd0dca16	-0.034616552
20	0x3d61a11d	0.05508529
21	0x3e2c7857	0.16842781
22	0x3de2c571	0.11072815
23	0x3dd2b753	0.102888726
24	0xbd866367	-0.06561928
25	0xbd21d811	-0.039512698
26	0xbcf17c82	-0.029478315
27	0xbd57cbbc	-0.05268453
28	0x3dd13d4c	0.102167696
29	0x3c2fa718	0.010720991
30	0x3cd592f2	0.026071046
31	0x3c6142b9	0.013748818
32	0x3dca49a2	0.098773256
33	0xbdb62ad8	-0.088948905
34	0xbca0ef3f	-0.019645331
35	0x3db9a4a2	0.09064604
36	0xbd841027	-0.06448393
37	0xbdd94594	-0.10608974
38	0x3cf43b96	0.029813569
39	0xbdea879e	-0.11451648
40	0xbb55ee5f	-0.00326433
41	0x3db35caf	0.08757912
42	0xbde2b8f9	-0.11070437
43	0x3d3bdbeb	0.045864027
44	0xbdb7f80c	-0.08982858
45	0x3e296dbf	0.16545771
46	0x3d8f4ed3	0.069974564
47	0xbda75865	-0.08171157
48	0x3d64784e	0.055778794
49	0x3d4f2d3e	0.050580256
50	0xbcdc2b8c	-0.026876234
51	0xbe04fe2a	-0.12987581
52	0x3dc93935	0.098253645
53	0x3be3f72c	0.0069569554
54	0x3aea0020	0.001785282
55	0x3d56b46b	0.052418154
56	0x3db016de	0.085981116
57	0x3e302b41	0.17204
58	0x3d21d09f	0.039505597
59	0xbddcdfd4	-0.10784879
60	0xbde28eae	-0.1106237
61	0x3de7d6db	0.11320277
62	0x3dc52889	0.09626872
63	0xbda6b221	-0.08139444
64	0x3dad082c	0.08448824
65	0xbdd9ca7f	-0.10634326
66	0x3d8a4c1c	0.06752798
67	0xbd775e51	-0.06039268
68	0x3bf4b22f	0.00746753
69	0x3c9d8311	0.019227536
70	0x3e02d416	0.12776217
71	0xbdbc4a7d	-0.09193895
72	0x3dd8d6b2	0.10587825
73	0xbddf1a81	-0.10893727
74	0x3e2ee0f9	0.17078008
75	0x3dae956a	0.08524592
76	0x3e217848	0.1576854
77	0xbdd2898a	-0.1028014
78	0xbd5f9712	-0.05458743
79	0x3caaf5f6	0.020869236
80	0xbe10a8c9	-0.14126886
81	0x3db5ede9	0.088832684
82	0xbdb948e3	-0.09047105
83	0xbdb553c0	-0.08853865
84	0x3d52dc07	0.051479366
85	0x3d72f8bb	0.05931924
86	0xbd3d5af2	-0.04622931
87	0xbdc56d63	-0.096400045
88	0xbcb43c72	-0.022001479
89	0xbdda28f4	-0.106523424
90	0xbd13dc1a	-0.036098577
91	0xbe275d3e	-0.16344163
92	0xbcfd9fa4	-0.030959912
93	0x3cf98eeb	0.030463656
94	0xbd7e8bab	-0.062144917
95	0xbd02cfb3	-0.03193636
96	0x3dcfb0bf	0.101411335
97	0xbda5d0ac	-0.080964416
98	0xbd8f314e	-0.06991826
99	0xbdb4ec62	-0.08834149
100	0xbe00b419	-0.12568702
101	0xbc01b419	-0.007916474
102	0xbdb58e27	-0.08865004
103	0xbd010838	-0.03150198
104	0x3d850eee	0.06496988
105	0xbce54f1c	-0.027991824
106	0xbda100dd	-0.07861493
107	0xbd1c8757	-0.038215008
108	0xbd27e250	-0.040987313
109	0xbd7e999d	-0.062158216
110	0xbdeb4113	-0.11487021
111	0x3d99a0bc	0.07501361
112	0xbe0b5b78	-0.13609111
113	0x3d9491c8	0.07254368
114	0xbe100063	-0.14062648
115	0xbdc41840	-0.09574938
116	0x3da32af1	0.07967175
117	0xbe1c1eda	-0.15246144
118	0xbcc3d3ad	-0.023904646
119	0x3cc371c8	0.023857966
120	0x3bdffd31	0.0068356027
121	0xbc4806ea	-0.01220868
122	0xbd96ba0e	-0.07359706
123	0xbbc2438a	-0.0059284614
124	0xbd014897	-0.031563368
125	0x3e167ce8	0.14696085
126	0xbdd9ae7b	-0.10628983
127	0x3d740b9f	0.059581395
128	0x3d96a5fa	0.07355876
129	0xbd902443	-0.070381664
130	0xbd14b2eb	-0.036303442
131	0x3d402395	0.046908934
132	0x3db788ae	0.089616165
133	0x3d5f6b4a	0.05454568
134	0xbda57de7	-0.080806546
135	0x3dd9d9a4	0.10637215
136	0xbd5698d1	-0.05239183
137	0xbd0791f6	-0.033098184
138	0x3c2ad9fc	0.010427948
139	0xbdbe7270	-0.09299171
140	0xbda77d70	-0.08178222
141	0x3dbe3ad4	0.09288564
142	0xbceccbb0	-0.02890572
143	0x3bb4eebb	0.005521623
144	0x3d0c1906	0.03420355
145	0xbd35c917	-0.044381227
146	0x3da2746f	0.07932364
147	0x3db41af5	0.08794204
148	0xbc28653d	-0.010278043
149	0x3de611a8	0.112338364
150	0xbd6b4565	-0.057439227
151	0x3d33e9bb	0.043924075
152	0x3d820f26	0.063505456
153	0x3c00aa0c	0.007853042
154	0x3cee63fd	0.029100413
155	0x3c33c1d4	0.010971505
156	0xbb8a5059	-0.004221004
157	0x3d8c0ba1	0.068381555
158	0xbd807bae	-0.0627359
159	0xbd899bca	-0.067191675
160	0xbdd4c74b	-0.103895746
161	0x3d750c27	0.059826043
162	0xbdab140d	-0.08353434
163	0x3d656a29	0.056009445
164	0xbd1ad827	-0.037803795
165	0x3d243913	0.040093493
166	0xbcfd2598	-0.030901715
167	0x3d256340	0.040377855
168	0xba25540a	-0.0006306773
169	0xbc32a41b	-0.010903384
170	0xbd3ff892	-0.046867914
171	0x3c159a8d	0.009131086
172	0xbd97ba64	-0.07408598
173	0xbcea30ba	-0.028587688
174	0xbb940510	-0.004517205
175	0x3dd6ba6c	0.10484776
176	0xbd46b6b4	-0.048514083
177	0x3dd23856	0.102646515
178	0xbd84c1c2	-0.06482269
179	0x3c3e15a3	0.011601838
180	0xbd6dd32b	-0.058062714
181	0x3d75e72c	0.060034916
182	0x3c1f37fe	0.009717939
183	0xbdc2e158	-0.09515637
184	0xbd88c4e4	-0.06678179
185	0x3ca0eca0	0.019644082
186	0x3de619a0	0.11235356
187	0xbdc57f6f	-0.09643447
188	0x3d3e8e27	0.046522286
189	0xbda6576a	-0.08122142
190	0xbde3614d	-0.11102543
191	0x3cbe707b	0.023246994
192	0x3d9eca49	0.077534266
193	0x3cbc24f8	0.022966847
194	0x3e2f0fa9	0.17095818
195	0x3dc72fcb	0.09725913
196	0x3cdfce4b	0.027320048
197	0x3d7e8383	0.062137138
198	0xbd833906	-0.06407361
199	0x3e1b00d3	0.15137033
200	0xbab72f5d	-0.0013975907
201	0x3e46b03e	0.19403169
202	0xbac6978a	-0.0015151363
203	0xbb7aaa3e	-0.0038248445
204	0x3dfd29fb	0.12361523
205	0xbd9bf8cd	-0.07615814
206	0xbc193e53	-0.009353238
207	0xbe123ea1	-0.14281704
208	0xbdbed78a	-0.093184546
209	0xbe153474	-0.1457079
210	0x3d96e9ab	0.073687874
211	0x3ddd419d	0.1080353
212	0xbddf9d55	-0.109186806
213	0x3e629daa	0.22130457
214	0xbd8ee225	-0.069767274
215	0x3cd61055	0.026130835
216	0x3cd935c7	0.0265149
217	0xbd8d4fe7	-0.06900006
218	0x3de66613	0.11249938
219	0xbd093bba	-0.033504225
220	0x3dd8ca20	0.10585427
221	0x3bd73c4e	0.006568468
222	0x3dccf479	0.10007567
223	0x3cdb03cd	0.02673521
224	0x3dc1fb5f	0.09471773
225	0xbdbda94e	-0.09260808
226	0xbc9b2721	-0.018939557
227	0x3da94dca	0.0826679
228	0x3cbad70e	0.022807624
229	0xbd495693	-0.04915483
230	0xbd9830a9	-0.07431156
231	0x3d46df8d	0.04855304
232	0xbdab4a51	-0.08363784
233	0xbdabfa23	-0.08397319
234	0xbd65fdf5	-0.056150395
235	0x3e11d7f2	0.14242533
236	0x3e0c886e	0.13723919
237	0x3e1913be	0.14948937
238	0x3cdd1a13	0.026989972
239	0x3d8bbe6c	0.068234295
240	0xbdb36fdd	-0.087615706
241	0xbd908fa9	-0.07058651
242	0xbdff4da7	-0.12465983
243	0xbddf25ed	-0.10895906
244	0x3cfb1f58	0.030654594
245	0xbda9d307	-0.082922034
246	0xbdc184c9	-0.09449155
247	0xbd90c924	-0.070696145
248	0x3e13f604	0.14449316
249	0x3d2e25f5	0.042516667
250	0x3e2599fc	0.16172022
251	0x3c9118e9	0.017712073
252	0x3c2f9c8e	0.010718478
253	0x3e0bc0c1	0.13647749
254	0x3d967cf2	0.0734805
255	0x3d3e2f2e	0.046431713

lstm.bias_hh_l0 f4 [256]
0	0x3d282482	0.04105044
1	0x3dd4bbba	0.103873685
2	0x3d5cf9d4	0.053949192
3	0x3dadf35c	0.08493683
4	0x3cb596b0	0.02216658
5	0x3aae5cb1	0.0013302771
6	0xbd049563	-0.03236903
7	0x3e0aafc6	0.13543615
8	0x3d833dd6	0.06408279
9	0x3e374ec5	0.17901142
10	0x3e173de0	0.14769697
11	0xbe043041	-0.12909032
12	0x3dd9e74c	0.106398195
13	0xbba8ec65	-0.0051551335
14	0xbdf3c5b3	-0.119029425
15	0x3c94046e	0.018068518
16	0xbd84b5c5	-0.06479982
17	0xbe06536f	-0.13117765
18	0x3d8a8e07	0.06765371
19	0x3d76b22d	0.060228515
20	0xbdda2d7c	-0.10653207
21	0x3e3ae740	0.18252277
22	0x3da28682	0.079358116
23	0x3dbf01d3	0.0932652
24	0xbd651f33	-0.055937957
25	0xbc4083d6	-0.011750182
26	0x3d4f32ff	0.050585743
27	0xbd43f0c5	-0.047837038
28	0xbd0b40de	-0.03399741
29	0x3dd1d592	0.102458134
30	0xbddaae72	-0.10677804
31	0xbc82e49a	-0.015978146
32	0x3cc15ed3	0.023604786
33	0x3d14ccff	0.036328312
34	0xbdf0ef07	-0.11764341
35	0x3d2e75e0	0.042592883
36	0xbdd2d02b	-0.10293611
37	0xbe477cc0	-0.19481182
38	0xbd0b027e	-0.033937924
39	0xba9fb174	-0.0012183622
40	0x3c7aae40	0.0153003335
41	0x3ce05c7e	0.027387854
42	0x3c3a8eec	0.011386614
43	0x3d802728	0.062574685
44	0x3deb12df	0.11478209
45	0x3e84444c	0.25833356
46	0xbdab26c8	-0.08357006
47	0xbc96f90d	-0.018429304
48	0xbe291b5c	-0.16514343
49	0x3cbd6526	0.02311952
50	0xbe0c604c	-0.1370861
51	0xbc7572dd	-0.014980999
52	0xbd2a22b1	-0.04153699
53	0xbddfa4ea	-0.10920127
54	0x3e21ae76	0.15789208
55	0xbd80d684	-0.062909156
56	0x3dc41c0a	0.095756605
57	0x3df0982f	0.11747777
58	0x3df551fd	0.11978529
59	0xbcbf5977	-0.02335809
60	0x3dcf4d13	0.101221226
61	0x3e0b5f7c	0.13610643
62	0x3d0f664a	0.03500966
63	0xbc96a0cf	-0.018387226
64	0x3d358f33	0.04432602
65	0xbcfac9ab	-0.03061374
66	0xbd9c94ec	-0.07645592
67	0x3d21a665	0.039465327
68	0x3bdc5c5b	0.006724877
69	0xbdac57af	-0.08415162
70	0x3d8ebea4	0.069699556
71	0x3d6f1097	0.05836543
72	0x3d4ebc3c	0.050472483
73	0x3d45742b	0.04820649
74	0xbc128090	-0.0089417845
75	0xbd32ee84	-0.043684497
76	0x3ddbf272	0.10739602
77	0xbdedb8cd	-0.116075136
78	0xbd084c80	-0.03327608
79	0xbd925b9a	-0.07146378
80	0x3c11767c	0.0088783465
81	0xbde8ea9b	-0.113728724
82	0x3bf14740	0.00736323
83	0x3ca49ae0	0.020093381
84	0xbd805439	-0.06266064
85	0xbd2c01da	-0.041993953
86	0x3d3212c2	0.04347492
87	0xbd3c8655	-0.046026547
88	0xbd4c1582	-0.0498252
89	0xbd2c46bc	-0.042059645
90	0x3d0c9806	0.03432467
91	0xbe281d32	-0.16417387
92	0xbb909174	-0.0044118706
93	0xbdf92a81	-0.1216631
94	0xbe027dbb	-0.12743275
95	0xbd9a2c04	-0.075279266
96	0x3dbfdcd5	0.09368292
97	0x3d49a1fb	0.049226742
98	0xbc9e2bca	-0.01930799
99	0x3d9f7989	0.07786853
100	0xbb300f2f	-0.002686452
101	0xbd8ae569	-0.06782038
102	0x3d8f82fe	0.07007407
103	0x3d4187ab	0.047248524
104	0x3c184fbd	0.009296355
105	0x3d4dfcf1	0.05029005
106	0xbd7e6624	-0.062109128
107	0xbd0fe7c8	-0.035133153
108	0xbd6e1878	-0.058128804
109	0xbc8244a3	-0.01590187
110	0xbdac7e89	-0.08422572
111	0xbc01a2c0	-0.007912338
112	0xbd52c2b6	-0.051455222
113	0x3c5f6bd4	0.013636548
114	0xbde74b5b	-0.1129367
115	0xbda6fda2	-0.08153845
116	0xbd35e936	-0.04441186
117	0xbcfd46fc	-0.030917637
118	0xbd3daca9	-0.04630724
119	0xbc8df381	-0.017328026
120	0x3d84d4d8	0.06485909
121	0xbd625410	-0.05525595
122	0xbd2b1e9f	-0.04177725
123	0x3df3afdd	0.11898778
124	0x3d5f74b5	0.05455466
125	0xbdb96826	-0.09053068
126	0xbda8af66	-0.082365796
127	0xb9f290ca	-0.00046265713
128	0xbd45647c	-0.048191532
129	0x3d9b2b14	0.07576576
130	0xbc3be79e	-0.011468796
131	0xbc4cbbd9	-0.012495958
132	0xbdc2de76	-0.09515087
133	0xbdb7b673	-0.08970346
134	0x3d2e74c9	0.042591844
135	0xbd657276	-0.05601736
136	0x3d86bc8b	0.065789305
137	0x3d24283f	0.040077444
138	0xbcb5f7ab	-0.022212824
139	0xbccf41d4	-0.025299944
140	0x3c15bbbf	0.009139
141	0xbd4dbe98	-0.050230592
142	0x3dc6e273	0.097111605
143	0xbc101c4f	-0.008795812
144	0x3c7db26c	0.015484434
145	0x3d6772d3	0.05650599
146	0xbdd4c96b	-0.1038998
147	0xbdd3eb4a	-0.10347612
148	0x3cfe5b7f	0.031049488
149	0xbdd52bc6	-0.1040874
150	0xbc2728e4	-0.01020262
151	0xbdad0385	-0.08447937
152	0xbd11ab7c	-0.03556393
153	0x3d9f37b9	0.077743
154	0xbc858a69	-0.01630135
155	0x3ce7c88f	0.028293876
156	0xbd28239b	-0.04104958
157	0x3c448489	0.0119944895
158	0x3db632e7	0.088964276
159	0x3d4b6927	0.049660828
160	0xbd972cd4	-0.07381597
161	0xbd537f3c	-0.051635012
162	0x3de37ef6	0.111082
163	0x3b79d564	0.0038121575
164	0xbd379857	-0.044823017
165	0xbc27ab84	-0.010233764
166	0x3c9c9959	0.01911609
167	0x3cd79fe6	0.026321363
168	0x3d1501e0	0.03637874
169	0x3d0a3129	0.03373829
170	0xbd647ded	-0.055784155
171	0xbca8425b	-0.020539453
172	0x3d4a0692	0.049322672
173	0x3c102a01	0.008799077
174	0x3d88935d	0.06668732
175	0xbdb7fd4d	-0.0898386
176	0x3a1608fc	0.00057233847
177	0xbdcc281a	-0.09968586
178	0x3d9099d4	0.070605904
179	0xbd9cdc66	-0.07659225
180	0x3dbf665a	0.09345694
181	0xbc939d7d	-0.018019432
182	0x3d42a34e	0.04751902
183	0x3d84a9ad	0.064776756
184	0x3d4e3d92	0.050351687
185	0xbd4952ff	-0.049151417
186	0xbde1b5ae	-0.11020981
187	0x3da22f0a	0.07919128
188	0x3d9699f4	0.07353583
189	0x3de1676c	0.11006054
190	0x3dc4827b	0.095952
191	0xbc8454ea	-0.016153771
192	0x3dc5aa1f	0.09651589
193	0x3e1c5b11	0.15269114
194	0x3e27d3de	0.16389415
195	0x3df40071	0.11914147
196	0x3da144e2	0.078744665
197	0xbe09c59a	-0.13454285
198	0xb91a2460	-0.00014700135
199	0x3e08b0d2	0.13348702
200	0xbd881ebf	-0.06646489
201	0x3e833dd0	0.25633097
202	0x3cfeccc5	0.031103501
203	0x3d8f750f	0.07004749
204	0xbd0ed377	-0.034869637
205	0xbdc35141	-0.09536982
206	0xbdb717bf	-0.08940076
207	0xbe0c11da	-0.13678685
208	0x3ce8acab	0.028402647
209	0x3d9d3a54	0.07677141
210	0x3da11134	0.07864609
211	0xbcf0a36e	-0.029374804
212	0xbe0437a8	-0.12911856
213	0x3e955c39	0.29171923
214	0x3d7fe9eb	0.06247894
215	0x3e7decb7	0.24797331
216	0xbcf8e8d6	-0.030384462
217	0x3dac7425	0.0842059
218	0x3cc5d06f	0.02414724
219	0xbd5752af	-0.052569088
220	0x3d802ba0	0.06258321
221	0xbd026099	-0.031830404
222	0xbdc51d12	-0.09624685
223	0xbdaa365e	-0.08311151
224	0xbb18269d	-0.0023216375
225	0xbd545533	-0.051839065
226	0x3cfb51a7	0.030678583
227	0x3cfd2881	0.030903103
228	0xbcfe4711	-0.031039746
229	0xbd7304b3	-0.059330653
230	0xbe1bdd29	-0.15221085
231	0xbe102b33	-0.14078979
232	0x3d4d3cd0	0.050106823
233	0x3c2b0c0e	0.010439886
234	0xbbc09264	-0.005876826
235	0x3c10d5f3	0.008840072
236	0x3dc3de88	0.09563929
237	0x3e22c18a	0.15894142
238	0x3e06474b	0.13113134
239	0xbcc643fc	-0.02420234
240	0xbd29bc59	-0.041439388
241	0x3ad69d80	0.0016373843
242	0xbd4a1613	-0.049337458
243	0x3c9b3720	0.018947184
244	0xbdab8c99	-0.08376426
245	0x3c602041	0.013679565
246	0x3bbddbe3	0.005794035
247	0xbd343b48	-0.044001848
248	0x3c26189b	0.010137702
249	0x3e1ee5c8	0.15517342
250	0x3c0d1c8d	0.008612764
251	0x3d6eb2fc	0.05827616
252	0xba75657d	-0.0009361131
253	0xbdb77ab1	-0.089589484
254	0x3d34469d	0.044012655
255	0x3d9ac3e8	0.075568974

lstm.weight_ih_l1 f4 [256, 64]
0	0xbd8048b6	-0.062638685
1	0xbd54552c	-0.05183904
2	0x3d474fd5	0.048660118
3	0xbdce613f	-0.10077142
4	0xbdef2fed	-0.11679063
5	0x3debaae7	0.115072064
6	0xbd1b9616	-0.03798493
7	0xbce09c15	-0.027418176
8	0x3c8d7697	0.017268462
9	0xbc396346	-0.011315173
10	0xbe3c7576	-0.18404183
11	0x3dff87b1	0.12477053
12	0xbdb60f97	-0.08889692
13	0xbd12e035	-0.03585835
14	0x3d8d3d7b	0.06896492
15	0xbdbf4489	-0.09339244
16	0xbc8aa9f1	-0.016926738
17	0x3d910e1d	0.0708277
18	0x3da0f6ae	0.078595504
19	0xbd9f7764	-0.07786444
20	0xbdb6fa5b	-0.0893447
21	0x3df4ae06	0.11947255
22	0xbe4d8180	-0.20068932
23	0xbd5bf491	-0.053700034
24	0xbd97cebc	-0.07412478
25	0xbdee9eb9	-0.11651368
26	0xbd2e968e	-0.04262405
27	0xbdb89680	-0.090130806
28	0x39b37959	0.00034231952
29	0xbc47dd3e	-0.012198744
30	0x3c04abc0	0.008097589
31	0xbd5adb6f	-0.053431924
32	0xbd511b85	-0.051051635
33	0x3da16daf	0.078822486
34	0xbe01e6a0	-0.12685633
35	0xbdf1ab2e	-0.11800228
36	0x3cd460a2	0.025924984
37	0x3ce35854	0.02775208
38	0x3e186728	0.14883101
39	0xbdcf2cc1	-0.10115958
40	0x3e1ab4da	0.15108052
41	0x3dccc4de	0.09998487
42	0xbe2113dd	-0.15730233
43	0xbd2be687	-0.041967895
44	0x3cb31369	0.021859841
45	0x3dbe4cfa	0.09292026
46	0x3d15234b	0.03641061
47	0x3e499a18	0.19687688
48	0xbcf6a00e	-0.030105617
49	0x3defbf3f	0.11706399
50	0xbd63e652	-0.055639572
51	0xbdb5cdd2	-0.08877148
52	0x3e334e89	0.17510428
53	0xbd82cf7b	-0.0638723
54	0x3e438db9	0.19097032
55	0xbd353c69	-0.044247065
56	0xbda35ca7	-0.079766564
57	0x3dc58594	0.09644619
58	0x3c9352ee	0.01798388
59	0xbdebb3e6	-0.11508922
60	0x3d8b10c6	0.06790309
61	0xbcd4fd43	-0.02599967
62	0x3ca49da4	0.0200947
63	0x3d750f0a	0.059828795
64	0x3d657a85	0.056025047
65	0x3c22842a	0.009919206
66	0x3dfae451	0.12250579
67	0x3dd71dde	0.105037436
68	0x3d609eba	0.054838873
69	0x3d4a495d	0.04938637
70	0x3c079d10	0.008277193
71	0x3ca87fa3	0.020568674
72	0x3d1f559c	0.038900003
73	0xbe1128ae	-0.14175674
74	0xbcadeb2e	-0.021230306
75	0x3db612cd	0.08890305
76	0xbd10fd91	-0.03539807
77	0x3d0f8b0b	0.03504471
78	0x3c8955d5	0.01676456
79	0xbdb34f7f	-0.08755397
80	0xbc88adac	-0.016684376
81	0xbdd9493a	-0.1060967
82	0xbd29ba01	-0.041437153
83	0xbda01680	-0.078167915
84	0xbdc9be93	-0.09850802
85	0x3e6e9bb3	0.23301582
86	0xbd362cd4	-0.044476345
87	0xbda33dcd	-0.07970772
88	0x3dd406d7	0.10352867
89	0xbd87b116	-0.06625573
90	0xbddff3bb	-0.1093516
91	0x3e32d94e	0.17465708
92	0x3e247530	0.16060328
93	0xbd1d5be6	-0.03841772
94	0x3de1a086	0.110169455
95	0xbd317666	-0.043325804
96	0xbdc885a5	-0.09791116
97	0x3d6ffea9	0.058592472
98	0x3dda473e	0.106581196
99	0x3e0bc402	0.1364899
100	0x3d1c31b4	0.038133338
101	0xbdd23139	-0.10263295
102	0xbcd09faf	-0.025466768
103	0x3dd0a840	0.10188341
104	0xbdb6e4a0	-0.089303255
105	0xbdd6d198	-0.104891956
106	0xbd9dafe5	-0.07699565
107	0xbe10d2d6	-0.14142928
108	0x3dc0118e	0.09378348
109	0xbc808b2d	-0.015691364
110	0x3c34d12c	0.011036199
111	0xbc331ac8	-0.010931678
112	0xbd0f781c	-0.035026655
113	0xbd4dce7c	-0.050245747
114	0x3cee1e45	0.029067168
115	0xbdebaf1b	-0.11508008
116	0x3db826ff	0.08991813
117	0x3dd08f9b	0.101836406
118	0xbe36a3b0	-0.1783588
119	0xbce3e89a	-0.027820874
120	0x3c906267	0.017625047
121	0xbe031278	-0.12800014
122	0x3cc53da9	0.024077253
123	0x3d9cf693	0.07664218
124	0x3e0f34bc	0.1398496
125	0x3b8a61c5	0.004223081
126	0xbd8e8100	-0.069581985
127	0x3c9e05ca	0.01928987
128	0xbcaea042	-0.021316651
129	0xbe2b9cb6	-0.16758999
130	0xbd76a85d	-0.060219157
131	0xbd7bdfd6	-0.061492763
132	0xbd14934f	-0.036273297
133	0x3dafeccd	0.08590088
134	0x3e09ebf9	0.13468923
135	0x3d0ff652	0.03514702
136	0xbe151d03	-0.14561848
137	0xbe49c8b9	-0.19705476
138	0x3d5b5f1e	0.053557508
139	0x3b84d7aa	0.0040540295
140	0xbe2b7678	-0.16744411
141	0xbc164e2c	-0.009173911
142	0x3c44d628	0.012013949
143	0x3ce978cd	0.028499985
144	0x3dcaa3cb	0.09894522
145	0xbd9e8f38	-0.077421606
146	0xbd3abe76	-0.045591794
147	0xbdad23d1	-0.08454097
148	0xbd81fe7e	-0.06347369
149	0x3daf7fa3	0.08569267
150	0x3dafb253	0.085789345
151	0x3cf833fa	0.030298222
152	0x3de9dd76	0.114191934
153	0x3dd78e9d	0.10525248
154	0xbcd5e14d	-0.026108408
155	0xbd004815	-0.031318743
156	0xbd516bbd	-0.051128138
157	0xbca6e1a2	-0.020371262
158	0xbcfaf32a	-0.030633528
159	0xbe0ae956	-0.13565573
160	0x3da7347c	0.081643075
161	0x3ba12dbc	0.004918782
162	0x3d9216a0	0.071332216
163	0xbdc99243	-0.0984235
164	0x3dca2688	0.098706305
165	0xbdca59e9	-0.0988043
166	0x3c7cdb52	0.015433149
167	0x3df44533	0.11927261
168	0xbd010eeb	-0.031508368
169	0xbdc649e2	-0.09682061
170	0x3d079a2b	0.03310601
171	0x3d1271f1	0.035753194
172	0x3e0a3911	0.13498332
173	0x3dc13f99	0.094359584
174	0xbd8978bb	-0.06712481
175	0x3da98f5f	0.08279299
176	0x3d84c43d	0.06482742
177	0xbc93633c	-0.017991655
178	0x3ce841bd	0.028351659
179	0xbc6fee1b	-0.014644171
180	0xbcf00d23	-0.02930314
181	0x3da222aa	0.07916768
182	0xbab9b9b2	-0.0014169721
183	0x3c1c7092	0.009548323
184	0x3da18a78	0.07887739
185	0x3b5e2a04	0.0033899555
186	0x3d576975	0.052590806
187	0x3cd47497	0.0259345
188	0x3d8d2838	0.06892437
189	0xbe157e5a	-0.1459898
190	0x3d0f0c7d	0.03492402
191	0xba8877b1	-0.0010411647
192	0x3d6fbc40	0.05852914
193	0xbd86a61d	-0.06574652
194	0x3def54e0	0.116861105
195	0x3d3784d9	0.044804428
196	0x3d09b777	0.03362223
197	0xbd99527c	-0.07486436
198	0x3ba02f5e	0.004888459
199	0x3c3b4d65	0.0114320265
200	0x3d797b7e	0.060908787
201	0xbdf8c770	-0.12147415
202	0x3d2c3bca	0.042049207
203	0xbc1d93a8	-0.0096177235
204	0x3a94247f	0.0011302381
205	0x3e2642ae	0.16236374
206	0x3dc8b7b8	0.098006666
207	0xbd4f9327	-0.050677445
208	0xbaac8761	-0.0013162905
209	0xbdba196e	-0.090868816
210	0x3dffd7e5	0.124923505
211	0xbdb6a585	-0.08918289
212	0xbd49c02c	-0.049255535
213	0x3e2b96db	0.16756766
214	0x3e212736	0.15737614
215	0x3de4e798	0.111769855
216	0x3d9e4828	0.077286065
217	0x3c86f083	0.016472107
218	0xbd96ca58	-0.07362813
219	0x3b4d7684	0.0031351158
220	0x3d364857	0.044502582
221	0xbe141dab	-0.14464442
222	0x3df145ee	0.11780916
223	0x3c80093c	0.015629403
224	0xbce42e9b	-0.027854254
225	0xbdbe8dde	-0.09304403
226	0x3ca7c6d6	0.020480555
227	0x3dbe6876	0.09297268
228	0x3d3218c9	0.04348067
229	0xbcc646f8	-0.024203762
230	0x3d45e1fc	0.04831122
231	0xbde4af1c	-0.11166212
232	0xbe310bb4	-0.1728962
233	0xbdd5f29e	-0.10446666
234	0xbcad8d28	-0.021185473
235	0xbe02748c	-0.12739772
236	0xbd898b15	-0.06715981
237	0x3cd3e4dd	0.025865966
238	0x3d503ff3	0.050842237
239	0x3cc86072	0.024460051
240	0xbd186b35	-0.037211616
241	0xbe01fea1	-0.1269479
242	0xbdb8b30f	-0.09018528
243	0x3db9ecc6	0.09078364
244	0xbda847e7	-0.08216839
245	0x3cc2430c	0.023713611
246	0xbda51dcc	-0.08062324
247	0x3d9b2b83	0.075766586
248	0xbc2e9d30	-0.010657594
249	0xbe144d6c	-0.14482659
250	0xbd9b3067	-0.075775914
251	0xbaf075e0	-0.0018345676
252	0xbddaffae	-0.10693298
253	0xbd10130e	-0.035174422
254	0x3d2b9c3b	0.04189704
255	0x3baa3b25	0.005195039

lstm.weight_hh_l1 f4 [256, 64]
0	0x3e168cad	0.14702101
1	0x3e010d30	0.12602687
2	0x3e3d557a	0.18489638
3	0xbe338cda	-0.175342
4	0x3e09a5ab	0.13442104
5	0x3e17c28f	0.14820312
6	0x3e364421	0.17799427
7	0x3e2d6ff0	0.16937232
8	0x3dc058f6	0.09391968
9	0x3c7d82fc	0.015473124
10	0xbd10b15e	-0.0353254
11	0xbe483f94	-0.19555503
12	0x3e29eec4	0.16594988
13	0x3cc191a2	0.023629013
14	0xbdf3904f	-0.11892759
15	0x3df82c32	0.121178046
16	0xbbb1866d	-0.005417636
17	0xbba91421	-0.0051598703
18	0xbe2c3e78	-0.16820705
19	0xbcb423c8	-0.021989718
20	0x3dc4ec6b	0.09615406
21	0xbd33e979	-0.04392383
22	0x3cd8769f	0.02642375
23	0x3e3b21a9	0.18274559
24	0xbcfb8873	-0.030704712
25	0xbdc14699	-0.094372936
26	0x3dd3929c	0.10330698
27	0xbe0100d7	-0.12597977
28	0x3d28dd13	0.041226458
29	0x3d74a670	0.05972904
30	0x3d8b48ce	0.06800996
31	0x3e3b3b25	0.1828428
32	0x3dc9dbbc	0.09856364
33	0x3d224db1	0.039624874
34	0xbb2f98c0	-0.0026793927
35	0xbd81d483	-0.063393615
36	0xbd927cf5	-0.0715274
37	0xbde2bbb1	-0.110709555
38	0x3d7d23c6	0.061801694
39	0xbb096d81	-0.002096981
40	0xbe1d11ea	-0.15338865
41	0x3e6b0203	0.22949986
42	0x3cd2c217	0.025727315
43	0x3e153622	0.14571431
44	0x3e7cd5e9	0.24690975
45	0xbe299a11	-0.16562678
46	0xbce2367d	-0.027613873
47	0x3e189542	0.14900687
48	0x3dd49106	0.103792235
49	0x3e0a4052	0.13501099
50	0x3ddb99b9	0.1072268
51	0x3de92851	0.11384643
52	0x3e3bc095	0.18335183
53	0x3d3c9206	0.046037696
54	0xbd8bbd79	-0.068232484
55	0xbde7944d	-0.11307583
56	0x3d6a5c8e	0.057217173
57	0x3e40792d	0.18796225
58	0x3dc79bfa	0.09746547
59	0xbdd8e889	-0.105912276
60	0x3d0ce30e	0.034396224
61	0x3e0669ee	0.13126346
62	0x3e2b3115	0.16717942
63	0xbe277011	-0.16351344
64	0xbd8f2952	-0.06990303
65	0x3ce794c7	0.028269185
66	0xbde9fcb2	-0.11425151
67	0x3d8beeea	0.068326786
68	0xbd81788b	-0.0632182
69	0x3dae913c	0.08523795
70	0xbd3e9177	-0.046525445
71	0x3dfb7f2c	0.122801155
72	0x3d2146f4	0.039374307
73	0x3da5e1c2	0.080997005
74	0x3d466fd5	0.048446495
75	0xbe3ccc1d	-0.18437238
76	0x3e0303fa	0.12794486
77	0xbdb46651	-0.08808578
78	0xbe15185a	-0.1456007
79	0x3ceeac46	0.02913488
80	0xbd9cdd41	-0.07659388
81	0xbdd9a7b1	-0.10627688
82	0x3d103fd2	0.035217114
83	0xbd2183e7	-0.039432433
84	0x3c8e0451	0.017336043
85	0x3dc922fb	0.09821125
86	0x3e093fac	0.13403195
87	0x3dc5bfc3	0.09655716
88	0x3ced875d	0.02899521
89	0xbe4ab014	-0.19793731
90	0x3d8461b5	0.06463949
91	0x3d0e7cb0	0.03478688
92	0x3df61834	0.12016335
93	0x3e5ba721	0.21450473
94	0xbd5929b0	-0.053018272
95	0x3c745ebf	0.014915167
96	0x3d2173f4	0.039417222
97	0x3d3bf13a	0.04588435
98	0x3de85af9	0.11345477
99	0xbe09e828	-0.13467467
100	0x3bcd4580	0.0062643886
101	0xbb81b315	-0.003958116
102	0x3d4a35a3	0.04936756
103	0x3e0c6f4e	0.13714334
104	0xbdc4f57b	-0.09617134
105	0xbd40551e	-0.046956174
106	0xbda27b47	-0.079336695
107	0x3df926e5	0.12165622
108	0x3e4c6142	0.19958976
109	0xbe11b51c	-0.14229244
110	0xbd9fea74	-0.0780839
111	0x3e2b6f09	0.16741575
112	0xbb1d2b4c	-0.0023982106
113	0xba3d5744	-0.00072227814
114	0xbd519e45	-0.05117633
115	0xbd0f6d9d	-0.035016645
116	0x3d0f7eb9	0.03503296
117	0xbb24a115	-0.0025120426
118	0xbd0e920a	-0.034807242
119	0xbd827c3d	-0.06371353
120	0x3db2c899	0.08729667
121	0xbcdecf3d	-0.027198428
122	0x3e21e570	0.1581018
123	0x3ced8462	0.02899379
124	0xbb964b32	-0.0045866007
125	0x3ce4da4b	0.027936121
126	0x3d05a264	0.03262557
127	0xbda0c309	-0.078497
128	0x3d5f632d	0.05453794
129	0xbcfb2417	-0.030656857
130	0x3c784e5e	0.015155403
131	0xbdfaf95c	-0.12254593
132	0xba819346	-0.000988581
133	0xbda5dd75	-0.0809888
134	0x3dc6fa12	0.09715666
135	0x3df9577d	0.1217489
136	0xbd81bfd2	-0.06335415
137	0x3de987e8	0.11402875
138	0x3cdf77ed	0.027278865
139	0xbb9594b9	-0.0045648483
140	0x3c038ab1	0.008028672
141	0x3c9d3ded	0.019194568
142	0xbe1ea7ee	-0.15493748
143	0x3deea37c	0.11652276
144	0xbccd64b7	-0.025072439
145	0xbcc00cf2	-0.023443673
146	0x3d605bcd	0.054775048
147	0x3e279803	0.16366582
148	0xbd848707	-0.06471067
149	0xbdf923f6	-0.12165062
150	0x3d1287d7	0.03577408
151	0x3e4c599d	0.1995606
152	0xbdeae81a	-0.11470051
153	0x3c9def0e	0.01927903
154	0x3e7a1540	0.24422169
155	0xbd740fae	-0.059585266
156	0xbccbde24	-0.024886198
157	0x3e92883d	0.28619567
158	0xbdf5de47	-0.12005287
159	0x3e188371	0.14893891
160	0x3cb32105	0.02186633
161	0xbdbb7437	-0.091530256
162	0xbd4a27de	-0.049354427
163	0xbdf2f728	-0.118635476
164	0xbdc415d5	-0.09574477
165	0xbb95bf2e	-0.0045699095
166	0xbb2ea9b9	-0.0026651456
167	0x3c41afad	0.0118216695
168	0xbd07b6ad	-0.033133198
169	0x3e13f65c	0.14449447
170	0xbd93b9d2	-0.07213177
171	0x3df7f92a	0.12108071
172	0x3e0a3925	0.13498361
173	0xbcfbd262	-0.030739967
174	0x3d2ce95f	0.042214748
175	0x3dd049fb	0.10170361
176	0x3dd0389c	0.101670474
177	0xbd553679	-0.052053902
178	0xbd58d8ae	-0.052941017
179	0xbd07d290	-0.033159792
180	0x3e15e33d	0.14637466
181	0x3d69528e	0.056963496
182	0xbdab6147	-0.083681636
183	0xbd8df61c	-0.06931707
184	0x3dfc1a2c	0.123096794
185	0x3da63d0a	0.08117111
186	0x3e738414	0.23780853
187	0xbb9c930e	-0.0047782725
188	0x3daab458	0.08335179
189	0x3ce2d7e6	0.027690839
190	0x3da6fe83	0.08154013
191	0x3d3b8085	0.045776863
192	0xbda90455	-0.082527794
193	0x3da08407	0.07837682
194	0x3d3d2b23	0.046183717
195	0xbd8e5f1a	-0.06951733
196	0xbde40bfe	-0.111351
197	0xbd531453	-0.051533055
198	0xbd175daf	-0.036954578
199	0x3c92de44	0.01792825
200	0x3dd4681c	0.1037142
201	0x3c1d57f5	0.00960349
202	0x3cc14aac	0.023595177
203	0xbd9564f5	-0.07294647
204	0xbc5c0e75	-0.013431181
205	0xbdd1acfe	-0.10238074
206	0xbd801356	-0.06253688
207	0x3dfcb1f9	0.12338633
208	0xbd092d41	-0.033490423
209	0xbdad7d61	-0.0847118
210	0x3dc091f1	0.09402836
211	0x3dc7c9b8	0.09755272
212	0xbb4f28d3	-0.0031610026
213	0xbd426dcd	-0.047467995
214	0x3e1c32b0	0.15253711
215	0x3b7c113b	0.0038462419
216	0xbd26ab88	-0.04069093
217	0xbe237a52	-0.1596463
218	0x3e26f697	0.16305004
219	0x3cd22949	0.025654452
220	0xbc011362	-0.007878156
221	0x3d895440	0.067055225
222	0x3c850f55	0.016242662
223	0x3de6e52c	0.1127418
224	0x3dcff78b	0.10154637
225	0xbd833a69	-0.06407625
226	0x3d7ab935	0.061211783
227	0xbd02fb47	-0.031977918
228	0xba372b18	-0.00069873175
229	0x3ce1993d	0.02753889
230	0x3e1b0da1	0.15141918
231	0xbd1ed863	-0.03878058
232	0x3dd10d5f	0.102076285
233	0xbd85654e	-0.06513463
234	0x3dc4ba08	0.09605795
235	0xbd549544	-0.051900163
236	0xba60c928	-0.00085748965
237	0x3d29ba06	0.04143717
238	0xbb0e2ae5	-0.0021693048
239	0x3d90bdac	0.07067427
240	0x3e23292b	0.15933673
241	0x3dd7b3a9	0.10532314
242	0xbe0374f4	-0.12837583
243	0x3dc221e8	0.09479123
244	0x3ddf3f08	0.10900694
245	0xbd9a6864	-0.07539442
246	0xbde714e3	-0.11283281
247	0x3d18ec93	0.03733499
248	0xbd679792	-0.056541033
249	0xbc0f3993	-0.008741754
250	0x3e2b3a0c	0.16721362
251	0x3cee35d1	0.029078396
252	0x3d489082	0.04896594
253	0x3d9ca8f8	0.07649416
254	0xbd37e09d	-0.044891942
255	0xbbb63f70	-0.0055617616

lstm.bias_ih_l1 f4 [256]
0	0xbdc2b2cd	-0.0950676
1	0x3dab892d	0.083757736
2	0x3da08773	0.07838335
3	0x3dc0f6ed	0.09422097
4	0x3df1cf3b	0.11807104
5	0x3d8a4aca	0.06752546
6	0x3d84bd00	0.064813614
7	0x3e5de011	0.21667506
8	0xbde1f75a	-0.11033507
9	0xbcdef51d	-0.027216488
10	0xbda74fca	-0.081695154
11	0xbd3f0cad	-0.046642948
12	0xbd8702cd	-0.06592331
13	0xbdb62160	-0.088930845
14	0xbd967bba	-0.07347818
15	0x3e257178	0.16156566
16	0x3cd413e3	0.025888389
17	0x3cd06800	0.025440216
18	0xbd0854a8	-0.03328386
19	0x3db1ead7	0.0868737
20	0x3dd00843	0.10157826
21	0x3d9be477	0.076119356
22	0x3e438a0b	0.19095628
23	0x3e1b383f	0.15158175
24	0x3dbe0db3	0.09279957
25	0x3df1c220	0.118046045
26	0x3e0437cc	0.1291191
27	0xbcab1a06	-0.020886432
28	0x3c98f591	0.018671783
29	0x3d19fc91	0.03759438
30	0xbd8a8915	-0.067644276
31	0x3d88775c	0.06663391
32	0xbc2314a3	-0.009953651
33	0xbd11ae81	-0.03556681
34	0x3d91e217	0.07123201
35	0x3df02ce3	0.117273115
36	0x3d361bf4	0.044460252
37	0x3dc78856	0.09742801
38	0x3de61469	0.11234362
39	0xbdcbdf15	-0.09954659
40	0x3a0b5628	0.00053152675
41	0xbd6ac0dd	-0.057312835
42	0xba42df0c	-0.0007433749
43	0xbd0e8ece	-0.034804158
44	0x3d759138	0.059952945
45	0x3da252f3	0.079259776
46	0x3ccb6867	0.024830056
47	0xbe0e5fa7	-0.13903676
48	0xbdc25252	-0.094883576
49	0xbdd5b7f9	-0.104354806
50	0xbe46820d	-0.19385548
51	0x3db1f22b	0.08688768
52	0x3e57d69a	0.21077958
53	0x3dd4f549	0.10398347
54	0x3970a062	0.00022947931
55	0x3ce111a0	0.027474225
56	0xbdf2583b	-0.11833235
57	0xbd46560f	-0.048421916
58	0x3e8f42c5	0.2798063
59	0xbb5944d2	-0.0033152592
60	0xbb56411d	-0.003269262
61	0xbd10a7f6	-0.03531643
62	0x3d2174f4	0.039418176
63	0x3e0487d1	0.12942435
64	0x3c7145a3	0.014726075
65	0xbd2914a0	-0.041279435
66	0xbdd8861d	-0.10572455
67	0x3d57c30c	0.052676246
68	0x3daa3c48	0.08312279
69	0x3d2acd50	0.041699708
70	0xbdc2ee47	-0.09518104
71	0x3dddf028	0.10836822
72	0x3da3e16e	0.08001982
73	0x3d121073	0.03566022
74	0x3deb41d1	0.11487163
75	0xbd12ee81	-0.035871986
76	0xbd976ba5	-0.073935784
77	0xbd770f88	-0.060317546
78	0xbd9bad3e	-0.07601403
79	0x3d7d65f5	0.061864812
80	0x3da98a85	0.08278374
81	0xbdfce9d6	-0.12349288
82	0x3d5d07ac	0.053962395
83	0x3d3df957	0.046380367
84	0xbd2d811a	-0.04235945
85	0x3e074ad3	0.13212137
86	0xbda57d66	-0.080805585
87	0xbce8d390	-0.028421193
88	0xbd1c0a1f	-0.03809559
89	0xbd712f84	-0.058883205
90	0xbe04e094	-0.12976295
91	0xbe072d32	-0.13200834
92	0xbb865f34	-0.0041007046
93	0xbd209bc5	-0.039211053
94	0x3d67701a	0.056503393
95	0xbd4de8d3	-0.050270867
96	0xbd76c645	-0.06024768
97	0xbd1e3709	-0.038626704
98	0x3d5f3576	0.054494344
99	0xbd1e0b24	-0.038584843
100	0xbe440ca2	-0.19145444
101	0xbdaba18c	-0.08380422
102	0xbdc71f8b	-0.09722813
103	0xbdc6b181	-0.09701825
104	0x3d6f19bb	0.058374148
105	0xbddc6e2b	-0.107632
106	0xbe10aece	-0.14129183
107	0x3d3f9be3	0.046779525
108	0xbd610612	-0.05493743
109	0x3db79631	0.089641936
110	0x3dab0d5a	0.08352156
111	0xbdd72bf2	-0.10506429
112	0x3d885d12	0.06658377
113	0xbd81fea6	-0.063473985
114	0xbe012142	-0.12610343
115	0xbde85b7c	-0.11345574
116	0x3c428751	0.011873082
117	0xbcf6b257	-0.030114336
118	0xbca10b97	-0.019658847
119	0xbce9b2bd	-0.028527612
120	0x3dbdaa5e	0.092610106
121	0x3d39078c	0.045173213
122	0x3d970da6	0.0737565
123	0x3d233301	0.039843563
124	0x3dcad8c0	0.09904623
125	0x3d13b5d0	0.03606206
126	0x3dfb1d8d	0.12261496
127	0x3d91aff8	0.071136415
128	0xbd71fb1b	-0.059077363
129	0xbdd8ac43	-0.10579731
130	0xbd42c2b1	-0.047548953
131	0x3cd69d46	0.02619804
132	0xbdd3bff7	-0.10339349
133	0xbd9a0b15	-0.07521645
134	0x3d05af66	0.032637976
135	0x3d5d5b85	0.054042358
136	0xbd1e927b	-0.038713913
137	0xbcb74cad	-0.022375429
138	0x3d90bc91	0.07067216
139	0xbda45e0a	-0.08025749
140	0x3dc684eb	0.09693321
141	0xbd28252c	-0.041051075
142	0xbd86d566	-0.06583671
143	0x3a232ae0	0.00062243454
144	0xbce14b98	-0.027501866
145	0x3d8cd818	0.06877154
146	0x3d4045e0	0.046941638
147	0x3d926a08	0.0714913
148	0xbd0d6f0c	-0.03452973
149	0x3d99e08c	0.07513532
150	0x3dc0f85a	0.09422369
151	0x3c948f4f	0.018134741
152	0x3de89956	0.113573715
153	0xbd8ac657	-0.067761116
154	0xbba2afda	-0.004964811
155	0x3d3b6d77	0.04575869
156	0x3d70d8a9	0.058800373
157	0xbd83d3de	-0.06436895
158	0xbcdcfa95	-0.026974956
159	0x3dab8359	0.08374662
160	0xbde12788	-0.10993868
161	0x3d92d287	0.07169061
162	0xbc50f6df	-0.012754171
163	0xbd305510	-0.043049872
164	0x3c63b67c	0.013898488
165	0xbcc34e88	-0.023841158
166	0xbc9fcb5c	-0.019506149
167	0xbd612b38	-0.054972857
168	0x3d2bd897	0.041954603
169	0x3d21b0ad	0.03947513
170	0x3d3631e6	0.04448118
171	0xbcda4aed	-0.026647056
172	0x3d10b112	0.035325117
173	0xbd2c5ffe	-0.042083733
174	0xbcdab9a6	-0.026699852
175	0x3d8167f9	0.06318659
176	0x3c382aaa	0.011240641
177	0xba467fca	-0.00075721426
178	0x3d98a053	0.074524544
179	0x3d1ddf5b	0.038543086
180	0xbcd18884	-0.025577791
181	0xbdd10f7c	-0.102080315
182	0x3d1c8663	0.0382141
183	0xbdbce837	-0.09223979
184	0xbd96882e	-0.07350193
185	0x3b7cdf82	0.003858537
186	0xbd4b9467	-0.049702074
187	0x3cf63fa4	0.030059643
188	0x3da49937	0.08037036
189	0xbcb794ce	-0.022409823
190	0x3d21da26	0.039514683
191	0xbdcffbf7	-0.1015548
192	0x3d76e66e	0.06027835
193	0xbca4f916	-0.020138305
194	0x3d55d2c0	0.05220294
195	0xbdcff571	-0.10154236
196	0xbc327eba	-0.010894472
197	0x3d504a95	0.050852377
198	0x3d3497c1	0.044090036
199	0x3eb42fff	0.35192868
200	0xbbcbab6a	-0.0062155025
201	0xbdd6aac6	-0.10481791
202	0xbd87445a	-0.06604834
203	0x3e19099d	0.14945073
204	0xbcb9fc3f	-0.022703288
205	0x3cc51192	0.02405623
206	0xbd69939e	-0.057025544
207	0x3d0af414	0.033924177
208	0xbd9f52cd	-0.07779465
209	0x3dd6a7fd	0.1048126
210	0xba639212	-0.0008681129
211	0x3cd9dc72	0.026594374
212	0xbd4cf220	-0.050035596
213	0xbd6a1f4f	-0.057158764
214	0x3c0ac921	0.008470804
215	0x3d68bf3d	0.056823004
216	0xbdf68311	-0.12036718
217	0xbe026eeb	-0.12737624
218	0x3dc94513	0.09827628
219	0x3bc37e68	0.0059659965
220	0xbbcfba22	-0.0063393274
221	0xbd189d03	-0.037259113
222	0xbd0c0801	-0.03418732
223	0x3e0c61a0	0.13709116
224	0x3e5e3b14	0.21702224
225	0xbda1f15a	-0.07907362
226	0xbde6f70e	-0.11277591
227	0x3d752501	0.059849743
228	0x3bedad12	0.0072532976
229	0x3d89b71f	0.06724381
230	0x3d3e649d	0.04648267
231	0xbd727278	-0.059191197
232	0x3adb2cff	0.0016721784
233	0x3ca9d3ab	0.020730814
234	0x3cdfac61	0.027303876
235	0xbdd6a1cf	-0.10480081
236	0x3d02df65	0.031951327
237	0xbdab759f	-0.08372044
238	0x3dbc67bb	0.091994725
239	0x3d25306f	0.040329393
240	0xbc86c0d9	-0.016449379
241	0xbd40cd03	-0.047070514
242	0x3ca94ca6	0.020666432
243	0xbd014944	-0.031564012
244	0x3e26b71b	0.16280787
245	0x3e0017aa	0.12509027
246	0x3da6236d	0.08112226
247	0xbddb95ba	-0.107219175
248	0xbd24bdd7	-0.040220108
249	0x3d018ceb	0.03162853
250	0x3e2ebeb7	0.1706494
251	0xbd93cffd	-0.07217405
252	0x3d5e116d	0.054215837
253	0xbda694af	-0.08133828
254	0xbd8ae386	-0.06781678
255	0x3d6deed8	0.058089107
